weights/yolo-fastest/yolo-fastest_with_quantize.tflite (tflite, 613600 bytes, 85 tensors)

model/conv2d/Conv2D i1 [8, 3, 3, 3]
00000000: 4400 3668 451e 05b3 1d6f 4f3b 767f 3c34
00000010: 0933 1cca 3148 3232 10c9 3826 1c20 1739
00000020: 1801 102a 1329 fd0f 1af2 f0f0 e61a 130c
00000030: d6ca c8af 81cd 2ed1 046a c0d3 7fc7 dd41
00000040: daff 71aa b879 96bb 24dc ff57 d4eb 60ad
00000050: eb2a 3fee 2123 2538 3dcc e410 740a 107f
00000060: 1021 0930 21f1 1e0a 0a44 35a6 f61d d4c5
00000070: d1df 1824 c9bd caf6 81a4 f6de dee4 08fe
00000080: e1cf dddb fa06 d3bd f2d2 bcba f4e4 0ee9
00000090: d7c0 d9b7 81dc e7db f0e8 17e4 d2d4 faf2
000000a0: 0ae1 d410 20b1 023f f908 21bd 1031 810e
000000b0: 48bf 002c e704 1ac7 1034 ec07 1ee8 37db
000000c0: e916 daf5 38c3 e119 d924 29c7 3653 b6f2
000000d0: 37cc 3034 ad40 7281
68 0 54 104 69 30 5 -77
29 111 79 59 118 127 60 52
9 51 28 -54 49 72 50 50
16 -55 56 38 28 32 23 57
24 1 16 42 19 41 -3 15
26 -14 -16 -16 -26 26 19 12
-42 -54 -56 -81 -127 -51 46 -47
4 106 -64 -45 127 -57 -35 65
-38 -1 113 -86 -72 121 -106 -69
36 -36 -1 87 -44 -21 96 -83
-21 42 63 -18 33 35 37 56
61 -52 -28 16 116 10 16 127
16 33 9 48 33 -15 30 10
10 68 53 -90 -10 29 -44 -59
-47 -33 24 36 -55 -67 -54 -10
-127 -92 -10 -34 -34 -28 8 -2
-31 -49 -35 -37 -6 6 -45 -67
-14 -46 -68 -70 -12 -28 14 -23
-41 -64 -39 -73 -127 -36 -25 -37
-16 -24 23 -28 -46 -44 -6 -14
10 -31 -44 16 32 -79 2 63
-7 8 33 -67 16 49 -127 14
72 -65 0 44 -25 4 26 -57
16 52 -20 7 30 -24 55 -37
-23 22 -38 -11 56 -61 -31 25
-39 36 41 -57 54 83 -74 -14
55 -52 48 52 -83 64 114 -127

model/conv2d_1/Conv2D i1 [8, 1, 1, 8]
00000000: 51f8 ffd6 7f78 fcf5 dd7f 1b15 04e7 04b1
00000010: 81fe 07a4 0730 fdec e426 170b 21f6 813f
00000020: 0be2 7fec 010b 08e8 f503 7f16 fbf6 c916
00000030: d165 0edb 26f7 fc81 81f9 f103 3a2d e403
81 -8 -1 -42 127 120 -4 -11
-35 127 27 21 4 -25 4 -79
-127 -2 7 -92 7 48 -3 -20
-28 38 23 11 33 -10 -127 63
11 -30 127 -20 1 11 8 -24
-11 3 127 22 -5 -10 -55 22
-47 101 14 -37 38 -9 -4 -127
-127 -7 -15 3 58 45 -28 3

model/conv2d_2/Conv2D i1 [4, 1, 1, 8]
00000000: ee27 0e44 5c81 ed22 bf7f 55a2 3030 a260
00000010: 14e4 7f00 eaea 20bb 2d42 bfd3 2af6 cf81
-18 39 14 68 92 -127 -19 34
-65 127 85 -94 48 48 -94 96
20 -28 127 0 -22 -22 32 -69
45 66 -65 -45 42 -10 -49 -127

model/conv2d_3/Conv2D i1 [8, 1, 1, 4]
00000000: de81 a270 ef81 6384 f6de 8117 ed9d 7faa
00000010: fad5 811a 81c7 22d3 5e7f 117a faea 8109
-34 -127 -94 112 -17 -127 99 -124
-10 -34 -127 23 -19 -99 127 -86
-6 -43 -127 26 -127 -57 34 -45
94 127 17 122 -6 -22 -127 9

model/conv2d_4/Conv2D i1 [4, 1, 1, 8]
00000000: 240d c309 1c07 077f c204 8dc5 53f0 397f
00000010: 067f ed13 f669 abf0 7a0e 4859 81fc dee0
36 13 -61 9 28 7 7 127
-62 4 -115 -59 83 -16 57 127
6 127 -19 19 -10 105 -85 -16
122 14 72 89 -127 -4 -34 -32

model/conv2d_5/Conv2D i1 [24, 1, 1, 4]
00000000: 12de ff7f 812c fd09 1a7a f481 d681 041d
00000010: 267f ffdc 080d 7ff1 812c fd04 d181 fca2
00000020: 495a 057f 2281 f9ba 01ec fd7f b081 0433
00000030: e79b 087f b281 074f 81c6 1034 f681 ff22
00000040: f31c 0381 812a ff02 e090 057f ecb5 017f
00000050: 7fd5 0003 1ddb 007f e19e 047f eb81 0a7a
18 -34 -1 127 -127 44 -3 9
26 122 -12 -127 -42 -127 4 29
38 127 -1 -36 8 13 127 -15
-127 44 -3 4 -47 -127 -4 -94
73 90 5 127 34 -127 -7 -70
1 -20 -3 127 -80 -127 4 51
-25 -101 8 127 -78 -127 7 79
-127 -58 16 52 -10 -127 -1 34
-13 28 3 -127 -127 42 -1 2
-32 -112 5 127 -20 -75 1 127
127 -43 0 3 29 -37 0 127
-31 -98 4 127 -21 -127 10 122

model/conv2d_6/Conv2D i1 [8, 1, 1, 24]
00000000: 672a a807 15fc cc11 eee3 6825 6ec0 e4e6
00000010: 7123 01dd 155b df81 2c26 0ed2 d2ee c50e
00000020: 05f4 20cb 1c0c 47fd 3220 f203 812a f006
00000030: fe01 7f01 03fd 0100 fe13 fd01 38fc 12fc
00000040: ff07 f6fd 16fe f0fb dbe2 1f28 2a07 290a
00000050: fff0 e62d fffa 3a00 d9d8 00ff 81de 00f3
00000060: f80f f5d9 dc15 f5e8 96f1 f9df 38a5 098d
00000070: e5d7 1381 07c6 131e 5ced d46f 7fc2 0af5
00000080: b800 5f70 b2e6 03b4 4bd3 a7aa 1711 bad6
00000090: 0309 1304 0405 ff81 04a9 0405 04ff d604
000000a0: 020e 0002 0304 fffa d2c8 ece7 ec81 fae5
000000b0: 10f1 d3e4 1921 0111 de09 9a16 0ff2 92b9
103 42 -88 7 21 -4 -52 17
-18 -29 104 37 110 -64 -28 -26
113 35 1 -35 21 91 -33 -127
44 38 14 -46 -46 -18 -59 14
5 -12 32 -53 28 12 71 -3
50 32 -14 3 -127 42 -16 6
-2 1 127 1 3 -3 1 0
-2 19 -3 1 56 -4 18 -4
-1 7 -10 -3 22 -2 -16 -5
-37 -30 31 40 42 7 41 10
-1 -16 -26 45 -1 -6 58 0
-39 -40 0 -1 -127 -34 0 -13
-8 15 -11 -39 -36 21 -11 -24
-106 -15 -7 -33 56 -91 9 -115
-27 -41 19 -127 7 -58 19 30
92 -19 -44 111 127 -62 10 -11
-72 0 95 112 -78 -26 3 -76
75 -45 -89 -86 23 17 -70 -42
3 9 19 4 4 5 -1 -127
4 -87 4 5 4 -1 -42 4
2 14 0 2 3 4 -1 -6
-46 -56 -20 -25 -20 -127 -6 -27
16 -15 -45 -28 25 33 1 17
-34 9 -102 22 15 -14 -110 -71

model/conv2d_7/Conv2D i1 [32, 1, 1, 8]
00000000: 0477 887f 0702 d7f5 e7de dc08 eb81 0802
00000010: 04f7 ff02 fa02 81f7 f80c 7ffd f905 d9fc
00000020: 0697 4781 06fd 2807 17f8 0203 f6f6 8100
00000030: bbd3 1e1c 7f75 00e5 7ff8 f90c fec9 e90b
00000040: fb61 0f7f fc03 fdf9 fa77 907f ff03 ca01
00000050: 1272 0f7f 00eb 2af9 7fda ea1d 0bc4 f649
00000060: 1661 0e7f 02eb 0cfb 1069 1f95 81d4 30e6
00000070: f800 7fef 0aef df06 098a 327f dc43 22c7
00000080: 061c e8e4 7fe3 df40 7fec f61c 05c7 f964
00000090: fb1c 8132 ed0c 340a e87f 0a9b fb47 fcd2
000000a0: fffe 0c03 f00a 8100 2029 14fc 81fb 012e
000000b0: e388 127f 1347 f91e 7fe4 f31d 00c8 ed23
000000c0: f317 04f5 f11a ee7f 2ceb 59b0 0071 507f
000000d0: 127f dc87 21bf f330 7fdd ed20 06c9 ec24
000000e0: cd81 236f b10f 1405 16ff e3f8 7fef f5ca
000000f0: cc81 066c 112f 0999 8131 1be5 fa45 0862
4 119 -120 127 7 2 -41 -11
-25 -34 -36 8 -21 -127 8 2
4 -9 -1 2 -6 2 -127 -9
-8 12 127 -3 -7 5 -39 -4
6 -105 71 -127 6 -3 40 7
23 -8 2 3 -10 -10 -127 0
-69 -45 30 28 127 117 0 -27
127 -8 -7 12 -2 -55 -23 11
-5 97 15 127 -4 3 -3 -7
-6 119 -112 127 -1 3 -54 1
18 114 15 127 0 -21 42 -7
127 -38 -22 29 11 -60 -10 73
22 97 14 127 2 -21 12 -5
16 105 31 -107 -127 -44 48 -26
-8 0 127 -17 10 -17 -33 6
9 -118 50 127 -36 67 34 -57
6 28 -24 -28 127 -29 -33 64
127 -20 -10 28 5 -57 -7 100
-5 28 -127 50 -19 12 52 10
-24 127 10 -101 -5 71 -4 -46
-1 -2 12 3 -16 10 -127 0
32 41 20 -4 -127 -5 1 46
-29 -120 18 127 19 71 -7 30
127 -28 -13 29 0 -56 -19 35
-13 23 4 -11 -15 26 -18 127
44 -21 89 -80 0 113 80 127
18 127 -36 -121 33 -65 -13 48
127 -35 -19 32 6 -55 -20 36
-51 -127 35 111 -79 15 20 5
22 -1 -29 -8 127 -17 -11 -54
-52 -127 6 108 17 47 9 -103
-127 49 27 -27 -6 69 8 98

model/conv2d_8/Conv2D i1 [8, 1, 1, 32]
00000000: bd3a 9ec5 c505 3b09 cffd d1c7 fe0f e6f0
00000010: c8b3 e520 b4a5 edea 81d8 57f0 1a2b 31a0
00000020: b2ff cc03 987f d438 cc69 63df e29f 3ecd
00000030: d4f0 daa2 9be5 071f 14fb 301b 35f0 4001
00000040: 260f 1c07 1a06 fc15 1c13 1e81 0bfe 9d1f
00000050: 05f7 e9fc 0303 e511 f1ee e0f4 0bea 03f6
00000060: ecfd 2d03 5781 2bda 57ab a4f6 145f ac49
00000070: 1f08 1463 620b 09f0 1f20 d1ea c1f2 bf01
00000080: 42f6 2881 e0dd 48ff 05be 1a0c 900b 36f2
00000090: df10 9a0d da41 fb17 fd0e 1e18 2370 dd00
000000a0: 0240 0dfb 14df e63a 25d6 f410 f010 0529
000000b0: 2df7 0cf3 23e5 8168 bcfb 9c65 340d 15ee
000000c0: 1916 3aeb 7f47 e60e 5725 3104 42d7 d315
000000d0: 3b31 e0f2 afff c9f7 0ce7 b537 10ee 07f5
000000e0: 98de 8d46 0415 0119 de1a afd3 5105 d8b7
000000f0: c996 645b 1fe8 f6e4 0d9f 7fd8 f287 3c98
-67 58 -98 -59 -59 5 59 9
-49 -3 -47 -57 -2 15 -26 -16
-56 -77 -27 32 -76 -91 -19 -22
-127 -40 87 -16 26 43 49 -96
-78 -1 -52 3 -104 127 -44 56
-52 105 99 -33 -30 -97 62 -51
-44 -16 -38 -94 -101 -27 7 31
20 -5 48 27 53 -16 64 1
38 15 28 7 26 6 -4 21
28 19 30 -127 11 -2 -99 31
5 -9 -23 -4 3 3 -27 17
-15 -18 -32 -12 11 -22 3 -10
-20 -3 45 3 87 -127 43 -38
87 -85 -92 -10 20 95 -84 73
31 8 20 99 98 11 9 -16
31 32 -47 -22 -63 -14 -65 1
66 -10 40 -127 -32 -35 72 -1
5 -66 26 12 -112 11 54 -14
-33 16 -102 13 -38 65 -5 23
-3 14 30 24 35 112 -35 0
2 64 13 -5 20 -33 -26 58
37 -42 -12 16 -16 16 5 41
45 -9 12 -13 35 -27 -127 104
-68 -5 -100 101 52 13 21 -18
25 22 58 -21 127 71 -26 14
87 37 49 4 66 -41 -45 21
59 49 -32 -14 -81 -1 -55 -9
12 -25 -75 55 16 -18 7 -11
-104 -34 -115 70 4 21 1 25
-34 26 -81 -45 81 5 -40 -73
-55 -106 100 91 31 -24 -10 -28
13 -97 127 -40 -14 -121 60 -104

model/conv2d_9/Conv2D i1 [32, 1, 1, 8]
00000000: 130d 08ff fdf4 ed7f 097f ea86 34ea fbfd
00000010: 00c3 81eb 1709 cb04 075f cb9c 8901 fe81
00000020: 172b 191b ebdc 087f f6b6 3681 fe02 0ffb
00000030: f7a2 1b81 f711 a304 a737 03c7 64ee 0881
00000040: 0c20 02cb fb06 fc7f cd40 12be 0a2c 1181
00000050: 06ef 7f20 eefc 7122 8134 3dee 0236 0f0d
00000060: f8d2 fc29 ee0e 147f 265e f5a1 7fc5 da3d
00000070: 0bf8 fe0c 7f12 fbf2 15f4 7f03 1bed a917
00000080: 09f0 81e1 0406 fb0d 078f fd7f 6607 ed69
00000090: 9b81 dc67 5bc8 eb90 1626 3440 8148 5414
000000a0: 22ef 5e09 e8f5 8116 f0ed f609 08f9 0081
000000b0: fb65 816f 0105 26f8 0bef 7f27 2de4 e4fb
000000c0: 87b0 fe39 90f7 3c81 ed4c 812d f101 420d
000000d0: f3eb 81ee f20b 0ef9 fef9 00fc 7ff6 f0e9
000000e0: 0d19 14ff 8117 0e21 f5cf 81ea 1805 e01d
000000f0: 21d5 81df 0fef 064c 1ef7 faf6 7fd7 eb0f
19 13 8 -1 -3 -12 -19 127
9 127 -22 -122 52 -22 -5 -3
0 -61 -127 -21 23 9 -53 4
7 95 -53 -100 -119 1 -2 -127
23 43 25 27 -21 -36 8 127
-10 -74 54 -127 -2 2 15 -5
-9 -94 27 -127 -9 17 -93 4
-89 55 3 -57 100 -18 8 -127
12 32 2 -53 -5 6 -4 127
-51 64 18 -66 10 44 17 -127
6 -17 127 32 -18 -4 113 34
-127 52 61 -18 2 54 15 13
-8 -46 -4 41 -18 14 20 127
38 94 -11 -95 127 -59 -38 61
11 -8 -2 12 127 18 -5 -14
21 -12 127 3 27 -19 -87 23
9 -16 -127 -31 4 6 -5 13
7 -113 -3 127 102 7 -19 105
-101 -127 -36 103 91 -56 -21 -112
22 38 52 64 -127 72 84 20
34 -17 94 9 -24 -11 -127 22
-16 -19 -10 9 8 -7 0 -127
-5 101 -127 111 1 5 38 -8
11 -17 127 39 45 -28 -28 -5
-121 -80 -2 57 -112 -9 60 -127
-19 76 -127 45 -15 1 66 13
-13 -21 -127 -18 -14 11 14 -7
-2 -7 0 -4 127 -10 -16 -23
13 25 20 -1 -127 23 14 33
-11 -49 -127 -22 24 5 -32 29
33 -43 -127 -33 15 -17 6 76
30 -9 -6 -10 127 -41 -21 15

model/conv2d_10/Conv2D i1 [8, 1, 1, 32]
00000000: c5f4 fdd9 aa2d e362 f434 eea9 f6d9 a6c0
00000010: f0df 16e5 dae4 08de d002 ec81 c1b8 cea9
00000020: 08de 7f48 f304 f43a 59c5 d001 c6c8 0089
00000030: 195a 0d38 5306 f25e 0bef 0a09 e69c 26f5
00000040: fe29 3314 ea35 e714 f7d2 7fe6 0716 c71a
00000050: 0a19 18d1 e8f8 66a8 1b4c 0dd9 cce8 4611
00000060: ed43 92b3 f602 12f2 d53c 55e1 5852 f65e
00000070: f4b9 22d0 970c 0481 16ff f7f1 fb65 e210
00000080: 1814 ffee 4503 17fb e9e0 b90f d5ce a8f5
00000090: 3f03 d4eb 2281 19d5 0df7 20e4 3a02 2ca0
000000a0: 0e57 0b51 ea3d e92b c5b6 f8f3 f24d bbf9
000000b0: 6a44 10ac ffd2 e9f1 485f 7fd6 d21e e3f6
000000c0: 340a 1727 0254 1b0a f2fa 01ea fa1e 05d3
000000d0: 021c 07fb d61d 7fe7 1737 f811 04e3 0bff
000000e0: b30a f306 a9ec 8131 2152 2df1 3c06 0cdc
000000f0: eaf0 7ad9 d0b8 090a 0705 fc27 a90c 9e24
-59 -12 -3 -39 -86 45 -29 98
-12 52 -18 -87 -10 -39 -90 -64
-16 -33 22 -27 -38 -28 8 -34
-48 2 -20 -127 -63 -72 -50 -87
8 -34 127 72 -13 4 -12 58
89 -59 -48 1 -58 -56 0 -119
25 90 13 56 83 6 -14 94
11 -17 10 9 -26 -100 38 -11
-2 41 51 20 -22 53 -25 20
-9 -46 127 -26 7 22 -57 26
10 25 24 -47 -24 -8 102 -88
27 76 13 -39 -52 -24 70 17
-19 67 -110 -77 -10 2 18 -14
-43 60 85 -31 88 82 -10 94
-12 -71 34 -48 -105 12 4 -127
22 -1 -9 -15 -5 101 -30 16
24 20 -1 -18 69 3 23 -5
-23 -32 -71 15 -43 -50 -88 -11
63 3 -44 -21 34 -127 25 -43
13 -9 32 -28 58 2 44 -96
14 87 11 81 -22 61 -23 43
-59 -74 -8 -13 -14 77 -69 -7
106 68 16 -84 -1 -46 -23 -15
72 95 127 -42 -46 30 -29 -10
52 10 23 39 2 84 27 10
-14 -6 1 -22 -6 30 5 -45
2 28 7 -5 -42 29 127 -25
23 55 -8 17 4 -29 11 -1
-77 10 -13 6 -87 -20 -127 49
33 82 45 -15 60 6 12 -36
-22 -16 122 -39 -48 -72 9 10
7 5 -4 39 -87 12 -98 36

model/conv2d_11/Conv2D i1 [32, 1, 1, 8]
00000000: 0d4d f0af 7ffc f4fe 115a d07f fff8 f2f9
00000010: fe04 10fc 8109 0706 e20b 2fe8 9d24 3481
00000020: 0581 4183 e8f6 8ff1 127f e8ae 7ed2 be52
00000030: 0b22 f8d0 24de 1081 04ec ed0e 36ed f681
00000040: e2ed d906 3f81 fc27 c9aa f27f 0782 fb29
00000050: fb33 24d5 ab10 f67f f962 ad7f ed0d abfa
00000060: e713 1705 e4f1 eb81 f6fe 0cf4 07f0 7ff7
00000070: e874 f681 c6bc 089b ecde 81df f018 04df
00000080: fce6 81f3 f41e 23ed 02e8 81fb f51c 0b06
00000090: e389 107f 2230 fd4d 811f 04e4 1827 f8d3
000000a0: 12de 8106 3e06 f8fd 14cb 7fcc 1b0a 18d1
000000b0: 04ec f713 7f0f f2fb f57f 0690 241f 00fb
000000c0: e3f2 81e2 b72d 21f8 04f6 81eb 0201 14e7
000000d0: 13e5 8100 3bf4 f901 05d2 ff39 f811 ee7f
000000e0: 11d5 001b 7f18 fae7 0b38 fad6 f708 f67f
000000f0: 16f8 7f36 fe42 1e17 e81c 7f10 1bf2 0512
13 77 -16 -81 127 -4 -12 -2
17 90 -48 127 -1 -8 -14 -7
-2 4 16 -4 -127 9 7 6
-30 11 47 -24 -99 36 52 -127
5 -127 65 -125 -24 -10 -113 -15
18 127 -24 -82 126 -46 -66 82
11 34 -8 -48 36 -34 16 -127
4 -20 -19 14 54 -19 -10 -127
-30 -19 -39 6 63 -127 -4 39
-55 -86 -14 127 7 -126 -5 41
-5 51 36 -43 -85 16 -10 127
-7 98 -83 127 -19 13 -85 -6
-25 19 23 5 -28 -15 -21 -127
-10 -2 12 -12 7 -16 127 -9
-24 116 -10 -127 -58 -68 8 -101
-20 -34 -127 -33 -16 24 4 -33
-4 -26 -127 -13 -12 30 35 -19
2 -24 -127 -5 -11 28 11 6
-29 -119 16 127 34 48 -3 77
-127 31 4 -28 24 39 -8 -45
18 -34 -127 6 62 6 -8 -3
20 -53 127 -52 27 10 24 -47
4 -20 -9 19 127 15 -14 -5
-11 127 6 -112 36 31 0 -5
-29 -14 -127 -30 -73 45 33 -8
4 -10 -127 -21 2 1 20 -25
19 -27 -127 0 59 -12 -7 1
5 -46 -1 57 -8 17 -18 127
17 -43 0 27 127 24 -6 -25
11 56 -6 -42 -9 8 -10 127
22 -8 127 54 -2 66 30 23
-24 28 127 16 27 -14 5 18

model/conv2d_12/Conv2D i1 [8, 1, 1, 32]
00000000: cb0c fb14 fa25 0411 e1cb 0bfd 050e 1f18
00000010: 107f f1e4 ef02 f420 271c e911 f4f6 bbe9
00000020: 6c0c 36ee 10c3 c7e4 0b49 0edd 1f2f c514
00000030: 057f 39fb d304 dae3 0a18 d0cb 29e4 8ad9
00000040: 020e c22c 140b da2e c508 0114 5e0a c809
00000050: faec 35db 250e 3408 0f0a 0ff7 8126 c831
00000060: 0015 d60d fe5f 1dde 7f5c e010 3f15 2320
00000070: 2469 bdf5 ff1b 0aaf 160d 0507 fbe6 7923
00000080: eeca eedd e9e5 fa00 2713 2bfb b710 fac1
00000090: f334 237f f9bf 740a fbd6 f5f9 d717 edeb
000000a0: 1705 130a c508 f000 ff07 08ff 0681 f003
000000b0: f902 0c06 fe02 f6fc 0602 fff0 f408 09ee
000000c0: 2c11 eb18 e3c0 480f fe22 93f3 bf01 032a
000000d0: 1b2f e5b8 0314 1bc0 281b 0835 e07f 04e0
000000e0: f10f eb04 7f0f fb06 fafd 0389 e6cb fe05
000000f0: fe08 03f7 fd02 0d05 0b01 f407 ea00 0711
-53 12 -5 20 -6 37 4 17
-31 -53 11 -3 5 14 31 24
16 127 -15 -28 -17 2 -12 32
39 28 -23 17 -12 -10 -69 -23
108 12 54 -18 16 -61 -57 -28
11 73 14 -35 31 47 -59 20
5 127 57 -5 -45 4 -38 -29
10 24 -48 -53 41 -28 -118 -39
2 14 -62 44 20 11 -38 46
-59 8 1 20 94 10 -56 9
-6 -20 53 -37 37 14 52 8
15 10 15 -9 -127 38 -56 49
0 21 -42 13 -2 95 29 -34
127 92 -32 16 63 21 35 32
36 105 -67 -11 -1 27 10 -81
22 13 5 7 -5 -26 121 35
-18 -54 -18 -35 -23 -27 -6 0
39 19 43 -5 -73 16 -6 -63
-13 52 35 127 -7 -65 116 10
-5 -42 -11 -7 -41 23 -19 -21
23 5 19 10 -59 8 -16 0
-1 7 8 -1 6 -127 -16 3
-7 2 12 6 -2 2 -10 -4
6 2 -1 -16 -12 8 9 -18
44 17 -21 24 -29 -64 72 15
-2 34 -109 -13 -65 1 3 42
27 47 -27 -72 3 20 27 -64
40 27 8 53 -32 127 4 -32
-15 15 -21 4 127 15 -5 6
-6 -3 3 -119 -26 -53 -2 5
-2 8 3 -9 -3 2 13 5
11 1 -12 7 -22 0 7 17

model/conv2d_13/Conv2D i1 [48, 1, 1, 8]
00000000: e312 ed04 3edd fc81 1d20 1f11 10c0 0681
00000010: db04 100f eac0 de7f 81b5 e71c ef4e bf66
00000020: 2e0a 2c97 81fe 13ea f5c9 03ac 7fce 4017
00000030: 816c e1d4 4252 aed4 3c81 eeed 4fc5 0701
00000040: f0d6 cbf8 ff7f 044c 797f 86e2 090b 1cac
00000050: 2638 d10f f281 88b9 a83e 35ca f02c 7ff9
00000060: a98c dd81 1bee 42d5 e80e fd07 fece f27f
00000070: cf10 dc97 7fe9 b2ef 81c7 0ad4 dd9d fe41
00000080: ee6a a849 8113 cbe9 2781 fb2a c609 301e
00000090: 7fd5 fc01 7624 65b9 08e2 81ba dabf 04f5
000000a0: 91d0 a181 07b4 4420 c1c8 1912 ca28 d681
000000b0: b97f 2f06 e81b df02 81d4 1a03 c8e0 ca38
000000c0: 7f59 0c35 f30c fd37 114d e081 15f0 7cde
000000d0: 15c9 e701 0e7f f47f 7f4c 212e 0a2c 23f8
000000e0: b31f b57f 1fe4 18dd dfd9 fb56 3eef 7ffc
000000f0: c5b8 cab5 0d3a db81 9b2f 0a8a 5afa 7fea
-29 18 -19 4 62 -35 -4 -127
29 32 31 17 16 -64 6 -127
-37 4 16 15 -22 -64 -34 127
-127 -75 -25 28 -17 78 -65 102
46 10 44 -105 -127 -2 19 -22
-11 -55 3 -84 127 -50 64 23
-127 108 -31 -44 66 82 -82 -44
60 -127 -18 -19 79 -59 7 1
-16 -42 -53 -8 -1 127 4 76
121 127 -122 -30 9 11 28 -84
38 56 -47 15 -14 -127 -120 -71
-88 62 53 -54 -16 44 127 -7
-87 -116 -35 -127 27 -18 66 -43
-24 14 -3 7 -2 -50 -14 127
-49 16 -36 -105 127 -23 -78 -17
-127 -57 10 -44 -35 -99 -2 65
-18 106 -88 73 -127 19 -53 -23
39 -127 -5 42 -58 9 48 30
127 -43 -4 1 118 36 101 -71
8 -30 -127 -70 -38 -65 4 -11
-111 -48 -95 -127 7 -76 68 32
-63 -56 25 18 -54 40 -42 -127
-71 127 47 6 -24 27 -33 2
-127 -44 26 3 -56 -32 -54 56
127 89 12 53 -13 12 -3 55
17 77 -32 -127 21 -16 124 -34
21 -55 -25 1 14 127 -12 127
127 76 33 46 10 44 35 -8
-77 31 -75 127 31 -28 24 -35
-33 -39 -5 86 62 -17 127 -4
-59 -72 -54 -75 13 58 -37 -127
-101 47 10 -118 90 -6 127 -22

model/conv2d_14/Conv2D i1 [8, 1, 1, 48]
00000000: 5a81 d243 ed06 4f38 14a7 dc35 3b39 f8c8
00000010: e4b7 43ca bc5b 3591 6940 bc6c 14b7 3037
00000020: e104 e1c6 ab27 06e7 1d12 e1e4 1d16 051b
00000030: af8a f457 a8ab 91db 78ab d5a9 37da f902
00000040: 457c 2d5a 4062 8f9d 764d ca23 cb3b 1a07
00000050: 4e4f ca34 cdd8 cf44 16fd 2fde efde 1381
00000060: e90d 12cc 0e4a f6a1 29e8 2ea5 0925 08f4
00000070: 8124 1e4c 2bf5 c65c f7ef b4e8 2fa6 c6cc
00000080: 38b2 df23 d476 0ffb f4ea 3bef f058 eb35
00000090: efd1 0ee3 9cc8 0307 f842 fbb6 3415 81d5
000000a0: 03e6 3b06 d401 e602 23d2 f01a cd39 da21
000000b0: 11fc c4b2 c1ba e811 5460 f00f b80b 2eb3
000000c0: 08db d72d 7f3f 1ae3 f43a 30f8 362a 2d08
000000d0: 8fcd 0040 e314 25d2 542c f84b 75c6 41c9
000000e0: cbea 3264 3538 0e8f f6e8 4efe e525 0230
000000f0: f087 d5bb d9fb d013 2ff2 0dda f80c 0319
90 -127 -46 67 -19 6 79 56
20 -89 -36 53 59 57 -8 -56
-28 -73 67 -54 -68 91 53 -111
105 64 -68 108 20 -73 48 55
-31 4 -31 -58 -85 39 6 -25
29 18 -31 -28 29 22 5 27
-81 -118 -12 87 -88 -85 -111 -37
120 -85 -43 -87 55 -38 -7 2
69 124 45 90 64 98 -113 -99
118 77 -54 35 -53 59 26 7
78 79 -54 52 -51 -40 -49 68
22 -3 47 -34 -17 -34 19 -127
-23 13 18 -52 14 74 -10 -95
41 -24 46 -91 9 37 8 -12
-127 36 30 76 43 -11 -58 92
-9 -17 -76 -24 47 -90 -58 -52
56 -78 -33 35 -44 118 15 -5
-12 -22 59 -17 -16 88 -21 53
-17 -47 14 -29 -100 -56 3 7
-8 66 -5 -74 52 21 -127 -43
3 -26 59 6 -44 1 -26 2
35 -46 -16 26 -51 57 -38 33
17 -4 -60 -78 -63 -70 -24 17
84 96 -16 15 -72 11 46 -77
8 -37 -41 45 127 63 26 -29
-12 58 48 -8 54 42 45 8
-113 -51 0 64 -29 20 37 -46
84 44 -8 75 117 -58 65 -55
-53 -22 50 100 53 56 14 -113
-10 -24 78 -2 -27 37 2 48
-16 -121 -43 -69 -39 -5 -48 19
47 -14 13 -38 -8 12 3 25

model/conv2d_15/Conv2D i1 [48, 1, 1, 8]
00000000: 7c98 836c 87f0 8136 7f0f 96a1 175e 0ca8
00000010: 55b6 8174 e4b3 cabe d190 7f22 05af 1c01
00000020: 4314 d315 605a 4b7f dc81 293f 56ee fa32
00000030: 1112 d889 4834 81ec 35fe 7f59 c05d fb21
00000040: 1b35 5dcf 5b84 4681 5616 051b 2848 fb81
00000050: 3081 58f1 400a 6414 d85d bd7f d112 f3fc
00000060: 6a1a 517f 0c3d 1c15 555e f31b 1110 147f
00000070: 2993 5d81 4016 4211 aae4 5326 2b0c 7f04
00000080: 81c0 c1be dfb8 16f1 215c 81b9 f911 1d0f
00000090: 93e0 67bc 7f04 3bdd 231f 6c7f cd34 d617
000000a0: e9c3 708c 7f12 110b 81cc f6f8 cee2 dc04
000000b0: ea0a 6481 2706 6606 e5fa f3fd f8fc ed7f
000000c0: af5f bf7f 5c04 65f4 1015 de15 8112 f303
000000d0: 8189 28fa 2023 dba1 8160 b0ba d7ec 30c8
000000e0: 333b b581 30fd 19fc d11f b57f 0803 fdea
000000f0: d701 b181 defc 050e ca09 81b5 c8dc f4e1
124 -104 -125 108 -121 -16 -127 54
127 15 -106 -95 23 94 12 -88
85 -74 -127 116 -28 -77 -54 -66
-47 -112 127 34 5 -81 28 1
67 20 -45 21 96 90 75 127
-36 -127 41 63 86 -18 -6 50
17 18 -40 -119 72 52 -127 -20
53 -2 127 89 -64 93 -5 33
27 53 93 -49 91 -124 70 -127
86 22 5 27 40 72 -5 -127
48 -127 88 -15 64 10 100 20
-40 93 -67 127 -47 18 -13 -4
106 26 81 127 12 61 28 21
85 94 -13 27 17 16 20 127
41 -109 93 -127 64 22 66 17
-86 -28 83 38 43 12 127 4
-127 -64 -63 -66 -33 -72 22 -15
33 92 -127 -71 -7 17 29 15
-109 -32 103 -68 127 4 59 -35
35 31 108 127 -51 52 -42 23
-23 -61 112 -116 127 18 17 11
-127 -52 -10 -8 -50 -30 -36 4
-22 10 100 -127 39 6 102 6
-27 -6 -13 -3 -8 -4 -19 127
-81 95 -65 127 92 4 101 -12
16 21 -34 21 -127 18 -13 3
-127 -119 40 -6 32 35 -37 -95
-127 96 -80 -70 -41 -20 48 -56
51 59 -75 -127 48 -3 25 -4
-47 31 -75 127 8 3 -3 -22
-41 1 -79 -127 -34 -4 5 14
-54 9 -127 -75 -56 -36 -12 -31

model/conv2d_16/Conv2D i1 [8, 1, 1, 48]
00000000: cede cc05 04f4 0717 f9e2 a92b 67bf ed5c
00000010: f4a2 3312 00cd d0db 83eb 7fbb 45ef ca0d
00000020: f2e9 fe4d 1253 eb1d 55e9 1a24 d177 fd50
00000030: 6a09 58b3 e84a c51a f3d3 5f9c 170a 459f
00000040: 5cac 15c3 30e2 5efb 4cac 367f 151c 04e7
00000050: 173f 0f96 cad2 12ca 2fa1 13ec fe5c 320a
00000060: 30d2 4e35 11d8 fa4d e630 d077 7117 a9a8
00000070: 0221 90b8 8b54 6cfe 170d b836 a2b4 a1ab
00000080: a069 7fbf 73c9 1d01 da4a d7b7 efeb 090e
00000090: c9d9 de13 d9c9 ec05 17e7 37e9 14e1 4614
000000a0: 3238 43ca 346a ed32 2b03 04fd c87f c9e8
000000b0: 4eed c401 0fdf 1cb9 0320 fa1c 3b18 cff7
000000c0: 0615 0171 2507 4245 e401 de38 44c2 b228
000000d0: ed10 b603 ca13 e4cc 5430 1ce6 3000 fc81
000000e0: e947 0c14 20e8 e945 43ca fdf0 e856 f80a
000000f0: 1ecb 0ecb d4e2 fe2c 3225 17f2 25cb ffe4
-50 -34 -52 5 4 -12 7 23
-7 -30 -87 43 103 -65 -19 92
-12 -94 51 18 0 -51 -48 -37
-125 -21 127 -69 69 -17 -54 13
-14 -23 -2 77 18 83 -21 29
85 -23 26 36 -47 119 -3 80
106 9 88 -77 -24 74 -59 26
-13 -45 95 -100 23 10 69 -97
92 -84 21 -61 48 -30 94 -5
76 -84 54 127 21 28 4 -25
23 63 15 -106 -54 -46 18 -54
47 -95 19 -20 -2 92 50 10
48 -46 78 53 17 -40 -6 77
-26 48 -48 119 113 23 -87 -88
2 33 -112 -72 -117 84 108 -2
23 13 -72 54 -94 -76 -95 -85
-96 105 127 -65 115 -55 29 1
-38 74 -41 -73 -17 -21 9 14
-55 -39 -34 19 -39 -55 -20 5
23 -25 55 -23 20 -31 70 20
50 56 67 -54 52 106 -19 50
43 3 4 -3 -56 127 -55 -24
78 -19 -60 1 15 -33 28 -71
3 32 -6 28 59 24 -49 -9
6 21 1 113 37 7 66 69
-28 1 -34 56 68 -62 -78 40
-19 16 -74 3 -54 19 -28 -52
84 48 28 -26 48 0 -4 -127
-23 71 12 20 32 -24 -23 69
67 -54 -3 -16 -24 86 -8 10
30 -53 14 -53 -44 -30 -2 44
50 37 23 -14 37 -53 -1 -28

model/conv2d_17/Conv2D i1 [48, 1, 1, 8]
00000000: d060 7fac fe2f fefd 0d0d 767f b917 9a13
00000010: 2cf3 2736 8103 5d08 4e81 a13a d7d6 0b33
00000020: 0830 d1b6 fa81 42b6 b3a0 41f3 81fc 0931
00000030: 41c6 7f16 51c9 17f4 cddd af77 12f4 7f00
00000040: fe11 3206 f081 f5a8 1de4 7fff 4a10 0613
00000050: 6681 ee66 1521 d512 15f4 d501 177f 1132
00000060: f111 f40a 00ef fd7f 3f81 7481 6fed 4f1e
00000070: c7b2 b9f5 7fdb 7200 7f4f f005 2b0b 1b0c
00000080: f910 ec00 fc05 037f 8172 3eea 1821 50f4
00000090: 5881 cd04 1ae1 d611 7f59 f826 360a 0f04
000000a0: 8169 3aeb 3f29 28fe 328a 7fc0 7af4 3132
000000b0: 7f59 df23 21ec 32e9 f4cc fafa e97f f8e8
000000c0: 6681 1906 26ed f519 7fa4 fee3 e0ee a113
000000d0: ee6e acff 8119 c5e7 9540 7f5a 4d5b 4606
000000e0: 7f5c ef0c 30f7 25d4 0527 010f 1c16 8101
000000f0: fe7b c9f3 8f12 81d9 dd0b 8f81 08f5 2ae1
-48 96 127 -84 -2 47 -2 -3
13 13 118 127 -71 23 -102 19
44 -13 39 54 -127 3 93 8
78 -127 -95 58 -41 -42 11 51
8 48 -47 -74 -6 -127 66 -74
-77 -96 65 -13 -127 -4 9 49
65 -58 127 22 81 -55 23 -12
-51 -35 -81 119 18 -12 127 0
-2 17 50 6 -16 -127 -11 -88
29 -28 127 -1 74 16 6 19
102 -127 -18 102 21 33 -43 18
21 -12 -43 1 23 127 17 50
-15 17 -12 10 0 -17 -3 127
63 -127 116 -127 111 -19 79 30
-57 -78 -71 -11 127 -37 114 0
127 79 -16 5 43 11 27 12
-7 16 -20 0 -4 5 3 127
-127 114 62 -22 24 33 80 -12
88 -127 -51 4 26 -31 -42 17
127 89 -8 38 54 10 15 4
-127 105 58 -21 63 41 40 -2
50 -118 127 -64 122 -12 49 50
127 89 -33 35 33 -20 50 -23
-12 -52 -6 -6 -23 127 -8 -24
102 -127 25 6 38 -19 -11 25
127 -92 -2 -29 -32 -18 -95 19
-18 110 -84 -1 -127 25 -59 -25
-107 64 127 90 77 91 70 6
127 92 -17 12 48 -9 37 -44
5 39 1 15 28 22 -127 1
-2 123 -55 -13 -113 18 -127 -39
-35 11 -113 -127 8 -11 42 -31

model/conv2d_18/Conv2D i1 [16, 1, 1, 48]
00000000: 232f 14f9 ed1a e637 1ef9 edfd ff1d 05ff
00000010: cec0 1d16 fde6 4126 fc2a fae0 c715 221c
00000020: 2d81 c604 de2f 0ab5 0fcd ff0c f552 cef1
00000030: 2008 cff0 e32a fde8 0e26 f008 a507 81fd
00000040: f32d d7fd 0930 0b19 fee9 1000 ffe5 0cb5
00000050: 14ff 1f1f 0fff efe6 e4f8 4107 231a e6f2
00000060: f129 37fb 020a 1702 370d ebed d8ec 1a7f
00000070: 2ff7 1ae6 eafd 271a dfda acef 1ddc f1ba
00000080: bdd8 e6cc 1a3c f3fa f520 1169 ebdf 2209
00000090: 97e1 51f1 22e2 ebe3 fa1a 4503 c3fa c5f1
000000a0: 19ec 1c04 d319 f8ff 8127 c7eb 199f ec4b
000000b0: 01fa 0104 f1e6 0a2c de21 23fe cbe4 1c07
000000c0: be20 f0b0 11f5 1c44 2d25 d607 1504 1807
000000d0: 6198 ec24 419c ff2e fa81 a0d9 6a18 d701
000000e0: 41cd d658 642b 0501 d56b fa10 1c85 6212
000000f0: 8111 a21a 1c28 2b0b feae 331f 35ff c0d7
35 47 20 -7 -19 26 -26 55
30 -7 -19 -3 -1 29 5 -1
-50 -64 29 22 -3 -26 65 38
-4 42 -6 -32 -57 21 34 28
45 -127 -58 4 -34 47 10 -75
15 -51 -1 12 -11 82 -50 -15
32 8 -49 -16 -29 42 -3 -24
14 38 -16 8 -91 7 -127 -3
-13 45 -41 -3 9 48 11 25
-2 -23 16 0 -1 -27 12 -75
20 -1 31 31 15 -1 -17 -26
-28 -8 65 7 35 26 -26 -14
-15 41 55 -5 2 10 23 2
55 13 -21 -19 -40 -20 26 127
47 -9 26 -26 -22 -3 39 26
-33 -38 -84 -17 29 -36 -15 -70
-67 -40 -26 -52 26 60 -13 -6
-11 32 17 105 -21 -33 34 9
-105 -31 81 -15 34 -30 -21 -29
-6 26 69 3 -61 -6 -59 -15
25 -20 28 4 -45 25 -8 -1
-127 39 -57 -21 25 -97 -20 75
1 -6 1 4 -15 -26 10 44
-34 33 35 -2 -53 -28 28 7
-66 32 -16 -80 17 -11 28 68
45 37 -42 7 21 4 24 7
97 -104 -20 36 65 -100 -1 46
-6 -127 -96 -39 106 24 -41 1
65 -51 -42 88 100 43 5 1
-43 107 -6 16 28 -123 98 18
-127 17 -94 26 28 40 43 11
-2 -82 51 31 53 -1 -64 -41

model/conv2d_19/Conv2D i1 [96, 1, 1, 16]
00000000: 8117 4b40 f2cc 3835 d7ea ddfd eed0 3df3
00000010: ebcf 32ba 2d2d 7f43 e8de f2cc 6310 1e91
00000020: 1f45 7fcf ca12 d29d 0b1d ef1c cc0c 27c0
00000030: d42c fc30 eff6 03e7 f00d d1d0 307f f01a
00000040: 6ff3 72a8 32ac e17f ca26 542f e090 dc98
00000050: 5d1a d9c0 291d 81aa fc53 0336 d91f ec09
00000060: f735 1398 2ead 0abc e581 10b8 5c25 ee59
00000070: 7f28 ce02 dbf6 2c24 e2ca d866 3407 f2ed
00000080: 7f3b feff c831 4f63 62a4 4424 cc1c 4062
00000090: d6d4 4cfa 0722 db13 8115 5013 e42c 1840
000000a0: 5211 e032 e010 f6ea d7d0 3412 7f23 48e3
000000b0: d9ed f308 f67f 1ff0 de51 194e 0430 1fea
000000c0: 9ee1 25df 0018 4a14 030c 191f c8e1 c67f
000000d0: 4536 97bf c777 7fc7 2337 de93 d80a cc45
000000e0: 56ee 042b 36d6 8481 332e 250d 032d 9cc0
000000f0: ff81 eebb 0343 ca29 18e4 fc35 392e 98e5
-127 23 75 64 -14 -52 56 53
-41 -22 -35 -3 -18 -48 61 -13
-21 -49 50 -70 45 45 127 67
-24 -34 -14 -52 99 16 30 -111
31 69 127 -49 -54 18 -46 -99
11 29 -17 28 -52 12 39 -64
-44 44 -4 48 -17 -10 3 -25
-16 13 -47 -48 48 127 -16 26
111 -13 114 -88 50 -84 -31 127
-54 38 84 47 -32 -112 -36 -104
93 26 -39 -64 41 29 -127 -86
-4 83 3 54 -39 31 -20 9
-9 53 19 -104 46 -83 10 -68
-27 -127 16 -72 92 37 -18 89
127 40 -50 2 -37 -10 44 36
-30 -54 -40 102 52 7 -14 -19
127 59 -2 -1 -56 49 79 99
98 -92 68 36 -52 28 64 98
-42 -44 76 -6 7 34 -37 19
-127 21 80 19 -28 44 24 64
82 17 -32 50 -32 16 -10 -22
-41 -48 52 18 127 35 72 -29
-39 -19 -13 8 -10 127 31 -16
-34 81 25 78 4 48 31 -22
-98 -31 37 -33 0 24 74 20
3 12 25 31 -56 -31 -58 127
69 54 -105 -65 -57 119 127 -57
35 55 -34 -109 -40 10 -52 69
86 -18 4 43 54 -42 -124 -127
51 46 37 13 3 45 -100 -64
-1 -127 -18 -69 3 67 -54 41
24 -28 -4 53 57 46 -104 -27

model/conv2d_20/Conv2D i1 [16, 1, 1, 96]
00000000: f529 591b 0128 d3d5 2ef8 c008 4019 8b04
00000010: 1ff3 1c08 07e7 2f5f 8901 f6e8 dae3 c402
00000020: ff18 cb49 28eb 1a50 3503 ffde 110c 1231
00000030: e416 e5fd 320e 3e04 c328 7f12 dc32 412d
00000040: b822 1807 f850 1df8 24e7 eae4 e2ef 14e4
00000050: c704 4020 37b7 0a04 40e3 ce24 bbe8 0b0a
00000060: ec14 4eca bdfa f4ea f409 0afe 33ee e4be
00000070: fd37 cbdc 03d4 2e56 7f13 e9ae b347 2819
00000080: 4ab8 ccec 1421 0fab 33ec f0f7 37a1 214f
00000090: 4436 63d5 5436 3fec e3f3 41d3 26cc 0728
000000a0: f1df ca5f ce25 1231 2e46 2494 ba27 4240
000000b0: c92e 4197 2ce7 13fc 2d26 1ee7 cb11 da32
000000c0: 103c 37df d7d8 380b d227 0f31 bb11 2144
000000d0: 14d2 2512 0d06 b5bb ddea 11d2 0cf7 19fd
000000e0: f728 090b f381 16f2 d90f eef8 d728 16e3
000000f0: eb1c f31f dc0c ec0b a646 e21a cdf2 5df1
-11 41 89 27 1 40 -45 -43
46 -8 -64 8 64 25 -117 4
31 -13 28 8 7 -25 47 95
-119 1 -10 -24 -38 -29 -60 2
-1 24 -53 73 40 -21 26 80
53 3 -1 -34 17 12 18 49
-28 22 -27 -3 50 14 62 4
-61 40 127 18 -36 50 65 45
-72 34 24 7 -8 80 29 -8
36 -25 -22 -28 -30 -17 20 -28
-57 4 64 32 55 -73 10 4
64 -29 -50 36 -69 -24 11 10
-20 20 78 -54 -67 -6 -12 -22
-12 9 10 -2 51 -18 -28 -66
-3 55 -53 -36 3 -44 46 86
127 19 -23 -82 -77 71 40 25
74 -72 -52 -20 20 33 15 -85
51 -20 -16 -9 55 -95 33 79
68 54 99 -43 84 54 63 -20
-29 -13 65 -45 38 -52 7 40
-15 -33 -54 95 -50 37 18 49
46 70 36 -108 -70 39 66 64
-55 46 65 -105 44 -25 19 -4
45 38 30 -25 -53 17 -38 50
16 60 55 -33 -41 -40 56 11
-46 39 15 49 -69 17 33 68
20 -46 37 18 13 6 -75 -69
-35 -22 17 -46 12 -9 25 -3
-9 40 9 11 -13 -127 22 -14
-39 15 -18 -8 -41 40 22 -29
-21 28 -13 31 -36 12 -20 11
-90 70 -30 26 -51 -14 93 -15

model/conv2d_21/Conv2D i1 [96, 1, 1, 16]
00000000: 0904 3606 4414 c3d0 828a 3881 e8f3 12f7
00000010: 17ec 4613 0158 f3f3 14a9 e09d 81f9 cef8
00000020: f4f0 01e7 1313 f9bc f113 042d 81ff 0de5
00000030: c203 f744 da7f d4d7 d501 d00c da06 dfdb
00000040: 9154 f44c 0ff7 f627 8a2f 57f9 40db 8115
00000050: 2933 f628 0ad0 e0e8 2a37 1216 8147 bafd
00000060: a61f 81e1 b5f4 ddcc 064b 14da 32ec 55ce
00000070: e614 fb2c d20b 1918 e50b c2f7 0a7f fc24
00000080: 30ed 40c6 e528 fe81 1122 f3d8 290b 02b9
00000090: d7dd f200 72e8 34d7 7853 bca1 5b08 7f94
000000a0: 05ab 2543 2c21 4ec8 a181 2e19 a303 8d27
000000b0: f113 f0d3 1cd9 f0fb 18f2 3081 19c6 f5f5
000000c0: cc29 178e eb1a c3c4 a698 7f9e 97af e2f7
000000d0: 3d93 ea8b eac5 3031 34a6 8166 ee78 59e8
000000e0: b2d6 e71a 81ff 82ff b0fe 3f11 b7e2 1ef9
000000f0: ab59 30d8 095a f842 810d 201a e3ee a810
9 4 54 6 68 20 -61 -48
-126 -118 56 -127 -24 -13 18 -9
23 -20 70 19 1 88 -13 -13
20 -87 -32 -99 -127 -7 -50 -8
-12 -16 1 -25 19 19 -7 -68
-15 19 4 45 -127 -1 13 -27
-62 3 -9 68 -38 127 -44 -41
-43 1 -48 12 -38 6 -33 -37
-111 84 -12 76 15 -9 -10 39
-118 47 87 -7 64 -37 -127 21
41 51 -10 40 10 -48 -32 -24
42 55 18 22 -127 71 -70 -3
-90 31 -127 -31 -75 -12 -35 -52
6 75 20 -38 50 -20 85 -50
-26 20 -5 44 -46 11 25 24
-27 11 -62 -9 10 127 -4 36
48 -19 64 -58 -27 40 -2 -127
17 34 -13 -40 41 11 2 -71
-41 -35 -14 0 114 -24 52 -41
120 83 -68 -95 91 8 127 -108
5 -85 37 67 44 33 78 -56
-95 -127 46 25 -93 3 -115 39
-15 19 -16 -45 28 -39 -16 -5
24 -14 48 -127 25 -58 -11 -11
-52 41 23 -114 -21 26 -61 -60
-90 -104 127 -98 -105 -81 -30 -9
61 -109 -22 -117 -22 -59 48 49
52 -90 -127 102 -18 120 89 -24
-78 -42 -25 26 -127 -1 -126 -1
-80 -2 63 17 -73 -30 30 -7
-85 89 48 -40 9 90 -8 66
-127 13 32 26 -29 -18 -88 16

model/conv2d_22/Conv2D i1 [16, 1, 1, 96]
00000000: 3e3e 3ce5 81bf c34d 2b4e d74d 0e2e 7b5c
00000010: d71e 123d 2106 fb33 3e5f 21d3 e842 38c6
00000020: 2f3e 1c16 f149 00d5 29e0 1710 fd1f 23f7
00000030: 4a17 2a07 dcea eef0 dec8 e002 abd3 2cda
00000040: d918 1cb2 c743 f648 e33d 12c1 172c 0a0e
00000050: 0c45 fb1c f243 f609 f209 0a91 293c 60f1
00000060: 0d17 16fb 8be3 4cd6 29e4 61db d50a 0439
00000070: 26f5 38d8 a606 0ce9 511f 2656 d9fe 2fbd
00000080: 1b6a 037f ce1d ff60 06f2 c4f7 cf46 d4a0
00000090: 206e 59cd fa2f f684 4d0a e0fa 0b2c 0df8
000000a0: de03 23d4 2ae8 30cb 34ca d1a5 0925 c5b1
000000b0: 16f7 fa1d 990d e2c6 d7f1 66c4 fd1b ea0b
000000c0: ffd7 3316 2059 c7fa 6eec c33f 203c dfe9
000000d0: 24ad d9cf 1813 e2bc 070f 23f5 0e2f de46
000000e0: f0de 0aee 32db 4bfa 1e67 48d5 209a b62a
000000f0: 1be4 fa34 ce27 d438 8118 3bd6 5a10 13cb
62 62 60 -27 -127 -65 -61 77
43 78 -41 77 14 46 123 92
-41 30 18 61 33 6 -5 51
62 95 33 -45 -24 66 56 -58
47 62 28 22 -15 73 0 -43
41 -32 23 16 -3 31 35 -9
74 23 42 7 -36 -22 -18 -16
-34 -56 -32 2 -85 -45 44 -38
-39 24 28 -78 -57 67 -10 72
-29 61 18 -63 23 44 10 14
12 69 -5 28 -14 67 -10 9
-14 9 10 -111 41 60 96 -15
13 23 22 -5 -117 -29 76 -42
41 -28 97 -37 -43 10 4 57
38 -11 56 -40 -90 6 12 -23
81 31 38 86 -39 -2 47 -67
27 106 3 127 -50 29 -1 96
6 -14 -60 -9 -49 70 -44 -96
32 110 89 -51 -6 47 -10 -124
77 10 -32 -6 11 44 13 -8
-34 3 35 -44 42 -24 48 -53
52 -54 -47 -91 9 37 -59 -79
22 -9 -6 29 -103 13 -30 -58
-41 -15 102 -60 -3 27 -22 11
-1 -41 51 22 32 89 -57 -6
110 -20 -61 63 32 60 -33 -23
36 -83 -39 -49 24 19 -30 -68
7 15 35 -11 14 47 -34 70
-16 -34 10 -18 50 -37 75 -6
30 103 72 -43 32 -102 -74 42
27 -28 -6 52 -50 39 -44 56
-127 24 59 -42 90 16 19 -53

model/conv2d_23/Conv2D i1 [96, 1, 1, 16]
00000000: a5a1 8ddb a874 7ae7 fc74 a265 9f7e 7f04
00000010: ff15 c5ce cfe8 7fdb 16e3 2c30 5339 b2ff
00000020: 0998 0b46 227f 29df 5148 f1e6 c606 62c7
00000030: 8114 f0d0 f8eb f935 d69c 2dc2 1ea0 04e1
00000040: c3d8 da06 f203 d581 7f4c 1f8b 0afe 68d1
00000050: d6f3 c618 e700 f189 7f11 f0f9 0ac6 2a34
00000060: 30c8 cfc0 5478 97be aa19 497f 7532 fc56
00000070: 594c cdcb cb37 27d8 ccf5 2c24 7fec 4db8
00000080: 3040 dd7f d55b 0419 b262 7ab9 5c84 a299
00000090: 3b50 a359 bcf1 f015 7f57 e49c 1302 2c06
000000a0: 8945 09e3 52e6 7fdc f5e6 3203 1f6a dd7c
000000b0: ed07 8ddf 4707 7fc6 cb0d 503a ff36 1d02
000000c0: e42a 35f9 fffe a87f b723 5424 db3d 3144
000000d0: e369 26ff 0e47 d17f ebd9 1cb6 c2d2 8b3f
000000e0: e481 d551 d27d 0b02 5367 cdef b531 72dc
000000f0: dea4 336c f24f dd29 dd3d face a55e 7f0d
-91 -95 -115 -37 -88 116 122 -25
-4 116 -94 101 -97 126 127 4
-1 21 -59 -50 -49 -24 127 -37
22 -29 44 48 83 57 -78 -1
9 -104 11 70 34 127 41 -33
81 72 -15 -26 -58 6 98 -57
-127 20 -16 -48 -8 -21 -7 53
-42 -100 45 -62 30 -96 4 -31
-61 -40 -38 6 -14 3 -43 -127
127 76 31 -117 10 -2 104 -47
-42 -13 -58 24 -25 0 -15 -119
127 17 -16 -7 10 -58 42 52
48 -56 -49 -64 84 120 -105 -66
-86 25 73 127 117 50 -4 86
89 76 -51 -53 -53 55 39 -40
-52 -11 44 36 127 -20 77 -72
48 64 -35 127 -43 91 4 25
-78 98 122 -71 92 -124 -94 -103
59 80 -93 89 -68 -15 -16 21
127 87 -28 -100 19 2 44 6
-119 69 9 -29 82 -26 127 -36
-11 -26 50 3 31 106 -35 124
-19 7 -115 -33 71 7 127 -58
-53 13 80 58 -1 54 29 2
-28 42 53 -7 -1 -2 -88 127
-73 35 84 36 -37 61 49 68
-29 105 38 -1 14 71 -47 127
-21 -39 28 -74 -62 -46 -117 63
-28 -127 -43 81 -46 125 11 2
83 103 -51 -17 -75 49 114 -36
-34 -92 51 108 -14 79 -35 41
-35 61 -6 -50 -91 94 127 13

model/conv2d_24/Conv2D i1 [16, 1, 1, 96]
00000000: 160b bf1a 7f19 d7cb f6e8 bc48 def7 e2fd
00000010: effe c4d2 bef0 5e10 0eb1 cdf8 df22 583a
00000020: 151e eef0 d21b f3f6 fc39 1c3f 391a 3143
00000030: fcf0 cf2a fa45 151a fdd6 1d11 1f8a f5f9
00000040: fd01 e007 2401 bd10 fce0 033b f507 5df4
00000050: 2cf5 120a 24fc 003c 2017 b6b5 e416 1408
00000060: 42e4 b6e4 252c df88 fd23 1c25 2109 3f0d
00000070: dfb7 07b0 b5c5 68c5 3816 c30d c76e 50fa
00000080: d44d cbdc ed10 0bbb 4398 e8c8 5604 13bb
00000090: cf1c 191b 03a6 37eb cd21 5517 ddee 7f21
000000a0: 1ef8 37f5 f6b4 ef83 91d5 4a3a 0532 dd02
000000b0: 5bf4 50f3 03cc d81e a1de dbd1 d3a8 5ef6
000000c0: 0dc0 a7fb e381 e212 d108 0a1f 3320 4e2c
000000d0: 2e0b 34db cd0c 0931 eafa df27 1aa9 d1f5
000000e0: 1101 580e ec17 bf31 215e fa22 191b 12f0
000000f0: 27a9 ff20 b91b f0c2 c0f4 f95a c9f3 cc13
22 11 -65 26 127 25 -41 -53
-10 -24 -68 72 -34 -9 -30 -3
-17 -2 -60 -46 -66 -16 94 16
14 -79 -51 -8 -33 34 88 58
21 30 -18 -16 -46 27 -13 -10
-4 57 28 63 57 26 49 67
-4 -16 -49 42 -6 69 21 26
-3 -42 29 17 31 -118 -11 -7
-3 1 -32 7 36 1 -67 16
-4 -32 3 59 -11 7 93 -12
44 -11 18 10 36 -4 0 60
32 23 -74 -75 -28 22 20 8
66 -28 -74 -28 37 44 -33 -120
-3 35 28 37 33 9 63 13
-33 -73 7 -80 -75 -59 104 -59
56 22 -61 13 -57 110 80 -6
-44 77 -53 -36 -19 16 11 -69
67 -104 -24 -56 86 4 19 -69
-49 28 25 27 3 -90 55 -21
-51 33 85 23 -35 -18 127 33
30 -8 55 -11 -10 -76 -17 -125
-111 -43 74 58 5 50 -35 2
91 -12 80 -13 3 -52 -40 30
-95 -34 -37 -47 -45 -88 94 -10
13 -64 -89 -5 -29 -127 -30 18
-47 8 10 31 51 32 78 44
46 11 52 -37 -51 12 9 49
-22 -6 -33 39 26 -87 -47 -11
17 1 88 14 -20 23 -65 49
33 94 -6 34 25 27 18 -16
39 -87 -1 32 -71 27 -16 -62
-64 -12 -7 90 -55 -13 -52 19

model/conv2d_25/Conv2D i1 [96, 1, 1, 16]
00000000: 3628 ab7f 0ed0 052f 93c6 1bf1 0713 9a3c
00000010: 6a1b 6c81 4c5c 41ba 6420 9500 31eb fee6
00000020: 8142 e485 2309 018e c1a7 e0fe 5d5a 3437
00000030: bdfd 4e46 5031 1281 cfc7 9f5c 1e3b 122c
00000040: 4c0b 8114 baba 03f5 3d13 f0e9 5f24 43df
00000050: 7736 cdc6 d311 3dab 7f0a f6b0 fe02 f317
00000060: 32e6 4db6 db2b 1812 81f3 2145 abc5 e716
00000070: 7f36 2bec 132e e6ea ebf5 401a dbdf ed08
00000080: aa3e 2dc2 2006 b5f0 2be3 3381 13ca 1054
00000090: f576 2b3d e758 8320 81b5 ddc3 4f5e b35e
000000a0: edff 197f 0715 ea68 4740 d287 f542 f746
000000b0: d381 ce0d 21e3 eb00 eae8 fadf 0401 4845
000000c0: 6eeb ede6 f8f1 5d6b 8333 0b59 274b 8145
000000d0: 810c 2250 eb69 4837 2d61 0318 ee58 0650
000000e0: 35d2 15d3 3733 ea1e efba 420d c481 f72f
000000f0: 255d c5ed 978e 2ada dbef b67f 1c98 10da
54 40 -85 127 14 -48 5 47
-109 -58 27 -15 7 19 -102 60
106 27 108 -127 76 92 65 -70
100 32 -107 0 49 -21 -2 -26
-127 66 -28 -123 35 9 1 -114
-63 -89 -32 -2 93 90 52 55
-67 -3 78 70 80 49 18 -127
-49 -57 -97 92 30 59 18 44
76 11 -127 20 -70 -70 3 -11
61 19 -16 -23 95 36 67 -33
119 54 -51 -58 -45 17 61 -85
127 10 -10 -80 -2 2 -13 23
50 -26 77 -74 -37 43 24 18
-127 -13 33 69 -85 -59 -25 22
127 54 43 -20 19 46 -26 -22
-21 -11 64 26 -37 -33 -19 8
-86 62 45 -62 32 6 -75 -16
43 -29 51 -127 19 -54 16 84
-11 118 43 61 -25 88 -125 32
-127 -75 -35 -61 79 94 -77 94
-19 -1 25 127 7 21 -22 104
71 64 -46 -121 -11 66 -9 70
-45 -127 -50 13 33 -29 -21 0
-22 -24 -6 -33 4 1 72 69
110 -21 -19 -26 -8 -15 93 107
-125 51 11 89 39 75 -127 69
-127 12 34 80 -21 105 72 55
45 97 3 24 -18 88 6 80
53 -46 21 -45 55 51 -22 30
-17 -70 66 13 -60 -127 -9 47
37 93 -59 -19 -105 -114 42 -38
-37 -17 -74 127 28 -104 16 -38

model/conv2d_26/Conv2D i1 [16, 1, 1, 96]
00000000: 1272 c83d 8eee 14ff c803 116c 5ac8 ddcb
00000010: 54b3 fa28 5824 29f4 d6ef f91f f628 f1e4
00000020: b0f1 561e dde4 2dfa e82a bd98 2b17 dd91
00000030: e840 e64c 52f9 26fe f0d4 f313 ed2a c701
00000040: c0ee 0b41 18f5 ef30 d4b7 6dd1 d9ce 1a4b
00000050: 5841 f9ec 2a2f db1c f07f 49fe ef2a d4ae
00000060: f6cd 3017 10c9 e045 091b d413 e8e1 24b4
00000070: 01cf 362a 0314 2ab5 12c0 10f6 184f eb7f
00000080: 10c2 fce4 aa40 f5f9 23f8 f528 b5b9 c9d9
00000090: f1e3 254b d315 58f9 f200 01fb 07b1 2251
000000a0: f1d3 e01e 1327 f8d7 be1c 1bc6 1719 092b
000000b0: b62b d81e 20d8 fdf6 aff9 1521 23fb 03ca
000000c0: 6507 050f 2bf2 df04 093d 0dfe 1226 f235
000000d0: 1c0b 15b1 f915 b111 fe1d 11fe f7f2 09ba
000000e0: 130a 0d14 f4d3 051a ace1 1d21 da0a 111d
000000f0: 3547 22df e48e e611 0b0d dd2b 2e15 19d2
18 114 -56 61 -114 -18 20 -1
-56 3 17 108 90 -56 -35 -53
84 -77 -6 40 88 36 41 -12
-42 -17 -7 31 -10 40 -15 -28
-80 -15 86 30 -35 -28 45 -6
-24 42 -67 -104 43 23 -35 -111
-24 64 -26 76 82 -7 38 -2
-16 -44 -13 19 -19 42 -57 1
-64 -18 11 65 24 -11 -17 48
-44 -73 109 -47 -39 -50 26 75
88 65 -7 -20 42 47 -37 28
-16 127 73 -2 -17 42 -44 -82
-10 -51 48 23 16 -55 -32 69
9 27 -44 19 -24 -31 36 -76
1 -49 54 42 3 20 42 -75
18 -64 16 -10 24 79 -21 127
16 -62 -4 -28 -86 64 -11 -7
35 -8 -11 40 -75 -71 -55 -39
-15 -29 37 75 -45 21 88 -7
-14 0 1 -5 7 -79 34 81
-15 -45 -32 30 19 39 -8 -41
-66 28 27 -58 23 25 9 43
-74 43 -40 30 32 -40 -3 -10
-81 -7 21 33 35 -5 3 -54
101 7 5 15 43 -14 -33 4
9 61 13 -2 18 38 -14 53
28 11 21 -79 -7 21 -79 17
-2 29 17 -2 -9 -14 9 -70
19 10 13 20 -12 -45 5 26
-84 -31 29 33 -38 10 17 29
53 71 34 -33 -28 -114 -26 17
11 13 -35 43 46 21 25 -46

model/conv2d_27/Conv2D i1 [96, 1, 1, 16]
00000000: e42e 1232 100e 35da d704 2f06 7f10 e600
00000010: bebd 0598 4d00 0ae7 0502 1c62 81e9 43e4
00000020: f01b dce0 ffcb d50b 05c0 0781 2e21 133d
00000030: 367f 4a33 5432 02c4 d5f4 fdd6 8af4 6318
00000040: 1ed0 3b41 43e2 e50f 81bb feec db1c 11d3
00000050: effd 20e1 e827 5516 d6e3 ec17 7fde 7d07
00000060: a0b3 59d9 4126 2089 b8be bf7f dce2 22ee
00000070: 0e87 1272 1173 020a c309 007f ad2d efd6
00000080: 333b e309 1d0c 9ea6 1b34 0c23 810b a73a
00000090: b9dc 0063 2021 af81 4608 28c8 effd 8523
000000a0: c722 e31d c3ed e523 e75e 1e81 3524 afe7
000000b0: 25ce d67f cc1a 030b 2118 03e0 20d8 3ff0
000000c0: 8117 e5cd 4bfb 20a8 1915 fbd5 3679 4822
000000d0: 40af 0f94 9611 e77f 417a 1986 d41f 1e30
000000e0: d0d8 0bed 1202 810e ec90 169c aa88 c614
000000f0: 81f0 e207 0308 c0d0 f63b 35ac 2205 3bd8
-28 46 18 50 16 14 53 -38
-41 4 47 6 127 16 -26 0
-66 -67 5 -104 77 0 10 -25
5 2 28 98 -127 -23 67 -28
-16 27 -36 -32 -1 -53 -43 11
5 -64 7 -127 46 33 19 61
54 127 74 51 84 50 2 -60
-43 -12 -3 -42 -118 -12 99 24
30 -48 59 65 67 -30 -27 15
-127 -69 -2 -20 -37 28 17 -45
-17 -3 32 -31 -24 39 85 22
-42 -29 -20 23 127 -34 125 7
-96 -77 89 -39 65 38 32 -119
-72 -66 -65 127 -36 -30 34 -18
14 -121 18 114 17 115 2 10
-61 9 0 127 -83 45 -17 -42
51 59 -29 9 29 12 -98 -90
27 52 12 35 -127 11 -89 58
-71 -36 0 99 32 33 -81 -127
70 8 40 -56 -17 -3 -123 35
-57 34 -29 29 -61 -19 -27 35
-25 94 30 -127 53 36 -81 -25
37 -50 -42 127 -52 26 3 11
33 24 3 -32 32 -40 63 -16
-127 23 -27 -51 75 -5 32 -88
25 21 -5 -43 54 121 72 34
64 -81 15 -108 -106 17 -25 127
65 122 25 -122 -44 31 30 48
-48 -40 11 -19 18 2 -127 14
-20 -112 22 -100 -86 -120 -58 20
-127 -16 -30 7 3 8 -64 -48
-10 59 53 -84 34 5 59 -40

model/conv2d_28/Conv2D i1 [24, 1, 1, 96]
00000000: 0ff1 cafa ef02 395b 9600 b10f 58a6 f2c0
00000010: ecca 0200 330e f1cf fb5c b4fc 2394 1ffc
00000020: efe4 ff26 1fea f52a dafd 23e8 d4f8 17df
00000030: f728 9cf6 072b 4c44 ca7f ffb4 e9fd 15fe
00000040: 3d23 1ae6 6520 e26c 1f3e e518 4f09 3a07
00000050: ef23 b60f b906 1d2f 085b aa16 1d0f fc00
00000060: 00a8 1b09 3b27 02f5 100e 0cd9 fd0a c505
00000070: 1502 f0f3 fcc4 3de4 05f1 ee45 400b c8af
00000080: da1c 3218 02d9 e332 babc dd17 bd40 43ee
00000090: ca37 04d4 3e2e 2bf4 a330 81f2 d1e8 e029
000000a0: db2c 3805 18d3 ef11 dfd7 dd06 16ee cdfc
000000b0: 3cfb bbeb f4ca 30e5 f728 f10e 1151 3000
000000c0: 00cb 354f f80c d731 de22 3421 1009 47f8
000000d0: d530 fad5 c3e2 f554 29e2 e5f4 01eb 1e11
000000e0: d1e5 2407 08fe 32f7 04fd faee 57e4 fbd5
000000f0: d70e cbe8 092f 9c05 2ff4 5a15 f90b cb2b
15 -15 -54 -6 -17 2 57 91
-106 0 -79 15 88 -90 -14 -64
-20 -54 2 0 51 14 -15 -49
-5 92 -76 -4 35 -108 31 -4
-17 -28 -1 38 31 -22 -11 42
-38 -3 35 -24 -44 -8 23 -33
-9 40 -100 -10 7 43 76 68
-54 127 -1 -76 -23 -3 21 -2
61 35 26 -26 101 32 -30 108
31 62 -27 24 79 9 58 7
-17 35 -74 15 -71 6 29 47
8 91 -86 22 29 15 -4 0
0 -88 27 9 59 39 2 -11
16 14 12 -39 -3 10 -59 5
21 2 -16 -13 -4 -60 61 -28
5 -15 -18 69 64 11 -56 -81
-38 28 50 24 2 -39 -29 50
-70 -68 -35 23 -67 64 67 -18
-54 55 4 -44 62 46 43 -12
-93 48 -127 -14 -47 -24 -32 41
-37 44 56 5 24 -45 -17 17
-33 -41 -35 6 22 -18 -51 -4
60 -5 -69 -21 -12 -54 48 -27
-9 40 -15 14 17 81 48 0
0 -53 53 79 -8 12 -41 49
-34 34 52 33 16 9 71 -8
-43 48 -6 -43 -61 -30 -11 84
41 -30 -27 -12 1 -21 30 17
-47 -27 36 7 8 -2 50 -9
4 -3 -6 -18 87 -28 -5 -43
-41 14 -53 -24 9 47 -100 5
47 -12 90 21 -7 11 -53 43

model/conv2d_29/Conv2D i1 [136, 1, 1, 24]
00000000: 03ea 062d bb0a e1e7 e3c8 905b def5 f4ee
00000010: 72ee 0481 49f3 29df c4ea 10f5 f148 2e0c
00000020: 053b 395c d8c6 21ba 81c9 af25 2abc 7118
00000030: b508 ab1e 9f3b 6814 a503 edb4 3cdd d228
00000040: 8d7f 4953 104c 4e14 5829 ffff c2e7 bdca
00000050: 0d37 8120 d55e 3aeb 7052 ade9 1303 eb9d
00000060: e3e0 23af 0714 f1b6 cccb add6 42ea 1ffe
00000070: ce2e 8103 0cf0 b6f2 f41e b902 f41f edb1
00000080: 2f7f 3165 1ce6 fffc 5fa4 f8b5 b692 b41a
00000090: def4 0623 9b52 5d00 18f2 9c3c 3902 bbed
000000a0: 6981 f883 d55f e7e5 e0ec 0c7f ef0e 1238
000000b0: 9a2c d7f8 172e cac1 dfca efe6 5acc 35d6
000000c0: 060e 0561 5d61 a720 a6b8 2f81 9c0e 424e
000000d0: 8228 2e05 0d6f 3ae9 d12c bb72 040b 526e
000000e0: 4f46 495f a903 e481 1029 a781 1a20 2805
000000f0: 2bf9 7ed6 b4b7 de46 22c8 81e8 2fd0 4060
3 -22 6 45 -69 10 -31 -25
-29 -56 -112 91 -34 -11 -12 -18
114 -18 4 -127 73 -13 41 -33
-60 -22 16 -11 -15 72 46 12
5 59 57 92 -40 -58 33 -70
-127 -55 -81 37 42 -68 113 24
-75 8 -85 30 -97 59 104 20
-91 3 -19 -76 60 -35 -46 40
-115 127 73 83 16 76 78 20
88 41 -1 -1 -62 -25 -67 -54
13 55 -127 32 -43 94 58 -21
112 82 -83 -23 19 3 -21 -99
-29 -32 35 -81 7 20 -15 -74
-52 -53 -83 -42 66 -22 31 -2
-50 46 -127 3 12 -16 -74 -14
-12 30 -71 2 -12 31 -19 -79
47 127 49 101 28 -26 -1 -4
95 -92 -8 -75 -74 -110 -76 26
-34 -12 6 35 -101 82 93 0
24 -14 -100 60 57 2 -69 -19
105 -127 -8 -125 -43 95 -25 -27
-32 -20 12 127 -17 14 18 56
-102 44 -41 -8 23 46 -54 -63
-33 -54 -17 -26 90 -52 53 -42
6 14 5 97 93 97 -89 32
-90 -72 47 -127 -100 14 66 78
-126 40 46 5 13 111 58 -23
-47 44 -69 114 4 11 82 110
79 70 73 95 -87 3 -28 -127
16 41 -89 -127 26 32 40 5
43 -7 126 -42 -76 -73 -34 70
34 -56 -127 -24 47 -48 64 96

model/conv2d_30/Conv2D i1 [24, 1, 1, 136]
00000000: d1dd 1e42 cded 79c1 fae3 b224 bed9 1df6
00000010: cddf 3224 f7d9 fa41 edbc fbdd e9cc 42fa
00000020: d9e4 241a f708 092a 3c09 0ea0 2038 170c
00000030: b1e2 f14b c9f2 d41f 1702 de35 0e27 af3b
00000040: 4c0e 4420 1bcf 1711 af2c 4654 02ec eeb8
00000050: 190f 391b 3436 21f8 d1cf f636 f9f7 3847
00000060: 0b27 0537 22c1 2618 2b09 4481 65dd 36c8
00000070: 49b7 06fc 0a5a f94f cb11 d3cb 0efd 25d9
00000080: d519 df33 2df5 f0fe 35d1 fa1b dab4 b4f3
00000090: 3e39 081a 4bb6 f8f3 d434 34d9 1b0c 021b
000000a0: 0a23 cd0b f8c3 ece3 ee1c 0ffd d0d9 c6df
000000b0: 1206 daf3 4de0 d2c6 4fe0 65e7 e61f ef33
000000c0: 109c e6ff 223f e633 dfd4 fa0d ecf9 e4ba
000000d0: 407f ddd7 1540 1ee5 f1cd f2ce 0406 ccca
000000e0: f323 d6fb 06fa aef1 dff5 e00d 0afc cee7
000000f0: 31c6 35ee f7ae 0ef6 b5fe c8f8 0bd6 1610
-47 -35 30 66 -51 -19 121 -63
-6 -29 -78 36 -66 -39 29 -10
-51 -33 50 36 -9 -39 -6 65
-19 -68 -5 -35 -23 -52 66 -6
-39 -28 36 26 -9 8 9 42
60 9 14 -96 32 56 23 12
-79 -30 -15 75 -55 -14 -44 31
23 2 -34 53 14 39 -81 59
76 14 68 32 27 -49 23 17
-81 44 70 84 2 -20 -18 -72
25 15 57 27 52 54 33 -8
-47 -49 -10 54 -7 -9 56 71
11 39 5 55 34 -63 38 24
43 9 68 -127 101 -35 54 -56
73 -73 6 -4 10 90 -7 79
-53 17 -45 -53 14 -3 37 -39
-43 25 -33 51 45 -11 -16 -2
53 -47 -6 27 -38 -76 -76 -13
62 57 8 26 75 -74 -8 -13
-44 52 52 -39 27 12 2 27
10 35 -51 11 -8 -61 -20 -29
-18 28 15 -3 -48 -39 -58 -33
18 6 -38 -13 77 -32 -46 -58
79 -32 101 -25 -26 31 -17 51
16 -100 -26 -1 34 63 -26 51
-33 -44 -6 13 -20 -7 -28 -70
64 127 -35 -41 21 64 30 -27
-15 -51 -14 -50 4 6 -52 -54
-13 35 -42 -5 6 -6 -82 -15
-33 -11 -32 13 10 -4 -50 -25
49 -58 53 -18 -9 -82 14 -10
-75 -2 -56 -8 11 -42 22 16

model/conv2d_31/Conv2D i1 [136, 1, 1, 24]
00000000: e101 0404 cb2e 2025 6110 1adf 07f2 103f
00000010: 81ed cef8 d10d 0911 b2e5 f4cc 17db 03d0
00000020: 19d1 43f0 faea 1ff5 5e16 4381 1b15 f2f0
00000030: 9a15 ff3e 0a29 ddab c1fa cedc 3807 cd81
00000040: edce a1eb fa40 ba3b 7bfd c8a0 5ad7 0c03
00000050: e61e e716 092a c23c 7fcc 4dbd 6cf5 edac
00000060: 1fe6 293a d3fb ff1a f7f7 569c 8105 1823
00000070: bbc9 fe1e 1320 3bd5 2401 1575 1c22 f9e3
00000080: 9f3f 11da 0af9 eac3 85bb 816c 1c01 26d8
00000090: eac0 0a0b 93f7 9d2d f6ef 9c3d 0ff0 e752
000000a0: f7f0 d23d 7fee f52b 30f4 0ead e5ac b67f
000000b0: 0e83 b1fa 3f1f 39ce 5283 c83c 8dbd e704
000000c0: b0a0 2608 f5f9 0deb df0e 40f7 e7fa 2ceb
000000d0: 8116 fa4d dfdb ccfa fc28 0846 14c8 2434
000000e0: dfa7 ef23 cf26 0e0c b812 4c08 689d ae7f
000000f0: 00be f7ec b540 8121 a3e4 44d3 3ab7 9bfa
-31 1 4 4 -53 46 32 37
97 16 26 -33 7 -14 16 63
-127 -19 -50 -8 -47 13 9 17
-78 -27 -12 -52 23 -37 3 -48
25 -47 67 -16 -6 -22 31 -11
94 22 67 -127 27 21 -14 -16
-102 21 -1 62 10 41 -35 -85
-63 -6 -50 -36 56 7 -51 -127
-19 -50 -95 -21 -6 64 -70 59
123 -3 -56 -96 90 -41 12 3
-26 30 -25 22 9 42 -62 60
127 -52 77 -67 108 -11 -19 -84
31 -26 41 58 -45 -5 -1 26
-9 -9 86 -100 -127 5 24 35
-69 -55 -2 30 19 32 59 -43
36 1 21 117 28 34 -7 -29
-97 63 17 -38 10 -7 -22 -61
-123 -69 -127 108 28 1 38 -40
-22 -64 10 11 -109 -9 -99 45
-10 -17 -100 61 15 -16 -25 82
-9 -16 -46 61 127 -18 -11 43
48 -12 14 -83 -27 -84 -74 127
14 -125 -79 -6 63 31 57 -50
82 -125 -56 60 -115 -67 -25 4
-80 -96 38 8 -11 -7 13 -21
-33 14 64 -9 -25 -6 44 -21
-127 22 -6 77 -33 -37 -52 -6
-4 40 8 70 20 -56 36 52
-33 -89 -17 35 -49 38 14 12
-72 18 76 8 104 -99 -82 127
0 -66 -9 -20 -75 64 -127 33
-93 -28 68 -45 58 -73 -101 -6

model/conv2d_32/Conv2D i1 [24, 1, 1, 136]
00000000: 1d1c 1994 2c03 ec44 c8f6 c559 445d 2fcd
00000010: 2130 a1e7 11ee 392f 0eec fd52 220a fcf4
00000020: 6513 f122 71f0 ee2a c4ec 042d d8f7 cd17
00000030: ba7f e416 d31b 6ee5 0ee1 13e5 cdba de14
00000040: e208 1858 4cef 62ee 99da ff0e f439 bed3
00000050: e9c6 b11f 0d41 2c21 13d6 09f5 4014 42e3
00000060: a1a6 fcf0 51c0 bf41 0812 32e7 3209 cde4
00000070: f2d3 8ec8 362a 21f8 3ba1 e04c d908 aad8
00000080: e3f2 18d3 b8fe 05fa 2019 2822 bd0e 1f26
00000090: a5c4 1702 f5cf f638 fe17 05ba c622 0ec9
000000a0: f24f 15c8 030d f2f1 bf1c ca44 f91a 2107
000000b0: 3504 1501 1e41 0621 22b4 eb39 fad2 f5ff
000000c0: 2f1f d593 aa12 a5de 137f 2aff 119b 03ef
000000d0: b38e 1122 13de 2329 2734 371f 09ff 12d3
000000e0: 0fec 2cb4 2c2d 10d9 1f1d dc1d 2d0e f0d4
000000f0: 50e0 cdee d050 e40b ce41 070b 3f3f cb4c
29 28 25 -108 44 3 -20 68
-56 -10 -59 89 68 93 47 -51
33 48 -95 -25 17 -18 57 47
14 -20 -3 82 34 10 -4 -12
101 19 -15 34 113 -16 -18 42
-60 -20 4 45 -40 -9 -51 23
-70 127 -28 22 -45 27 110 -27
14 -31 19 -27 -51 -70 -34 20
-30 8 24 88 76 -17 98 -18
-103 -38 -1 14 -12 57 -66 -45
-23 -58 -79 31 13 65 44 33
19 -42 9 -11 64 20 66 -29
-95 -90 -4 -16 81 -64 -65 65
8 18 50 -25 50 9 -51 -28
-14 -45 -114 -56 54 42 33 -8
59 -95 -32 76 -39 8 -86 -40
-29 -14 24 -45 -72 -2 5 -6
32 25 40 34 -67 14 31 38
-91 -60 23 2 -11 -49 -10 56
-2 23 5 -70 -58 34 14 -55
-14 79 21 -56 3 13 -14 -15
-65 28 -54 68 -7 26 33 7
53 4 21 1 30 65 6 33
34 -76 -21 57 -6 -46 -11 -1
47 31 -43 -109 -86 18 -91 -34
19 127 42 -1 17 -101 3 -17
-77 -114 17 34 19 -34 35 41
39 52 55 31 9 -1 18 -45
15 -20 44 -76 44 45 16 -39
31 29 -36 29 45 14 -16 -44
80 -32 -51 -18 -48 80 -28 11
-50 65 7 11 63 63 -53 76

model/conv2d_33/Conv2D i1 [136, 1, 1, 24]
00000000: f71b f5a7 eb32 fa0f 0f00 0b32 a8e4 f311
00000010: 7f1f 3b30 acfa ea0d 03cd 81fa cb8f f7eb
00000020: 41a0 edf7 1a34 f7a0 f1b1 23a3 05c0 e1f4
00000030: 3bfc 27fc 251b 1925 cf3f 31fb df81 0269
00000040: 0b38 fd21 2b34 e614 2f02 c5fa e9e6 af12
00000050: ef1b 81fe 4507 3039 c211 fcd0 ce48 d62a
00000060: 2d1f b5ff 26c3 ef29 3fea 813f 27d4 5d78
00000070: 2744 dac9 d8e7 db28 e9ce d10c 021b ed9b
00000080: dc03 4e54 c5d3 fbed 84e3 7f08 17be bf16
00000090: e7d4 48fc 5529 1431 023e 7fce 08f7 0b2b
000000a0: 8e09 fd50 fef3 5fda 1208 5ac1 acd1 eb16
000000b0: c6e7 b915 2417 c8e6 7981 fd34 11f7 cf74
000000c0: dafd 2b81 1ff0 37fc f92f 34e2 d301 0d0d
000000d0: 6123 e020 c9f7 1e23 fae2 edf3 45ec e91e
000000e0: c17f d6e9 1d21 f7ce 102c c9f0 6323 401d
000000f0: 0cc3 0ac4 201b ccf3 c41f 81bf 2209 e5e4
-9 27 -11 -89 -21 50 -6 15
15 0 11 50 -88 -28 -13 17
127 31 59 48 -84 -6 -22 13
3 -51 -127 -6 -53 -113 -9 -21
65 -96 -19 -9 26 52 -9 -96
-15 -79 35 -93 5 -64 -31 -12
59 -4 39 -4 37 27 25 37
-49 63 49 -5 -33 -127 2 105
11 56 -3 33 43 52 -26 20
47 2 -59 -6 -23 -26 -81 18
-17 27 -127 -2 69 7 48 57
-62 17 -4 -48 -50 72 -42 42
45 31 -75 -1 38 -61 -17 41
63 -22 -127 63 39 -44 93 120
39 68 -38 -55 -40 -25 -37 40
-23 -50 -47 12 2 27 -19 -101
-36 3 78 84 -59 -45 -5 -19
-124 -29 127 8 23 -66 -65 22
-25 -44 72 -4 85 41 20 49
2 62 127 -50 8 -9 11 43
-114 9 -3 80 -2 -13 95 -38
18 8 90 -63 -84 -47 -21 22
-58 -25 -71 21 36 23 -56 -26
121 -127 -3 52 17 -9 -49 116
-38 -3 43 -127 31 -16 55 -4
-7 47 52 -30 -45 1 13 13
97 35 -32 32 -55 -9 30 35
-6 -30 -19 -13 69 -20 -23 30
-63 127 -42 -23 29 33 -9 -50
16 44 -55 -16 99 35 64 29
12 -61 10 -60 32 27 -52 -13
-60 31 -127 -65 34 9 -27 -28
