weights/test.tflite (tflite, 522084 bytes, 66 tensors)

model/batch_normalization_11/FusedBatchNormV3 f4 [48]
0	0x3ed9cb98	0.42538142
1	0x3f82ae51	1.0209447
2	0xbf9fee2d	-1.249456
3	0x4053b16a	3.3077035
4	0x3dac6d08	0.084192336
5	0xbfffa604	-1.9972539
6	0x3e13db9a	0.1443924
7	0x3e6f5164	0.23370892
8	0x3edf7644	0.43644917
9	0xbf8513aa	-1.0396626
10	0x407739f1	3.8629115
11	0x402a2c04	2.6589365
12	0x3fd31a3a	1.6492379
13	0x3fc3f63b	1.5309519
14	0x3f3767ed	0.71642953
15	0x40ebe1cd	7.3713136
16	0x3d849cd0	0.06475222
17	0xbefab28d	-0.48964348
18	0x411a9d4a	9.663401
19	0x3d47f1a8	0.048814446
20	0x3f6311cc	0.8869903
21	0xbfc05bc9	-1.5028011
22	0x3e7be732	0.24599913
23	0x4018039d	2.3752205
24	0xbfa5b89a	-1.2946961
25	0x3f23ad92	0.6393672
26	0xbdcfca10	-0.10145962
27	0xbe56ebb8	-0.20988357
28	0x40249976	2.5718665
29	0x4048c001	3.136719
30	0xbfea1984	-1.8289037
31	0x3fa2a7c3	1.2707447
32	0xbd964170	-0.073367
33	0x3ffa6923	1.9563335
34	0xbc1abe20	-0.009444743
35	0xbf9eeb21	-1.2415506
36	0x3f887c42	1.066292
37	0x40121b62	2.2829213
38	0x404b89b0	3.1802788
39	0x4032735e	2.7882915
40	0xbd9956e4	-0.07487276
41	0xbdada59e	-0.084788546
42	0x3f0ef682	0.5584489
43	0x3f15d746	0.58531606
44	0x40414130	3.0196037
45	0xbfb632be	-1.4234235
46	0x3f7b4ab4	0.9816086
47	0x3eb79075	0.358524

model/batch_normalization_15/FusedBatchNormV3 f4 [64]
0	0xbecb03cc	-0.39651334
1	0x3dce39e4	0.100696355
2	0x3e5e2cae	0.21696731
3	0x3fc5c76a	1.5451481
4	0x3fcf2490	1.6183033
5	0xbe836dbb	-0.25669655
6	0x3d79a5d2	0.060949154
7	0xbf867d7e	-1.0507047
8	0xbe056bd6	-0.13029417
9	0xbe0c8d2c	-0.13725728
10	0xbee0541f	-0.4381418
11	0x3f6ab7cc	0.916867
12	0x3fe5f15b	1.7964281
13	0x3fa61094	1.2973809
14	0x3fb07b9c	1.3787723
15	0x3ec72232	0.38893276
16	0x3ef13c07	0.4711611
17	0x3e4ab192	0.197943
18	0x3d9b25f0	0.075755954
19	0x3f1bc265	0.608435
20	0x3f0b1e90	0.5434351
21	0x3e028108	0.12744534
22	0xbe71288e	-0.23550627
23	0x3fbe1f72	1.4853346
24	0xbfd7f480	-1.687149
25	0x3e448b14	0.19193679
26	0x3f91878b	1.136949
27	0x407b15fe	3.9232173
28	0xbfa19669	-1.2624027
29	0x3c338080	0.01095593
30	0xbe96f48c	-0.2948345
31	0x3fab4b2b	1.3382314
32	0x3cca9de0	0.024733484
33	0xbf2a61e6	-0.6655563
34	0x3e307ba3	0.17234664
35	0x405ad9c8	3.4195423
36	0x3f2e19e4	0.68008256
37	0x3ff28e37	1.894965
38	0x3e0a1b4c	0.13486975
39	0x40026ac6	2.037767
40	0xbeb18de4	-0.34678566
41	0xc03b5484	-2.9270334
42	0xbee55036	-0.4478776
43	0xc04b9bc2	-3.1813817
44	0x3d2be660	0.04196775
45	0xbf86f01a	-1.0542023
46	0x3ebab6ab	0.3646749
47	0x401c65f4	2.4437227
48	0x3faccb9f	1.349964
49	0xbfa92f27	-1.3217515
50	0xbeeb85d3	-0.46000537
51	0x406a65dd	3.6624672
52	0xbf26cc27	-0.6515526
53	0x40815a1d	4.04225
54	0x402533eb	2.5812938
55	0xbffb2821	-1.9621621
56	0xbb2dc000	-0.0026512146
57	0xbf982225	-1.188542
58	0x3fa3472c	1.2756095
59	0x3e2475d0	0.16060567
60	0x3f643935	0.8914979
61	0xc077e6ec	-3.8734694
62	0x3f89d678	1.0768576
63	0x3ea141e1	0.31495574

model/batch_normalization_18/FusedBatchNormV3 f4 [96]
0	0x3d519878	0.051170796
1	0x3f05755c	0.521322
2	0x3f0b0f6a	0.54320395
3	0xbd480bd1	-0.048839394
4	0xbeda0b37	-0.4258668
5	0x3ea0eb72	0.3142963
6	0xbd45d678	-0.048300236
7	0x3e42ebbf	0.19035242
8	0xbce639e0	-0.028103769
9	0x3d210a08	0.039316207
10	0x3f14f8e7	0.58192295
11	0xbe24301e	-0.1603398
12	0x3f21afde	0.6315898
13	0x3f77aa3e	0.96744144
14	0x3f739453	0.951482
15	0x4048009b	3.125037
16	0x3f9dbb09	1.2322704
17	0x3f4998cb	0.7874877
18	0x3c47fba0	0.012205988
19	0xbf60f544	-0.87874246
20	0x3f8f133f	1.1177748
21	0xbf141bab	-0.5785472
22	0xbf7a666d	-0.9781254
23	0x3f14f7d8	0.5819068
24	0x3f84b4a8	1.0367632
25	0x3f6a27c4	0.9146693
26	0x3df9df14	0.12200752
27	0x3f498e88	0.7873311
28	0x3d6a4e60	0.05720365
29	0xbfb1683c	-1.3859935
30	0xbdf2c780	-0.11854458
31	0xbf7f7bab	-0.9979808
32	0xbfba436a	-1.4551823
33	0xbeb70862	-0.35748583
34	0xbda50a0c	-0.08058557
35	0x3f6305df	0.88680834
36	0xbf948fac	-1.1606345
37	0x3d80d208	0.0629006
38	0xbdb05e5a	-0.08611746
39	0xbf4f9849	-0.81091744
40	0x3f2a4251	0.6650744
41	0x3e99c7e9	0.30035332
42	0x3ee55338	0.44790053
43	0xbf0d5d2b	-0.5522029
44	0xbf1ba490	-0.6079798
45	0x3ed03f66	0.4067337
46	0xbe274fea	-0.16339079
47	0xbd6977ee	-0.05699914
48	0xbe9756c0	-0.29558372
49	0xbdd0cec8	-0.101956904
50	0x3f544665	0.82919914
51	0xbf16d0ec	-0.5891254
52	0xbc778500	-0.015107393
53	0x3e996353	0.2995859
54	0x3e334cc5	0.17509754
55	0x3cabdbc0	0.020978808
56	0xbf889728	-1.0671129
57	0xbc3694e8	-0.0111439
58	0xbe42f9f1	-0.19040658
59	0xbefb0900	-0.49030304
60	0xbd4aa447	-0.049473073
61	0x3e012bd3	0.12614374
62	0xbf74afb6	-0.95580614
63	0xbe4ebc6c	-0.20189065
64	0x3fbb1f29	1.4618884
65	0xbe2dd56a	-0.16975942
66	0x3f2d4315	0.67680484
67	0xbee52e3d	-0.4476184
68	0x3fc0faf1	1.5076581
69	0x3fb37034	1.4018617
70	0x3fa9f0f7	1.3276662
71	0x40315505	2.7708142
72	0xbfeb46f4	-1.8381028
73	0xbf11af9c	-0.56908584
74	0x3f1f300a	0.62182677
75	0xbf7066e8	-0.9390702
76	0xbf11616a	-0.5678927
77	0xbea43960	-0.32075024
78	0xbc7605a0	-0.01501599
79	0x3f7c402c	0.9853542
80	0xbf715ec0	-0.942852
81	0xbf89df57	-1.0771283
82	0xbea92fde	-0.33044332
83	0x4005cef0	2.0907555
84	0xbec87abf	-0.39156148
85	0x3f80d2bf	1.0064315
86	0x3f289cba	0.65864146
87	0xbf73e4db	-0.9527108
88	0x3f520b13	0.8204815
89	0x3f0ef526	0.55842817
90	0xbe429221	-0.19001056
91	0x3e6d6732	0.23183897
92	0x3e210ff0	0.15728736
93	0x3fab15a4	1.3365979
94	0x3f367dc1	0.71285635
95	0x3f8f3572	1.1188185

model/batch_normalization_2/FusedBatchNormV3 f4 [8]
0	0x3ff70fbd	1.9301678
1	0x3fe6cce0	1.8031273
2	0x3ed47568	0.41495824
3	0x3f41da3f	0.7572364
4	0x40817359	4.0453305
5	0x3fed657c	1.8546596
6	0x4015172d	2.3295395
7	0x3fd88169	1.6914493

model/batch_normalization_21/FusedBatchNormV3 f4 [96]
0	0x3daf61b2	0.08563556
1	0x3f2e2192	0.68019974
2	0xbe417035	-0.1889046
3	0x3e0daef3	0.13836269
4	0xbdf914bf	-0.1216216
5	0xbd285757	-0.04109892
6	0xbdd5dec5	-0.104428805
7	0xbc83fe30	-0.016112417
8	0x3f672ce7	0.9030289
9	0x3f683768	0.90709543
10	0x3e865f23	0.2624446
11	0xbdb40749	-0.08790452
12	0x3fc896c9	1.5671016
13	0xbd5c9a13	-0.053857874
14	0x3bfab2e0	0.007650718
15	0x3cf3d5e0	0.02976507
16	0x3f8855fe	1.0651243
17	0xbea5a38e	-0.32351345
18	0x3f84b78c	1.0368514
19	0x3e601912	0.21884564
20	0x3ef5e310	0.48024797
21	0x3fc794fe	1.5592344
22	0x3ec6875a	0.3877514
23	0xbeddeff7	-0.4334714
24	0x3d23496c	0.039864942
25	0x3e3b3290	0.18281007
26	0xbee37e46	-0.44432276
27	0xbecfa011	-0.40551808
28	0x3c20c2e0	0.009812087
29	0x3fa03a41	1.2517778
30	0xbeee9f17	-0.4660575
31	0x3ddaf9c8	0.10692173
32	0x3f5b2de4	0.856169
33	0xbf700016	-0.9375013
34	0xbe049099	-0.12945785
35	0xbf89bd7d	-1.0760952
36	0xbe51a598	-0.20473325
37	0xbe0fe474	-0.14051992
38	0x3f94efd9	1.1635696
39	0x3c731a43	0.014837804
40	0xbe02728d	-0.1273901
41	0x3f92f21b	1.1480135
42	0x3fd82b64	1.6888242
43	0xbee1aae8	-0.44075704
44	0x3eb2da93	0.34932384
45	0x3f997a8f	1.1990527
46	0xbf9b117a	-1.2114708
47	0xbf5a3064	-0.8523009
48	0xbdac7bf0	-0.08422077
49	0xbe2cce02	-0.1687546
50	0x3f80fdd6	1.0077465
51	0xbf463a63	-0.7743284
52	0xbe919f81	-0.28442004
53	0xbe2ad956	-0.1668447
54	0x3fb7fc86	1.4373939
55	0xbf42f413	-0.7615368
56	0x3e30af22	0.17254308
57	0xc0231de6	-2.5486999
58	0x3f6b24a4	0.91852784
59	0x3f82889d	1.0197941
60	0x3f939118	1.1528654
61	0x3f438f0e	0.7639016
62	0x3cc218bf	0.02369344
63	0x3ebb3936	0.36567086
64	0x3c9fc5a0	0.019503415
65	0x3dc931e0	0.09823966
66	0xbe6de604	-0.23232275
67	0x3f9bb436	1.2164371
68	0x3bbf68b0	0.005841337
69	0xbe67f0d4	-0.22650462
70	0xbe383864	-0.17990261
71	0x3ea19056	0.31555432
72	0xbd4b5fdb	-0.04965196
73	0x3f10c478	0.5654979
74	0x3de0f6f6	0.10984604
75	0x3eabc53d	0.33548918
76	0xbf1ff3a0	-0.6248112
77	0xbc44ed50	-0.01201947
78	0x3c920218	0.017823264
79	0xbe0124cc	-0.12611693
80	0x3e5d0c8d	0.21586819
81	0x3f45f093	0.7732021
82	0x3f1130f2	0.5671531
83	0xbe27aa72	-0.16373613
84	0x3d3a23b0	0.04544419
85	0xbe950a18	-0.29109263
86	0xbecee9dd	-0.404128
87	0x3e12b750	0.1432774
88	0xbea74c7e	-0.32675546
89	0x3f73b7ed	0.95202523
90	0xbedcfe40	-0.43162727
91	0xbbc76c80	-0.0060859323
92	0xbf53108a	-0.8244711
93	0xbf10a9f2	-0.56509316
94	0xbf628165	-0.8847869
95	0x3d95fbda	0.073234275

model/batch_normalization_24/FusedBatchNormV3 f4 [136]
0	0x3f6c8262	0.9238645
1	0xbe08cf62	-0.1336036
2	0xbe981de8	-0.29710317
3	0xbef28cb8	-0.47372985
4	0xbe750f98	-0.2393173
5	0x3f924cce	1.1429689
6	0xbf77f6d6	-0.96861017
7	0x3f5ba61f	0.85800356
8	0x3ee7aa47	0.452471
9	0xbe183d82	-0.14867213
10	0xbf84959c	-1.0358157
11	0x3e4b311c	0.19842952
12	0xbe5bfd1a	-0.2148327
13	0xbe0a04e6	-0.13478431
14	0xbe7adc52	-0.24498108
15	0xbe2fd0a2	-0.17169431
16	0xbe8b7c20	-0.27243137
17	0xbda3dc6e	-0.08001028
18	0x3e81225a	0.2522152
19	0xbd42875c	-0.04749237
20	0xbeb2a3fd	-0.34890738
21	0x3f83438e	1.0254991
22	0xbe890baf	-0.26766726
23	0xbec0abf6	-0.37631196
24	0xbed6d895	-0.41962114
25	0xbe1a5db0	-0.15074801
26	0xbf07ba86	-0.5301899
27	0xbef1b7f8	-0.4721067
28	0x3df17c28	0.11791259
29	0xbef61862	-0.48065478
30	0xbde22779	-0.11042685
31	0x3f8d55d3	1.1041816
32	0x3f5a826e	0.8535527
33	0x3e04516f	0.1292169
34	0xbf02c3f8	-0.51080275
35	0x3bdcb940	0.0067359507
36	0xbea243fc	-0.31692493
37	0xbee90bf8	-0.45516944
38	0xbd4a5af0	-0.04940313
39	0xbf667bd0	-0.9003267
40	0x3ddd3800	0.10801697
41	0xbf7c2fbb	-0.9851033
42	0xbf4ccf09	-0.8000341
43	0x3f87874b	1.0588163
44	0x3f8959ce	1.0730531
45	0xbf8a094e	-1.078409
46	0x3f7e9544	0.9944651
47	0x3f8cc8b4	1.099875
48	0x3bed5bc0	0.0072436035
49	0xbe579f36	-0.21056828
50	0x3f8262e4	1.0186429
51	0xbe48b89e	-0.19601676
52	0xbd464d58	-0.048413604
53	0xbd8b3514	-0.06797233
54	0xbe2232df	-0.15839718
55	0x3f1c8b79	0.6115032
56	0x3fcec447	1.6153649
57	0xc005b566	-2.0891967
58	0x3f27f86d	0.6561344
59	0xbf2e8abf	-0.6818046
60	0xbe0d6a0c	-0.13809985
61	0xbf1c5f7b	-0.6108319
62	0xbf107f30	-0.5644407
63	0xbd6638f8	-0.056206673
64	0x3f94d67a	1.1627953
65	0x3f4c1df2	0.7973319
66	0xbf565910	-0.8372965
67	0x3cde3b18	0.027127787
68	0x3dda25a8	0.106517136
69	0xbf97da2e	-1.1863458
70	0xbf306f59	-0.68919903
71	0xbedfab05	-0.43685165
72	0xbe27fdca	-0.16405407
73	0x3db2a10c	0.087221235
74	0xbd9a8b94	-0.07546154
75	0xbe81addb	-0.25327954
76	0xbe9ed0ad	-0.31018582
77	0x3ed275b7	0.41105434
78	0xbd7b1c06	-0.061306022
79	0xc00d981c	-2.212409
80	0xbe78b7b0	-0.24288821
81	0xbd972894	-0.073807865
82	0xbf520ed6	-0.8205389
83	0x3f75cc15	0.9601453
84	0x3fa49b63	1.285992
85	0x3f22f0c6	0.6364864
86	0x3fc3457f	1.5255584
87	0xbdbdd91d	-0.09269927
88	0xbe026d0c	-0.1273691
89	0x3f11126d	0.5666874
90	0x3f1e63e6	0.6187118
91	0xbebca336	-0.3684327
92	0xbef50214	-0.47853148
93	0x3f6a825e	0.91605175
94	0x3f50e14c	0.81593776
95	0x3f72c992	0.9483882
96	0xbf998ecb	-1.1996702
97	0x3d95d6c0	0.07316351
98	0x3f948bce	1.1605165
99	0x3fba0b2f	1.4534663
100	0x3f9ff47d	1.2496487
101	0x3f93f70c	1.1559768
102	0xbea6b2f8	-0.32558417
103	0x3f85d5fa	1.0455925
104	0xbef6dc44	-0.48214924
105	0xbe901572	-0.2814136
106	0x3dc568d0	0.09639132
107	0x3fbedae6	1.4910553
108	0xbe854a3a	-0.26033193
109	0xbe9e9956	-0.3097636
110	0x3f7241b8	0.9463153
111	0x3eb3d0c9	0.35120228
112	0x3ef64613	0.48100337
113	0xbf779d96	-0.9672483
114	0xbe9f9b84	-0.31173337
115	0x3f838498	1.0274839
116	0xc00377ac	-2.0541792
117	0xbd8045c6	-0.06263308
118	0xbf17bcd1	-0.59272486
119	0xbe34bcbb	-0.1765012
120	0x3fbab274	1.458571
121	0x3fba87f6	1.4572742
122	0x3f59f848	0.8514447
123	0x3f640059	0.8906303
124	0xc0170c1e	-2.3601146
125	0xbf9aee94	-1.2104058
126	0x3cd60ef0	0.02613017
127	0xbff2f661	-1.8981439
128	0xbf97d6a4	-1.1862378
129	0xbe3d416c	-0.18481988
130	0xbf2504bc	-0.6446035
131	0xbf0bf07a	-0.54663813
132	0x3f425ad2	0.7591983
133	0xbf13769e	-0.5760287
134	0xbf1322f0	-0.57475185
135	0x3f8b6f91	1.0893422

model/batch_normalization_27/FusedBatchNormV3 f4 [224]
0	0xbedd5eaa	-0.43236285
1	0x3f449e6c	0.7680423
2	0x3f1f2f42	0.62181485
3	0xc020b378	-2.510954
4	0x3e824964	0.25446618
5	0xbfa8c2a6	-1.3184402
6	0x3df14f44	0.11782697
7	0xbed8bdb7	-0.4233224
8	0xbf58465a	-0.8448235
9	0x3f340d22	0.7033254
10	0x3f739e1b	0.95163125
11	0x400ced5b	2.201987
12	0xbf2327be	-0.63732517
13	0xbf270513	-0.6524212
14	0xbf4e1fec	-0.8051746
15	0xbff663b4	-1.9249177
16	0xbeb39176	-0.35071915
17	0xc00e4a9f	-2.2233045
18	0xc02205bb	-2.5315998
19	0x3f0da9a9	0.55337006
20	0xbdfa73ce	-0.12229119
21	0x3fced5d5	1.6159006
22	0x3fc8da52	1.5691626
23	0x3dd423cc	0.1035839
24	0x3f0182bc	0.5059011
25	0x3e715550	0.235677
26	0x3f5826f4	0.8443444
27	0xbf3b6002	-0.7319337
28	0xbf22e8bb	-0.6363637
29	0xbf906ed6	-1.1283824
30	0x3ed0aad4	0.40755332
31	0xbf933dc0	-1.150322
32	0xbeb1a52f	-0.34696338
33	0xbd835184	-0.06412032
34	0xbc4985c0	-0.012299955
35	0xbec1b78c	-0.37835348
36	0xbfbd8ae0	-1.4808006
37	0x3f9ea705	1.239472
38	0xbc999fe0	-0.018752992
39	0x3efdd044	0.49572957
40	0xbe5b0793	-0.21389608
41	0xc035cda9	-2.8406775
42	0x3f114fdc	0.5676248
43	0xbd175580	-0.036946774
44	0x3d9368c0	0.07197714
45	0x3f2c2033	0.6723663
46	0x3f1fcce1	0.62421995
47	0x3e2d8db5	0.16948588
48	0x3e0d0804	0.13772589
49	0xbf312eb0	-0.69211864
50	0xbfc06abe	-1.5032575
51	0x3e954a05	0.29158035
52	0xbdb4a0d0	-0.08819735
53	0x3e861c5a	0.26193506
54	0xbe98769c	-0.29777992
55	0xbf0628f2	-0.5240623
56	0x3e646035	0.22302325
57	0x3f809e68	1.0048342
58	0x3fa53d89	1.2909404
59	0x3f30483a	0.6886021
60	0x3f23d90a	0.6400305
61	0xbb91b000	-0.0044460297
62	0x3de2bf80	0.11071682
63	0xbe878e48	-0.2647574
64	0xbea3197c	-0.3185538
65	0x3f8e9530	1.1139278
66	0x3fd34f89	1.6508647
67	0x3f3e039c	0.7422426
68	0x3f0e0980	0.55483246
69	0x3d6c320e	0.057664923
70	0x3e34845f	0.1762862
71	0xbea11a58	-0.3146541
72	0x400a1350	2.1574287
73	0xc00727d9	-2.111807
74	0xbe37ef2b	-0.17962329
75	0x405a6b67	3.4128053
76	0xbfd3390e	-1.6501787
77	0xbe30e243	-0.17273812
78	0xbfb04a92	-1.3772757
79	0x3e3da89c	0.1852135
80	0x3f495f08	0.7866063
81	0x3edd44f8	0.4321668
82	0x3ea05084	0.3131143
83	0xbee19264	-0.44057
84	0xbdcff4de	-0.101541266
85	0x3f021255	0.5080922
86	0x3efd8d36	0.49521798
87	0xbe6a9734	-0.22909242
88	0x3fc2cfbc	1.5219646
89	0xbe4e0d54	-0.20122272
90	0x3f2ef08e	0.6833581
91	0x3c2cb4a0	0.010541111
92	0xc00d6933	-2.2095459
93	0x4019bc70	2.4021263
94	0x3f1e5a2d	0.6185635
95	0xbd560ffa	-0.05226133
96	0xbcf1b4c0	-0.029505134
97	0x3f11b82b	0.56921643
98	0xbcc722e8	-0.024308637
99	0xbe6c9bf3	-0.23106365
100	0x3e162934	0.14664155
101	0xbec8d95c	-0.39228332
102	0x3efd719e	0.49500746
103	0xbdb763d8	-0.089545906
104	0x400245b6	2.0355048
105	0xbe311f58	-0.17297113
106	0xbf2ce114	-0.6753094
107	0x3fa6285b	1.2981066
108	0x3ede627e	0.4343452
109	0x3f638baa	0.88884985
110	0xbf519fc7	-0.81884426
111	0x3d377d14	0.04479702
112	0xbf9a5b03	-1.2059025
113	0x3d4086b6	0.04700347
114	0xc036160d	-2.8450959
115	0xbf7a8be0	-0.9786968
116	0x3f9db903	1.2322086
117	0x3e033988	0.12814915
118	0x3fad0bf3	1.3519272
119	0x3e4d492e	0.20047447
120	0xbd49fd04	-0.04931356
121	0xbf2a60a8	-0.66553736
122	0xbebb2a21	-0.3655558
123	0xbfb21fd9	-1.3915969
124	0xbfed9dda	-1.8563797
125	0xbefc6e06	-0.4930269
126	0x3efc8bc2	0.49325377
127	0xbe1523a5	-0.14564379
128	0xbda1866e	-0.078869686
129	0x3f41682e	0.7554959
130	0x3baee618	0.005337488
131	0xbf2acbc2	-0.6671716
132	0x3f5fb9a4	0.8739264
133	0xbf7ff46e	-0.99982345
134	0xbec409cc	-0.38288724
135	0xb8e94800	-0.00011123717
136	0xbcc9c25c	-0.02462881
137	0xbea03fe4	-0.31298745
138	0xbdcd30b8	-0.10019058
139	0x3f3d8a1a	0.7403885
140	0x3da74b6f	0.08168685
141	0xc008d0af	-2.137737
142	0xbf6c38d6	-0.92274225
143	0x3d8fad40	0.07015467
144	0xbd62dbdc	-0.055385455
145	0x3e101246	0.14069471
146	0xbe656140	-0.22400379
147	0xbe86f1c9	-0.26356342
148	0x4001c0d4	2.0273943
149	0x3e43319a	0.1906189
150	0xc000cf3c	-2.0126486
151	0x3acfea80	0.0015862733
152	0xbffc5e8c	-1.9716353
153	0x3f54aea7	0.83079
154	0x3fdc1823	1.7194866
155	0x401b90b1	2.4307063
156	0x4045bedb	3.089774
157	0x3ebe691b	0.37189564
158	0xbf69a18e	-0.9126214
159	0xbe64b922	-0.22336248
160	0xbf89f2ba	-1.0777199
161	0xbfd541b4	-1.6660676
162	0x3fc8a046	1.5673912
163	0xbf257162	-0.64626133
164	0xbeaeb6cd	-0.3412384
165	0x3e977d79	0.29587916
166	0xbe90d38f	-0.28286406
167	0xbf732a83	-0.9498674
168	0xbf3f9da6	-0.7484993
169	0x3fe62f4c	1.7983184
170	0xbf2163bc	-0.6304281
171	0xbd20ffd8	-0.03930649
172	0x3ccd45e2	0.025057737
173	0xbfd528e3	-1.6653103
174	0x3d10f12e	0.035386257
175	0xbdfbb732	-0.12290801
176	0x3cf5f8d0	0.03002587
177	0xbe2cf9b8	-0.16892135
178	0xbf110452	-0.5664722
179	0xbef59384	-0.47964108
180	0xbd8017a8	-0.06254512
181	0x3f9ec2de	1.2403219
182	0xbde459f4	-0.1114997
183	0xbe9f7913	-0.3114706
184	0x3e767273	0.24067096
185	0x3e60058d	0.21877117
186	0x3fc4d179	1.5376426
187	0x3fb2e8f2	1.3977339
188	0x3fa578b5	1.2927462
189	0x3e0f50c2	0.1399565
190	0xbf06b21c	-0.52615523
191	0x3ff852cd	1.9400269
192	0x3f5657d2	0.83727753
193	0x3e4e7afe	0.20164105
194	0xbf371dae	-0.7152966
195	0x3ecbd7c2	0.39813048
196	0xbe196da5	-0.14983232
197	0x3c913970	0.017727584
198	0xbea3c56f	-0.31986567
199	0x3f32e40a	0.6987921
200	0x3ffffaef	1.9998454
201	0x3fa41340	1.2818375
202	0x3f3bee0a	0.73410094
203	0xbf70870e	-0.9395608
204	0xbf799e4a	-0.97507155
205	0x3dd83df0	0.10558689
206	0xbf60527e	-0.87625873
207	0xbfadd975	-1.3581988
208	0x3f20d41c	0.62823653
209	0xbfaef67b	-1.366897
210	0xbe29a99c	-0.16568607
211	0x3f81bb03	1.0135196
212	0x3f852f5a	1.0405076
213	0xbe84215a	-0.25806695
214	0xbfd1b3f8	-1.6383047
215	0xbe3b61f2	-0.18299082
216	0x3ecaca90	0.39607668
217	0x3c8b646c	0.017015658
218	0xbf8b5c48	-1.0887537
219	0xbf4f1734	-0.8089478
220	0x3f2bb816	0.6707777
221	0xbe1e934b	-0.15485875
222	0x3d9ec4de	0.07752393
223	0xbdd4eccb	-0.10396727

model/batch_normalization_30/FusedBatchNormV3 f4 [128]
0	0x3c733334	0.014843751
1	0xbdb991d2	-0.09061016
2	0x3ede5151	0.43421414
3	0xbe6f7078	-0.23382747
4	0x3e5382c0	0.20655346
5	0xbe039683	-0.12850384
6	0x3c489a64	0.012243841
7	0x3dd32a4a	0.103108004
8	0x3ef04a07	0.46931478
9	0xbc0c560c	-0.008565437
10	0xbd905967	-0.07048302
11	0x3d629e2d	0.05532663
12	0xbe010079	-0.12597837
13	0x3c75b351	0.014996366
14	0x3ed8934a	0.42299873
15	0xbdfebaee	-0.12437998
16	0x3e5e47d6	0.2170709
17	0x3d26d3f2	0.04072947
18	0x3c9f1600	0.01941967
19	0x3d948cb2	0.07253398
20	0xbdf06efd	-0.11739919
21	0x3eb1f473	0.34756812
22	0xbe020abe	-0.1269941
23	0xbcdf6684	-0.027270563
24	0x3d533c6a	0.051571287
25	0x3d18c8ba	0.037300803
26	0x3e5a31c3	0.21308045
27	0x3e94e1f5	0.29078642
28	0x3e3c368e	0.18380186
29	0xbf108520	-0.5645313
30	0x3e19fc5f	0.15037678
31	0x3d8790d2	0.06619419
32	0x3e6abd6c	0.22923821
33	0x3e51e1a1	0.20496227
34	0x3f168778	0.5880046
35	0xbe319ad2	-0.17344216
36	0xbd5e53b8	-0.05427906
37	0x3d49d2bb	0.049273234
38	0x3d00655e	0.03134667
39	0xbe80d942	-0.25165755
40	0xbc64b556	-0.0139592495
41	0xbc9681d4	-0.018372454
42	0xbe03a175	-0.1285456
43	0xbe6ddf71	-0.23229767
44	0x3e09c777	0.13454996
45	0xbdbec6e0	-0.09315276
46	0x3dd87ad4	0.105703026
47	0x3db617aa	0.08891232
48	0xbe609e2b	-0.21935336
49	0xbc8d1938	-0.01722394
50	0x3db8c70c	0.0902234
51	0xbe46c01a	-0.19409218
52	0x3eabd04b	0.33557352
53	0x3e108426	0.1411291
54	0xbdc226db	-0.09480067
55	0xbbd97107	-0.0066357884
56	0xbda9fea1	-0.0830052
57	0xbe187628	-0.14888823
58	0xbe15ea64	-0.14640194
59	0xbe9d6477	-0.3074071
60	0x3dc75c69	0.09734423
61	0x3d7e15ec	0.062032625
62	0xbe0983d3	-0.13429193
63	0xbddc798e	-0.10765372
64	0xbdc25017	-0.09487932
65	0x3f2e7e08	0.6816106
66	0xbe2d413f	-0.1691942
67	0x3ebdfa03	0.37104806
68	0xbe5a07c4	-0.21292025
69	0xbe6a4409	-0.22877516
70	0xbe9a7291	-0.30165532
71	0xbb4854a0	-0.0030568019
72	0xbd953abb	-0.072865926
73	0x3e1b89f7	0.15189348
74	0xbd685cdd	-0.056729186
75	0xbcd8e10c	-0.026474498
76	0x3dc0d0dc	0.09414837
77	0x3e3d4e1c	0.18486828
78	0x3ef93590	0.48673677
79	0xbd2307b9	-0.039802287
80	0x3f1b700a	0.60717833
81	0xbe5d3a8d	-0.21604367
82	0x3ec761fb	0.3894194
83	0x3e0787ce	0.13235399
84	0xbe6aefba	-0.22943011
85	0x3dc1d766	0.09464912
86	0x3e211832	0.15731886
87	0xbe095225	-0.13410242
88	0x3e29fd88	0.16600621
89	0x3e8a0ba6	0.26962012
90	0xbdeae7fe	-0.1147003
91	0x3ebbfd42	0.36716658
92	0x3e9c64ea	0.3054574
93	0x3d882960	0.06648517
94	0x3ce89d00	0.028395176
95	0xbe3f889b	-0.18704455
96	0x3e6e6b4c	0.23283118
97	0x3e56f024	0.20990044
98	0xbd98000c	-0.07421884
99	0x3f5240fe	0.8213042
100	0xbcf770bc	-0.030205123
101	0x3e4d4b98	0.20048368
102	0xbe537e47	-0.2065364
103	0x3e817013	0.25280818
104	0x3de2fd61	0.110834844
105	0xbdf49e31	-0.11944235
106	0xbd8f8f76	-0.07009785
107	0xbe92a894	-0.2864424
108	0xbe0b992e	-0.13632652
109	0x3e0685c8	0.13136971
110	0x3e90ea91	0.2830396
111	0x3e46d1d0	0.19415975
112	0x3f4d8848	0.80286074
113	0x3d76aead	0.060225178
114	0xbe1b8b84	-0.1518994
115	0x3e4f52fc	0.202465
116	0x3e845888	0.25848794
117	0xbed95c05	-0.42453018
118	0xbe36ab71	-0.17838837
119	0x3eb9ec87	0.3631327
120	0x3e53c64e	0.20681116
121	0x3e8be2e0	0.2732153
122	0x3e97cfa1	0.29650596
123	0x3de21e97	0.11040991
124	0x3df7bbd2	0.12096371
125	0xbec2f820	-0.3807993
126	0xbe935602	-0.28776556
127	0xbdb92f7a	-0.090422586

model/batch_normalization_5/FusedBatchNormV3 f4 [32]
0	0xc0542966	-3.3150268
1	0x3f865c32	1.0496886
2	0xbe421ff4	-0.18957502
3	0xbd887eaf	-0.06664788
4	0x3f0e643a	0.55621684
5	0x40cbbb10	6.366585
6	0xbdfd8e0c	-0.12380609
7	0x4012c8fd	2.2935174
8	0x3f483cd2	0.78217804
9	0xbfd742eb	-1.6817297
10	0xbbe04a2e	-0.0068447804
11	0xbdc1227e	-0.09430407
12	0x4088bae6	4.2728148
13	0x3f8b2909	1.0871898
14	0xbf2936bd	-0.6609915
15	0xbf707db6	-0.9394182
16	0x40cc8dbd	6.392302
17	0x3dca63aa	0.09882291
18	0x3d88d4aa	0.066811875
19	0x40ea19f7	7.3156695
20	0xbf7e695d	-0.9937952
21	0x3f5a8854	0.8536427
22	0xbe8100a0	-0.2519579
23	0x3e31ffc0	0.17382717
24	0x3dbff8fa	0.093736604
25	0x40204d88	2.5047321
26	0x3ca9ce6c	0.020728312
27	0xc0e79170	-7.2365036
28	0xbe4d59ac	-0.20053738
29	0x3ea34c4a	0.3189414
30	0x3fa643c6	1.2989433
31	0x3ce474e6	0.027887773

model/batch_normalization_8/FusedBatchNormV3 f4 [48]
0	0x3f45048b	0.7696006
1	0xbea1d04f	-0.3160424
2	0xbd9897f0	-0.07450855
3	0x3f626d82	0.88448346
4	0xbf9911a0	-1.1958504
5	0xbe6b1352	-0.22956589
6	0x3ea765aa	0.3269475
7	0x3e99af0e	0.3001637
8	0xbebc3e28	-0.3676617
9	0x3f1be7b4	0.60900426
10	0x3fd0f184	1.6323705
11	0xbfa0b2ea	-1.25546
12	0xbea6e488	-0.3259623
13	0x3ee57350	0.4481454
14	0xbfe05f94	-1.7529168
15	0x3d306f60	0.043074965
16	0xc0111550	-2.2669258
17	0xbe88a9b3	-0.2669197
18	0xbbebf400	-0.007200718
19	0x3fdc658c	1.721849
20	0x3fbb56c6	1.4635856
21	0xbf513f88	-0.81737566
22	0x3ee1bd35	0.44089666
23	0xbe313dfa	-0.17308798
24	0xbfa80fc2	-1.3129809
25	0x3fc514ee	1.5397012
26	0x3ec72b14	0.38900054
27	0x3f0654e0	0.5247326
28	0xbe5c5618	-0.21517217
29	0xc0085f89	-2.130831
30	0x3e89a9b5	0.2688729
31	0xbe274fc3	-0.1633902
32	0x3fa5a567	1.2941102
33	0x3feeeb0e	1.8665483
34	0x4012ffc2	2.2968602
35	0x3ece0198	0.4023559
36	0xbdb89188	-0.09012133
37	0x3fd38cee	1.6527383
38	0xc01349c6	-2.3013778
39	0x3f412281	0.75443274
40	0x3f99cff0	1.2016582
41	0x3d9bd70a	0.07609375
42	0x3ec730b9	0.3890436
43	0x3e9fe3d0	0.31228495
44	0xbfc4bace	-1.5369508
45	0x3fc37bb1	1.5272123
46	0xbee53c30	-0.44772482
47	0xbfba0df0	-1.4535503

model/conv2d/Conv2D f4 [8, 3, 3, 1]
0	0x3fe8c1ec	1.818418
1	0x40112862	2.2680898
2	0xbf6dda48	-0.92911196
3	0x4039df37	2.904249
4	0xbfc5f2a2	-1.5464671
5	0xc0d6e975	-6.715998
6	0x3f2af07d	0.66773206
7	0xbfaf7419	-1.3707305
8	0xc09c4635	-4.88357
9	0x3f0ccebe	0.55002964
10	0xc091e8ed	-4.5596833
11	0x3f04cabd	0.51871854
12	0xbec65b77	-0.38741657
13	0xc0fc6573	-7.887384
14	0xbf0f03c3	-0.55865115
15	0x3f84fd84	1.0389867
16	0xbfbf54fb	-1.4947809
17	0x3f79cf4c	0.97581935
18	0xbfb9d5be	-1.4518354
19	0x40bba23d	5.8635545
20	0xc0a1f242	-5.0608225
21	0xc0283e5f	-2.6288068
22	0x412f437f	10.953979
23	0xc0feb5b8	-7.9596825
24	0xc01b3ae5	-2.4254696
25	0x40cddd64	6.433275
26	0xc0800372	-4.0004206
27	0xbe99b2f1	-0.30019334
28	0xc08937c8	-4.288059
29	0xc0c72723	-6.2235274
30	0xbeb89efb	-0.36058792
31	0x3e156dd2	0.14592674
32	0xc044c622	-3.074593
33	0x4005908a	2.086947
34	0x408d6142	4.4181223
35	0x402bdefe	2.6854854
36	0x40842b2b	4.1302695
37	0xbf27c7ab	-0.65539044
38	0xc05f7845	-3.4917157
39	0x41059f84	8.351444
40	0xbfac41ce	-1.3457582
41	0xc0ea7b31	-7.327538
42	0x4091be24	4.5544605
43	0xbf476567	-0.778891
44	0xc0699b38	-3.6500988
45	0x3f693b79	0.91106373
46	0xbf1954e6	-0.5989517
47	0x3f75c60d	0.96005327
48	0x3f112fdc	0.5671365
49	0xbfc83842	-1.5642169
50	0x4031316a	2.768641
51	0xbe837444	-0.2567464
52	0xbe8a1ee1	-0.26976684
53	0x3fa6e8d6	1.3039806
54	0xbe9106c7	-0.28325483
55	0xbe3228a0	-0.1739831
56	0x400f61f2	2.240353
57	0xc0a4d42f	-5.1509013
58	0xc05c1d77	-3.4392984
59	0x40780a79	3.8756392
60	0xc0675b0b	-3.6149318
61	0xbfca08f3	-1.5783981
62	0x3f7f6e50	0.997777
63	0xc082c3ec	-4.0864162
64	0xc0f0740d	-7.5141664
65	0xc0b0af18	-5.5213737
66	0xbec262c0	-0.37965965
67	0x3d62c08e	0.055359416
68	0x3e2196d6	0.15780196
69	0x408555e7	4.166736
70	0x40f1533c	7.5414104
71	0x40b30fb9	5.5956693

model/conv2d_1/Conv2D f4 [8, 1, 1, 8]
0	0x3f0d4cf3	0.5519554
1	0x3dac64e2	0.08417679
2	0xbe08af76	-0.13348183
3	0xbc010a54	-0.007875998
4	0x3fb788f5	1.4338671
5	0xbe59ca50	-0.21268582
6	0xbf1c6518	-0.61091757
7	0xbd8bf603	-0.068340324
8	0x3ee5be67	0.44871828
9	0x3f9a4df0	1.2055035
10	0xbdbabd6e	-0.09118162
11	0x3ea261dd	0.3171529
12	0x3d3dc00f	0.04632574
13	0x3ea4085d	0.3203763
14	0x3e329a1b	0.17441599
15	0xbce0e840	-0.027454495
16	0xbe967390	-0.29385042
17	0x3d292a05	0.04129984
18	0x3ee1e1b8	0.44117522
19	0x3cc568c9	0.024097817
20	0xbf706705	-0.93907195
21	0x3d477ded	0.048704077
22	0x3f15e9eb	0.58560055
23	0x3d98e878	0.07466215
24	0xbe0d4387	-0.13795291
25	0x3e88774c	0.26653516
26	0xbbd55e0a	-0.0065114545
27	0x3e33defe	0.17565534
28	0xbd5c584d	-0.053795148
29	0xbe9872f3	-0.297752
30	0xbe4b2f37	-0.1984223
31	0x3fc17f9d	1.511707
32	0xbebea5e8	-0.3723595
33	0x3c058728	0.0081499
34	0xbed34039	-0.41259935
35	0xbd4e4feb	-0.050369184
36	0xbe41d7e6	-0.18930015
37	0xbec1b2cf	-0.37831733
38	0x3e73452c	0.23756856
39	0x3c77feec	0.015136462
40	0x3ec18608	0.3779757
41	0xbe8ad8ee	-0.2711863
42	0xbd5d8273	-0.054079484
43	0xbf257ccc	-0.6464355
44	0xbd888995	-0.06666867
45	0xbc87c412	-0.016572986
46	0x3e2d3539	0.16914834
47	0xbedf8f21	-0.43663886
48	0x3eb3cdf1	0.35118058
49	0x3fe3af75	1.778792
50	0xbf43e8f8	-0.7652736
51	0x3e89e348	0.26931214
52	0x3e6a45cf	0.22878192
53	0x3f1dd011	0.6164561
54	0x3eb485c1	0.35258296
55	0xbdffca3b	-0.12489744
56	0x3d8bb311	0.068212636
57	0xbe798788	-0.24368107
58	0xbdf0db48	-0.117605746
59	0x3d8f82c1	0.07007361
60	0x3de2ee4e	0.11080609
61	0x3d670682	0.05640269
62	0x3db9ef30	0.090788245
63	0x3fbb4d94	1.463305

model/conv2d_2/Conv2D f4 [4, 1, 1, 8]
0	0x3e3e4011	0.18579127
1	0x3e206e3c	0.15667051
2	0xbef1bd49	-0.47214726
3	0xbe537765	-0.20651014
4	0x3f4102fe	0.7539519
5	0x3e80c81f	0.2515268
6	0x3f4c56e3	0.7982008
7	0xbda0b554	-0.078470856
8	0x3f3d8105	0.74024993
9	0x3f1c3c87	0.6102986
10	0x3f21a3dd	0.6314066
11	0xbf3386e3	-0.70127696
12	0xbf30bd67	-0.69039005
13	0xbf26979c	-0.6507509
14	0x3f3b3989	0.73134667
15	0xbf24bb2e	-0.64348114
16	0xbf56c437	-0.8389315
17	0x3f02694f	0.5094194
18	0xbf55b006	-0.83471715
19	0xbebe30ca	-0.37146598
20	0x3d9bc1c5	0.07605318
21	0xbf57ee90	-0.8434839
22	0x3d99a9e3	0.075031064
23	0xbf4709c6	-0.7774929
24	0x3e776c28	0.24162352
25	0x3f3394cd	0.70148927
26	0x3f10b91a	0.5653244
27	0xbf3ec141	-0.7451363
28	0x3f39cde2	0.7257978
29	0xbecfcf34	-0.4058777
30	0xbf802699	-1.0011779
31	0xbea720d8	-0.32642245

model/conv2d_3/Conv2D f4 [32, 1, 1, 4]
0	0xbd5e50bc	-0.054276213
1	0x3e0038a2	0.12521604
2	0xbe0a3359	-0.1349615
3	0xbb5acf05	-0.0033387553
4	0xbe11e895	-0.14248879
5	0x3e4ec113	0.2019084
6	0xbf38b5ef	-0.7215261
7	0xbf0d0c1e	-0.55096614
8	0x3ccac7f6	0.024753552
9	0xbc361dfb	-0.011115546
10	0x3dea098b	0.114276014
11	0x3db86e21	0.090053804
12	0x3e812277	0.25221607
13	0x3eb136e7	0.346122
14	0xbd8f387f	-0.06993198
15	0x3e56b76f	0.20968412
16	0x3d101ac0	0.03518176
17	0xbdd462e1	-0.10370422
18	0x3cc93ba9	0.024564581
19	0x3e52f0bf	0.2059965
20	0x3d920a2f	0.071308486
21	0x3e74553d	0.23860641
22	0xbe823637	-0.25431988
23	0x3ac0854a	0.0014688161
24	0xbd8f707b	-0.07003876
25	0xbc3460c6	-0.011009401
26	0xbe1286b9	-0.14309205
27	0x3e5c07c8	0.21487343
28	0xbdf58b22	-0.11989428
29	0xbf545018	-0.82934713
30	0xbdbd86f1	-0.09254254
31	0xbe33115e	-0.17487094
32	0xbd7c5263	-0.061602008
33	0xbeca3b4b	-0.39498362
34	0x3db7af5f	0.08968996
35	0xbe848b44	-0.258875
36	0xbdcad769	-0.099043675
37	0x3b8c4602	0.0042808065
38	0xbd85e982	-0.06538679
39	0x3da4c9fb	0.08046337
40	0x3dbc4ee1	0.091947325
41	0xbdd8952f	-0.105753295
42	0x3dcec470	0.10096061
43	0x3da0ef2a	0.07858117
44	0xbe05aff7	-0.13055407
45	0xbe3fd7b5	-0.1873463
46	0xbe5e7a06	-0.21726236
47	0x3ef85426	0.485017
48	0xbecaa966	-0.39582366
49	0xbe5b7761	-0.21432258
50	0xbcb9bc97	-0.022672934
51	0xbedb9f06	-0.42894763
52	0xbe490d53	-0.19633989
53	0x3e99f3fa	0.30068952
54	0x3f4f3c6c	0.8095157
55	0x3e9aef05	0.30260482
56	0x3caea328	0.021318033
57	0xbdecb282	-0.11557485
58	0xbe3f78e1	-0.18698455
59	0xbe077b0b	-0.13230531
60	0xbe4c245d	-0.19935746
61	0x3d3aa460	0.045566916
62	0xbdbfaa7e	-0.09358691
63	0x3d067dc4	0.032834783
64	0xbeda6c69	-0.42660835
65	0x3f52e953	0.82387275
66	0x3e48f31f	0.19623993
67	0xbd3737a1	-0.044730786
68	0xbe1e0887	-0.1543294
69	0x3ea2a7ac	0.31768548
70	0xbe1b7bf1	-0.15183999
71	0xbe8dda65	-0.27705684
72	0x3ed72113	0.4201742
73	0xbe3507d3	-0.17678766
74	0x3e819981	0.25312427
75	0xbd22801f	-0.039672967
76	0x3cc8ef21	0.024528088
77	0xbe8ceda5	-0.27525058
78	0x3e8c0ee8	0.27355123
79	0x3bec8771	0.0072182943
80	0xbe749a72	-0.23887041
81	0xbed1609a	-0.40894014
82	0x3ec88891	0.39166692
83	0x3eb0b0b3	0.3450981
84	0xbc5962a3	-0.013268146
85	0x3de50c41	0.11183978
86	0x3dc6b49d	0.09702418
87	0x3d9e2a2d	0.07722888
88	0xbe230f7c	-0.15923876
89	0xbdfb56c5	-0.12272409
90	0xbc495780	-0.012288928
91	0x3e216e02	0.15764621
92	0xbd8e4e19	-0.0694849
93	0xbf2fa700	-0.68614197
94	0xbf0dd133	-0.5539734
95	0xbf15f9fb	-0.58584565
96	0x3e364fd1	0.17803885
97	0x3ecbb0c3	0.39783296
98	0xbda962cc	-0.08270797
99	0x3dbd19b1	0.09233416
100	0x3e0d435b	0.13795225
101	0x3f0aa16b	0.54152554
102	0x3d40236e	0.04690879
103	0xbf129dba	-0.5727192
104	0x3e810b8c	0.25204122
105	0xbdaf5a40	-0.08562136
106	0x3ea8fdc2	0.33006102
107	0xbe87ff64	-0.26562035
108	0xbc1d288a	-0.009592185
109	0xbd2580f8	-0.040406197
110	0xbd1c231f	-0.03811943
111	0xbd0a5817	-0.033775415
112	0x3e3326af	0.17495225
113	0xbdebadb1	-0.115077384
114	0x3ef3068a	0.47465926
115	0xbec70d23	-0.3887721
116	0x3ea4b39f	0.3216829
117	0xbe65eed2	-0.22454384
118	0x3eab8698	0.33501124
119	0xbdd3d854	-0.10343996
120	0xbc4e8635	-0.01260524
121	0xbdb96a12	-0.090534344
122	0x3c981bfb	0.01856803
123	0xbc2bea98	-0.010492943
124	0x3da3be91	0.07995332
125	0x3e2b8ec8	0.16753685
126	0x3d91a7a9	0.07112057
127	0xbea8b96c	-0.32953966

model/conv2d_4/Conv2D f4 [8, 1, 1, 32]
0	0xbde70da5	-0.11281899
1	0xbf372019	-0.7153335
2	0xbef88a47	-0.48542997
3	0xbe1be4ef	-0.1522405
4	0x3d9c9378	0.07645315
5	0xbe4b162c	-0.19832677
6	0xbf15df14	-0.58543515
7	0xbec7cfed	-0.39025822
8	0x3e0b8b7c	0.13627428
9	0x3e87eb76	0.2654683
10	0x3e0fecc3	0.14055161
11	0xbf18c54d	-0.5967606
12	0x3f010884	0.5040362
13	0xbf234395	-0.63774997
14	0xbf721a6d	-0.9457157
15	0x3dcd4aa6	0.10024004
16	0xbf3641e9	-0.7119432
17	0xbeecea73	-0.4627262
18	0xbe967fa2	-0.2939425
19	0x3f0530ad	0.520274
20	0xbe230dfc	-0.15923303
21	0xbf8b9a7e	-1.0906522
22	0x3e124ed9	0.1428789
23	0x3f52650f	0.82185453
24	0x3d2c363d	0.042043913
25	0xbf0a7fe5	-0.541014
26	0xbe9053de	-0.28188986
27	0xbf853a36	-1.040839
28	0x3e6a791e	0.22897765
29	0xbef5e9ab	-0.48029837
30	0x3da70fa9	0.08157284
31	0xbf1810e4	-0.59400773
32	0x3d472a3b	0.04862426
33	0x3f57ea25	0.8434165
34	0xbd3cde7b	-0.04611061
35	0xbe335ff4	-0.17517072
36	0xbd47b1aa	-0.048753418
37	0xbefdee3a	-0.49595815
38	0x3dabd636	0.08390467
39	0xbd1e1875	-0.038597543
40	0xbec02c84	-0.37533963
41	0xbdfc9a17	-0.12334078
42	0xbdf3f19f	-0.1191132
43	0x3dad3e28	0.08459121
44	0xbee61ea4	-0.44945252
45	0xbf0d46a2	-0.551859
46	0xbbcfc53f	-0.0063406522
47	0xbd2866f4	-0.04111381
48	0x3f6b9117	0.92018265
49	0x3e300334	0.17188722
50	0x3d4f29eb	0.050577085
51	0xbe942cfc	-0.2894057
52	0xbe8041bf	-0.2505016
53	0xbd757446	-0.05992534
54	0xbdabde29	-0.08391983
55	0x3e32fb1e	0.17478606
56	0xbea9d89c	-0.33173072
57	0x3ecefece	0.40428776
58	0x3d68a016	0.056793295
59	0xbd11c1ec	-0.03558533
60	0x3e1f46f6	0.15554413
61	0x3d1f21b7	0.038850512
62	0xbe85d04c	-0.2613548
63	0x3e3b819a	0.18311158
64	0x3ed6c6c2	0.41948515
65	0xbe3e2461	-0.18568565
66	0xbee29348	-0.44252992
67	0xbca6d11c	-0.020363383
68	0xbe84607c	-0.25854862
69	0x3cd9ed4e	0.026602414
70	0x3e8d0962	0.2754622
71	0x3dcb4840	0.0992589
72	0x3e2a95be	0.16658685
73	0xbe8942c2	-0.26808745
74	0xbefecfef	-0.49768016
75	0x3e5aadd1	0.21355368
76	0xbea70a5e	-0.32625097
77	0xbf2717fa	-0.6527096
78	0xbea13112	-0.3148275
79	0xbd990d59	-0.07473249
80	0xbe39ffe3	-0.1816402
81	0x3ec6a811	0.388001
82	0x3ed320c8	0.41235948
83	0x3e65d951	0.22446181
84	0x3ec6bdb4	0.38816607
85	0xbed90c45	-0.42392173
86	0xbe1a979d	-0.15096898
87	0xbfa279f7	-1.2693471
88	0xbd75918c	-0.059953257
89	0xbd6f4ed8	-0.0584248
90	0x3eb37592	0.35050637
91	0xbe91d7c1	-0.2848492
92	0x3de4cbd9	0.11171693
93	0x3eac3230	0.3363204
94	0xbe876a7c	-0.2644843
95	0x3ec37870	0.38177824
96	0xbecf00fd	-0.40430441
97	0xbf32b846	-0.6981243
98	0xbe6b898a	-0.23001686
99	0xbdcd3aa6	-0.10020952
100	0xbe1d4d6a	-0.15361562
101	0xbe73ded1	-0.23815466
102	0x3e9b89db	0.30378613
103	0xbf517c20	-0.81830025
104	0x3e930462	0.2871428
105	0xbde12e4f	-0.10995161
106	0xbe38e659	-0.1805662
107	0xbd3333f6	-0.043750726
108	0x3eec4d0a	0.46152526
109	0xbdde2440	-0.10846758
110	0xbd922cac	-0.07137427
111	0xbd8ae4cc	-0.06781921
112	0xbeb519d1	-0.3537126
113	0x3df5020d	0.11963282
114	0x3dd6453e	0.10462426
115	0xbeddcab2	-0.43318707
116	0x3ed20707	0.41020986
117	0x3d380e0c	0.04493527
118	0xbb69d784	-0.0035681436
119	0x3e334a47	0.17508803
120	0x3cf07c07	0.029356016
121	0x3ea77ccf	0.3271241
122	0x3e0565b1	0.13027073
123	0x3d979167	0.0740078
124	0x3f503fb6	0.81347215
125	0xbdd08008	-0.1018067
126	0x3d0e5fa5	0.034759182
127	0x3eb1adcb	0.34702906
128	0xbf263780	-0.64928436
129	0xbdfa197b	-0.12211891
130	0xbde442c3	-0.11145546
131	0xbec555bc	-0.38541973
132	0xbf11c31b	-0.5693833
133	0xbe7c2329	-0.24622788
134	0xbf1d4479	-0.61432606
135	0x3dc9dce4	0.09856585
136	0xbda23d41	-0.079218395
137	0xbf03f4e0	-0.51545525
138	0xbebf0bba	-0.37313634
139	0xbf007a71	-0.5018683
140	0xbca268f9	-0.019825445
141	0x3ec727a1	0.38897422
142	0x3ec885c6	0.3916456
143	0xbf3a34e4	-0.72736955
144	0xbeb47b32	-0.3525024
145	0xbf1574c9	-0.58381325
146	0xbf2cab8e	-0.6744927
147	0xbe68a09f	-0.22717522
148	0xbeb43dbe	-0.35203356
149	0x3f056b11	0.52116495
150	0xbf27c2cb	-0.65531605
151	0x3ec2e3ca	0.38064414
152	0xbee1c3aa	-0.44094592
153	0x3e54fc49	0.20799364
154	0xbe8b1eb2	-0.27171856
155	0x3eedf64f	0.4647698
156	0xbde76153	-0.1129786
157	0xbf299a1a	-0.66250765
158	0xbe900cf2	-0.28134876
159	0xbf14da0e	-0.58145225
160	0xbdc72219	-0.097233005
161	0xbf99aeb7	-1.2006444
162	0xbd8a04ac	-0.06739172
163	0x3f0561cc	0.5210235
164	0x3e8f8a96	0.2803542
165	0xbe9fdbb8	-0.3122232
166	0xbd857a5c	-0.06517479
167	0xbe2bdc97	-0.16783367
168	0x3ea1f4e4	0.3163215
169	0x3e639f86	0.22228822
170	0x3e8a14ae	0.26968902
171	0x3d9ec626	0.077526376
172	0xbf3a3aae	-0.7274579
173	0xbf12e5ee	-0.57382095
174	0xbe1dffb2	-0.15429571
175	0x3e600942	0.21878532
176	0xbef13ea4	-0.47118104
177	0x3dba5470	0.090981364
178	0xbe427cd3	-0.18992929
179	0xbf31f923	-0.6952078
180	0xbefafda6	-0.49021643
181	0xbe132d98	-0.14372861
182	0x3e959f49	0.29223087
183	0xbd80b5bd	-0.06284664
184	0x3f1af968	0.60536814
185	0x3f2aba62	0.6669065
186	0xbe900c60	-0.2813444
187	0xbce6633e	-0.028123494
188	0xbe687e29	-0.22704376
189	0xbbe7b3a5	-0.007070976
190	0x3ee67a2b	0.45015082
191	0xbdc7cd4b	-0.097559534
192	0x3e290902	0.16507342
193	0xbf471b18	-0.77775717
194	0xbd88dac2	-0.0668235
195	0x3ef636af	0.48088595
196	0xbdc9ffc9	-0.0986324
197	0xbeaf080a	-0.3418582
198	0x3ebfb66d	0.37443867
199	0xbf71b358	-0.9441428
200	0x3f48b2d0	0.78397846
201	0x3c93df8a	0.018050928
202	0xbd856b88	-0.065146506
203	0x3e149041	0.14508153
204	0x3e84ed46	0.25962275
205	0xbf886a37	-1.0657414
206	0x3f0db3b0	0.55352306
207	0xbb641498	-0.0034802314
208	0xbfc3bbc2	-1.5291674
209	0xbb5312f5	-0.0032207344
210	0x3e7c2f5a	0.24627438
211	0x3d8f0eed	0.06985269
212	0xbf14d177	-0.5813212
213	0x3f45f444	0.77325845
214	0xbd1f119a	-0.038835146
215	0x3e39683e	0.18106171
216	0x3ee8a5c1	0.4543896
217	0xbe710916	-0.23538622
218	0x3d97ccae	0.074120864
219	0x3f185e9e	0.59519374
220	0xbe3ef595	-0.1864837
221	0x3e09183c	0.13388151
222	0x3f00de35	0.5033906
223	0x3e7f8cc3	0.2495604
224	0x3dc6aaff	0.09700584
225	0x3dd9053e	0.10596703
226	0x3ea57861	0.32318404
227	0x3e1ec2ae	0.15503952
228	0x3ed54625	0.4165508
229	0xbf8711b5	-1.0552279
230	0x3dd09ab6	0.10185759
231	0x3f42ebb3	0.761409
232	0xbee658ec	-0.44989717
233	0x3e78d46a	0.2429978
234	0x3ec15659	0.3776119
235	0x3dbaa5cc	0.091136545
236	0x3eb5b94c	0.35492933
237	0x3f24b1a4	0.6433356
238	0x3e04222c	0.1290366
239	0x3e9d8abc	0.30769908
240	0x3e321c23	0.17393546
241	0x3ea92ab9	0.33040407
242	0xbdfd4559	-0.12366743
243	0xbf269355	-0.6506856
244	0xbf084bd2	-0.5324069
245	0x3e5d805c	0.21630996
246	0x3e9de788	0.30840707
247	0xbeab5a74	-0.33467448
248	0x3d91de7a	0.07122512
249	0x3eb39a62	0.35078722
250	0xbdf95384	-0.121741325
251	0x3eac0f53	0.3360544
252	0x3b8135a0	0.00394316
253	0x3c8d1490	0.017221719
254	0x3e2b2d9d	0.16716619
255	0x3e928438	0.286165

model/conv2d_5/Conv2D f4 [48, 1, 1, 8]
0	0xb9db0aaf	-0.00041778895
1	0xbd373988	-0.0447326
2	0x3de731b0	0.11288774
3	0xbbafc4f7	-0.005364056
4	0xbcf5d598	-0.030009076
5	0x3c9e2187	0.019303096
6	0x3e320b02	0.17387012
7	0xbc84eecd	-0.01622715
8	0x3c78eeb9	0.015193635
9	0xbdf2feef	-0.11865031
10	0x3d9f25c5	0.07770876
11	0xbed82b35	-0.42220464
12	0x3d7a8235	0.06115933
13	0x3d9bdb49	0.07610185
14	0xbdaa74b6	-0.08323042
15	0xbe863291	-0.26210454
16	0xbd7bf937	-0.061516967
17	0xbb5c6186	-0.0033627464
18	0x3c7860a7	0.015159762
19	0x3d6db1f5	0.05803104
20	0xbe82705f	-0.25476357
21	0xbd9fc7c0	-0.07801771
22	0x3d21789a	0.039421655
23	0xbce04d26	-0.027380537
24	0xbbe64a7f	-0.0070279236
25	0x3c0820ce	0.0083086025
26	0x3e898e3a	0.26866323
27	0x3e2704bb	0.16310398
28	0xbe8e7be0	-0.27828884
29	0x3e71528c	0.23566645
30	0x3e9ae048	0.30249238
31	0x3d853835	0.06504861
32	0x3d02a134	0.031892017
33	0x3ccd749b	0.025080016
34	0xbd7593d5	-0.059955437
35	0x3c684c69	0.014178374
36	0x3e030f01	0.12798692
37	0x3d3a18b0	0.0454337
38	0xbcb253ba	-0.02176844
39	0xbbb0a2df	-0.0053905095
40	0xbc2d3972	-0.010572778
41	0x3c977321	0.018487515
42	0x3de36411	0.111030705
43	0x3a2b72e5	0.0006540253
44	0xbe600866	-0.21878204
45	0xbd1b1ec2	-0.03787113
46	0xbb2d6b45	-0.0026461643
47	0xbd558749	-0.05213097
48	0x3cbea3e8	0.023271516
49	0x3e92be2d	0.28660718
50	0xbd4068a4	-0.046974793
51	0x3e44f5cd	0.1923439
52	0x3e13bac3	0.14426713
53	0x3d71975a	0.05898223
54	0xbd5ce5c2	-0.05393005
55	0x3e0b0c8f	0.1357901
56	0xbc37a3a4	-0.011208449
57	0x3e5277ea	0.20553556
58	0xbd168c02	-0.036754616
59	0xbcd0c18f	-0.02548292
60	0xbe2a0fad	-0.16607542
61	0x3d0a78ad	0.03380649
62	0x3c957828	0.018245772
63	0xbe2ce30a	-0.16883484
64	0x3e054a2b	0.13016574
65	0x3e7e7ea7	0.24853002
66	0x3d804b82	0.06264402
67	0xbe072dd2	-0.13201073
68	0x3d658777	0.056037392
69	0x3c2b921e	0.010471849
70	0x3e34a55d	0.17641206
71	0x3ea83c5c	0.3285855
72	0x3db70305	0.08936123
73	0x3b3e5d7d	0.0029047423
74	0xbe77c9b3	-0.24198036
75	0x3e187954	0.14890033
76	0xbdbe1345	-0.09281019
77	0xbe28491b	-0.16434138
78	0x3dbfda9a	0.09367867
79	0x3dc02510	0.09382069
80	0xbdb50fbe	-0.08840893
81	0x3dbf07cc	0.09327659
82	0x3dc3079a	0.09522934
83	0xbd24d36c	-0.04024069
84	0x3dfd537d	0.1236944
85	0xbdf51d7d	-0.11968515
86	0xbe0491bc	-0.12946218
87	0x3bdb79d9	0.006697875
88	0x3d81230f	0.06305515
89	0x3e62679b	0.22109835
90	0x3dbbafca	0.091643885
91	0xbd916237	-0.07098811
92	0xbdbd75f1	-0.09251011
93	0x3da4f4c9	0.080545016
94	0x3d8fbe98	0.07018775
95	0xbdc87ea9	-0.097897835
96	0xbdda1e76	-0.10650341
97	0x3c869b25	0.0164314
98	0x3e9afcce	0.30271
99	0xbd563f47	-0.05230644
100	0xbda35b64	-0.07976416
101	0xbd03a698	-0.032141298
102	0xba1312ea	-0.00056104234
103	0xbde56d0d	-0.112024404
104	0xbd912374	-0.0708684
105	0xbcb2f2aa	-0.021844227
106	0xbe2f9a27	-0.17148648
107	0x3d161be0	0.036647677
108	0xbe00237b	-0.12513535
109	0xbe361c24	-0.17784172
110	0xbcad202f	-0.02113351
111	0x3dc2fd13	0.09520926
112	0x3dcbeddf	0.0995748
113	0x3c65b828	0.014020957
114	0x3e8272cc	0.25478208
115	0xbcb202c3	-0.021729833
116	0xbdaaf782	-0.083479896
117	0x3b98c403	0.0046620383
118	0xbdbde8a5	-0.09272889
119	0xbdba4289	-0.09094722
120	0x3e0a0be1	0.13481094
121	0xbe3266c7	-0.17422019
122	0x3cb7315e	0.022362407
123	0x3d4e5821	0.050377015
124	0xbd8f1c66	-0.069878384
125	0x3de937a4	0.11387566
126	0x3e5a0edd	0.21294732
127	0xbd2d4942	-0.042306192
128	0x3ae4e99f	0.0017464644
129	0x3d8504d8	0.064950645
130	0xbd0b27f2	-0.03397364
131	0xbd90a50b	-0.070627294
132	0xbccd06a9	-0.02502759
133	0x3c716e0f	0.014735713
134	0xbe453118	-0.19257009
135	0x3d321c4c	0.043484017
136	0xbbc38f90	-0.0059680417
137	0xbe16cac6	-0.1472579
138	0x3e2fc0c0	0.17163372
139	0x3dbed3ff	0.09317779
140	0x3d3eaef7	0.04655358
141	0x3e203348	0.15644562
142	0xbdc3e400	-0.09564972
143	0xbdb0effe	-0.08639525
144	0x3cd7667e	0.02629399
145	0xbc85ca27	-0.016331745
146	0xbe475118	-0.19464529
147	0x3d925116	0.07144372
148	0xbe3de067	-0.18542634
149	0xbe55470c	-0.20827883
150	0xbe07aa8c	-0.13248652
151	0x3d41f6e0	0.04735458
152	0x3eabecec	0.33579195
153	0xbe22e20d	-0.15906544
154	0x3e0d84ec	0.13820237
155	0x3d8921cf	0.066959016
156	0x3db11596	0.08646695
157	0x3e5dfeef	0.2167928
158	0x3e2d6fe9	0.16937222
159	0xbd6bdf55	-0.057586033
160	0xbd766cbd	-0.060162295
161	0x3d0ab210	0.03386122
162	0x3efd76b1	0.49504617
163	0x3dd8a6df	0.10578703
164	0x3e498891	0.19681002
165	0xbe8c7b61	-0.2743788
166	0x3e134099	0.14380111
167	0xbdbbcaef	-0.09169566
168	0xbe12045f	-0.1425948
169	0xbd10a293	-0.035311293
170	0xbe1ddca8	-0.15416205
171	0x3e6399ea	0.22226682
172	0xbcb161dd	-0.02165311
173	0x3daf2cda	0.08553477
174	0xbd89f96c	-0.067370266
175	0xbd7de203	-0.06198312
176	0x3c60e018	0.013725303
177	0xbd929e29	-0.07159073
178	0xbe00dd1f	-0.12584351
179	0x3e040576	0.12892708
180	0xbe1e22ed	-0.1544301
181	0xbde990c1	-0.11404563
182	0x3de35758	0.11100644
183	0x3bba54e1	0.005686388
184	0x3e3faec3	0.1871901
185	0x3e9938f2	0.29926258
186	0x3e19d3be	0.1502218
187	0x3d8e74c4	0.06955865
188	0x3e03e319	0.128796
189	0xbdf2e489	-0.11859996
190	0x3e1a63b9	0.15077104
191	0x3e8bba59	0.2729061
192	0xbd3f07fc	-0.046638474
193	0x3cc1543a	0.023599733
194	0xbd979880	-0.07402134
195	0xbd9c9c70	-0.076470256
196	0x3e0c9bfe	0.13731381
197	0x3e38b11f	0.18036316
198	0xbd46303e	-0.04838585
199	0x3c3ac12f	0.011398598
200	0xba8a39a0	-0.0010545738
201	0x3daa58d0	0.08317721
202	0x3d39304f	0.045212086
203	0x3d8f4d3d	0.06997154
204	0xbe052ff1	-0.1300657
205	0xbe055f0f	-0.13024543
206	0xbdc1664c	-0.0944334
207	0x3d5ea4b3	0.05435629
208	0x3e15c543	0.1462603
209	0x3d22e99d	0.039773572
210	0xbd8731b1	-0.06601275
211	0x3e402047	0.18762313
212	0xbd46f7af	-0.048576053
213	0xbe96acc6	-0.2942869
214	0x3d6f79f4	0.058465913
215	0xbd6c3d53	-0.05767567
216	0xbcf99304	-0.03046561
217	0x3cd89561	0.026438417
218	0xbd0c9f11	-0.034331385
219	0x3d851c46	0.06499533
220	0xbbe3d0d9	-0.006952387
221	0x3d4334d9	0.04765782
222	0xbcae3e68	-0.021269992
223	0xbd41e2bd	-0.047335375
224	0xbc4a873c	-0.012361344
225	0x3da13e16	0.0787317
226	0xbdde1111	-0.10843099
227	0x3e9459e1	0.28974822
228	0x3d563ba3	0.052302968
229	0x3ddacd79	0.10683722
230	0xbe09d84b	-0.13461415
231	0xbd852db5	-0.065028585
232	0x3e2b51ca	0.16730419
233	0x3ca0d7ed	0.019634211
234	0x3e18d836	0.14926228
235	0x3ca2409d	0.0198062
236	0xbe689b88	-0.2271558
237	0xbc709b58	-0.014685474
238	0xbdc35d3a	-0.09539266
239	0xbcf45952	-0.029827747
240	0x3e2b02aa	0.16700235
241	0xbd8dc401	-0.069221504
242	0x3d8d4a01	0.06898881
243	0x3cd114d8	0.025522634
244	0x3c41665e	0.011804191
245	0x3dd8199a	0.10551758
246	0x3e095abd	0.1341352
247	0xbd944cf9	-0.07241244
248	0x3e10370a	0.14083496
249	0x3e1dfc70	0.15428329
250	0x3d20433c	0.03912662
251	0xbe2bc245	-0.16773327
252	0x3d00aabd	0.03141283
253	0xbc3aba59	-0.011396968
254	0x3e3a86a2	0.18215421
255	0x3cec4432	0.028841112

model/conv2d_6/Conv2D f4 [8, 1, 1, 48]
0	0xbe6ffadb	-0.23435538
1	0x3e5cfa84	0.21579939
2	0xbeeec63a	-0.4663561
3	0x3f66c59a	0.90145266
4	0xbedcf2a1	-0.4315386
5	0xbee0347b	-0.4379004
6	0xbe9ba04f	-0.30395743
7	0xbed8c3c6	-0.42336863
8	0xbf057772	-0.52135384
9	0xbebee1db	-0.3728169
10	0x3f082745	0.5318492
11	0x3eae2f8a	0.34020644
12	0xbf5d11e7	-0.8635544
13	0xbe3be4c8	-0.18348992
14	0xbf301f7f	-0.6879806
15	0x3d69e303	0.05710126
16	0x3e73c3d4	0.23805171
17	0xbe93737c	-0.28799045
18	0xbebc2337	-0.36745617
19	0xbee6d476	-0.4508397
20	0x3f406fa8	0.75170374
21	0xbe292119	-0.16516532
22	0xbe535820	-0.20639086
23	0x3e3e20ce	0.18567201
24	0xbf584897	-0.84485763
25	0xbbf7e138	-0.00756469
26	0xbf09a94b	-0.53773946
27	0x3e6b46a1	0.22976162
28	0xbe470510	-0.19435525
29	0x3f73b0ad	0.9519146
30	0xbeb82f41	-0.35973552
31	0xbeaef52a	-0.3417142
32	0xbebbe955	-0.36701456
33	0xbec396b8	-0.38200927
34	0xbf2f967a	-0.68588984
35	0x3e14bcc2	0.1452513
36	0xbe02de62	-0.12780145
37	0x3e6c30ba	0.23065463
38	0xbf5d14ee	-0.8636006
39	0x3dcad89f	0.099045984
40	0xbf178bc7	-0.5919766
41	0x3dad6e05	0.0846825
42	0xbeb6ce4f	-0.35704276
43	0xbe1ba266	-0.15198669
44	0xbf4fd224	-0.81180024
45	0x3e28f92a	0.16501299
46	0x3ed9f71d	0.42571345
47	0xbf126086	-0.57178533
48	0xbe1fa3eb	-0.15589873
49	0xbe2d812d	-0.16943808
50	0x3e9b00cb	0.30274042
51	0xbeb34ff3	-0.35021934
52	0xbd064950	-0.03278476
53	0x3e4fe98c	0.20303935
54	0xbd925dd4	-0.071468025
55	0xbea0648b	-0.31326708
56	0xbdd4fecf	-0.104001634
57	0xbe1a90e6	-0.15094337
58	0xbe38785a	-0.1801466
59	0x3f2a9dbd	0.6664694
60	0x3e7b5895	0.2454551
61	0xbe70c04e	-0.23510858
62	0x3e88ad51	0.2669473
63	0xbef0b067	-0.47009584
64	0xbe9fb9f5	-0.3119656
65	0x3e6b1e38	0.22960746
66	0xbe9a6fa8	-0.30163312
67	0x3ec2669b	0.37968907
68	0x3e3cc680	0.18435097
69	0x3dca36b7	0.09873717
70	0xbe1edbf8	-0.15513599
71	0xbe7d1aa2	-0.24717191
72	0xbd207bad	-0.039180446
73	0xbeb69c82	-0.3566628
74	0x3caf5aab	0.021405539
75	0xbde1885d	-0.11012337
76	0xbe534892	-0.20633152
77	0xbe58a625	-0.21157129
78	0x3e3456e9	0.17611279
79	0xbe49dcc9	-0.19713129
80	0xbd53f466	-0.05174675
81	0xbb233154	-0.0024901228
82	0xbf00b050	-0.5026903
83	0xbd9b8bb4	-0.07595006
84	0xbf2ee983	-0.6832506
85	0x3d66334d	0.056201268
86	0x3e990460	0.2988615
87	0xbf07ae53	-0.5300037
88	0xbebe485d	-0.37164584
89	0x3e235af5	0.15952666
90	0xbd8af80c	-0.067855924
91	0xbe8f1eab	-0.27953085
92	0x3cd0fe3b	0.025511852
93	0x3e8b789d	0.27240458
94	0x3f99c22f	1.2012385
95	0x3e05fff0	0.13085914
96	0xbd55cc5f	-0.052196857
97	0xbe8408ef	-0.25788066
98	0x3e0d7ad8	0.13816392
99	0xbeb61ba6	-0.3556797
100	0xbed7fdf2	-0.42185932
101	0x3ee4d3ba	0.44692785
102	0xbe7bc43a	-0.24586573
103	0xbe98ad4c	-0.29819715
104	0xbd5a169c	-0.05324422
105	0x3e1963ba	0.14979449
106	0x3eb3f3ac	0.35146844
107	0xbd8eef9e	-0.06979297
108	0x3df135e0	0.11777854
109	0xbdef7c96	-0.11693685
110	0x3ee17e69	0.44041756
111	0xbe03b1b3	-0.12860756
112	0xbd065bb7	-0.03280231
113	0xbeaa9c62	-0.33322436
114	0xbe7f1e31	-0.24913861
115	0x3ce60936	0.028080564
116	0xbe69b54a	-0.22823063
117	0xbcbd6725	-0.023120472
118	0x3ca9e0f9	0.020737158
119	0xbe2c09cc	-0.16800612
120	0x3eb1411f	0.34619996
121	0xbe166ad0	-0.14689183
122	0x3ed7e086	0.42163485
123	0xbea5e9cd	-0.32404938
124	0xbcf68912	-0.030094657
125	0xbe8831e1	-0.26600555
126	0xbe4b414e	-0.1984913
127	0xbdbf506c	-0.09341511
128	0x3e349833	0.17636184
129	0xbdc87194	-0.09787288
130	0x3d894d43	0.0670419
131	0x3f27b6a2	0.6551305
132	0x3ea25c7b	0.31711182
133	0x3e9936c4	0.29924595
134	0xbe6c6833	-0.23086624
135	0xbc505516	-0.012715599
136	0xbed8437b	-0.42238984
137	0x3ebb6d8c	0.36607015
138	0x3d8764c5	0.06611017
139	0x3d7c1bbc	0.061549887
140	0x3ce4811b	0.027893594
141	0x3e11f35f	0.14252995
142	0x3e9c444a	0.3052085
143	0x3e2dec1c	0.169846
144	0xbf123363	-0.5710966
145	0xbed1a078	-0.4094274
146	0xbdeca9bc	-0.11555812
147	0xbeb01471	-0.34390596
148	0x3e5dde84	0.21666914
149	0x3da183ec	0.0788649
150	0x3c65c92e	0.014025016
151	0x3d8f9145	0.0701013
152	0xbee26f54	-0.44225562
153	0xbe424555	-0.1897176
154	0xbd6338c4	-0.055474058
155	0x3e831689	0.2560313
156	0x3d239f50	0.039946854
157	0xbe640a04	-0.22269446
158	0xbdb9774d	-0.09055958
159	0xbf4a3ddc	-0.7900064
160	0xbeb22c79	-0.34799555
161	0xbe9ccb15	-0.3062369
162	0xbefaf818	-0.49017406
163	0x3f0d86b9	0.55283695
164	0xbe16899f	-0.14700936
165	0x3f93f6b4	1.1559663
166	0x3dd07059	0.101776786
167	0xbecde6c5	-0.40215126
168	0xbeac9805	-0.33709732
169	0xbf46918a	-0.77565825
170	0xbd2b803a	-0.041870333
171	0xbf2eb946	-0.68251455
172	0xbe5de57d	-0.21669574
173	0xbee397e8	-0.44451833
174	0xbf19d292	-0.6008693
175	0xbf33247b	-0.6997754
176	0xbf302fed	-0.6882313
177	0x3f1f2760	0.62169456
178	0xbd29ecd0	-0.041485608
179	0xbda1a372	-0.07892503
180	0x3f15f6dc	0.585798
181	0xbf1d47c3	-0.61437625
182	0x3d1f049d	0.03882276
183	0xbedd07f3	-0.43170127
184	0x3d826c7f	0.0636835
185	0xbf18cc52	-0.5968677
186	0xbef63147	-0.4808447
187	0xbed40f5f	-0.41417977
188	0x3db5b40d	0.088722326
189	0x3f0595c4	0.5218165
190	0xbef6cc26	-0.48202628
191	0xbe86c4f7	-0.26322147
192	0x3c3f8305	0.011688952
193	0xbea061cf	-0.31324622
194	0x3e565145	0.2092944
195	0xbe8fcaff	-0.2808456
196	0x3de3e203	0.11127093
197	0x3f175811	0.59118754
198	0xbe712af6	-0.23551545
199	0x3e48489b	0.19558947
200	0xbe488b7a	-0.19584456
201	0xbe9db5fa	-0.308029
202	0x3e4663bd	0.19373985
203	0x3ccc8749	0.024966853
204	0x3e1bf352	0.15229538
205	0xbd8a6082	-0.06756689
206	0x3ed131b9	0.40858248
207	0x3c4380ba	0.011932546
208	0x3e295420	0.16535997
209	0xbe589568	-0.21150744
210	0xbc9ed432	-0.019388292
211	0x3e1dff42	0.15429404
212	0x3d8ca782	0.06867887
213	0xbdfcd9a0	-0.12346196
214	0x3c8db674	0.017298914
215	0xbe952c27	-0.29135248
216	0xbea0e89b	-0.31427464
217	0xbe9b242d	-0.30301037
218	0xbd45454b	-0.048161786
219	0xbe683661	-0.22676994
220	0xbe218560	-0.15773535
221	0x3bc064a2	0.0058713714
222	0x3d91481a	0.070938304
223	0xbdcfe347	-0.101507716
224	0x3e9935b9	0.299238
225	0x3ee301d9	0.44337347
226	0x3ec6567c	0.38737857
227	0x3dddda17	0.10832613
228	0x3e148a61	0.14505912
229	0xbe758617	-0.23976932
230	0x3e7e994d	0.24863167
231	0x3cb3f852	0.021968994
232	0xbe0da197	-0.13831173
233	0xbc9ff58f	-0.019526271
234	0xbea1e7bd	-0.31622115
235	0xbe87858e	-0.26469082
236	0xbec59a9d	-0.38594523
237	0x3d40d158	0.047074646
238	0x3e94d081	0.29065326
239	0xbecd35b5	-0.40080038
240	0x3e57d427	0.21077023
241	0x3e183a7b	0.14866059
242	0x3f510bac	0.81658435
243	0xbea1a3dd	-0.3157033
244	0x3bd0d280	0.00637275
245	0x3f037370	0.5134802
246	0xbec481f3	-0.38380393
247	0x3e7ce713	0.24697523
248	0xbdf773bc	-0.120826215
249	0xbe783021	-0.2423711
250	0x3f646736	0.8921999
251	0x3c807a1c	0.015683226
252	0x3daccb14	0.084371716
253	0x3f4c28be	0.7974967
254	0xbdb2a768	-0.087233365
255	0x3f15d2fe	0.58525074
