weights/yolo-xl.tflite (tflite, 223888 bytes, 34 tensors)

model/conv2d/Conv2D i1 [8, 3, 3, 1]
0	0x41	65
1	0xf1	-15
2	0xe3	-29
3	0x7f	127
4	0xfe	-2
5	0xc6	-58
6	0x37	55
7	0xf4	-12
8	0xf1	-15
9	0x04	4
10	0xd1	-47
11	0x1c	28
12	0x03	3
13	0x81	-127
14	0x37	55
15	0x00	0
16	0xbf	-65
17	0x30	48
18	0xda	-38
19	0x43	67
20	0xe7	-25
21	0xb0	-80
22	0x7f	127
23	0xd9	-39
24	0xd1	-47
25	0x3f	63
26	0xe9	-23
27	0x26	38
28	0xf9	-7
29	0xcc	-52
30	0x5a	90
31	0xf3	-13
32	0x81	-127
33	0x26	38
34	0x06	6
35	0xc2	-62
36	0xf3	-13
37	0xfd	-3
38	0x2f	47
39	0xc6	-58
40	0xfc	-4
41	0x7f	127
42	0xdf	-33
43	0xf1	-15
44	0x47	71
45	0x2b	43
46	0x64	100
47	0x49	73
48	0x14	20
49	0x1e	30
50	0x1e	30
51	0xb8	-72
52	0x81	-127
53	0x9a	-102
54	0xcd	-51
55	0xf5	-11
56	0x27	39
57	0x81	-127
58	0xef	-17
59	0x57	87
60	0xbc	-68
61	0xfe	-2
62	0x30	48
63	0xc3	-61
64	0x81	-127
65	0x9a	-102
66	0x1c	28
67	0x39	57
68	0x27	39
69	0x15	21
70	0x4e	78
71	0x38	56

model/conv2d_1/Conv2D i1 [8, 1, 1, 8]
0	0xfb	-5
1	0x17	23
2	0xfa	-6
3	0x16	22
4	0xfd	-3
5	0x81	-127
6	0x10	16
7	0x14	20
8	0x0c	12
9	0xac	-84
10	0x7f	127
11	0x34	52
12	0xda	-38
13	0xf7	-9
14	0xed	-19
15	0xf6	-10
16	0x0a	10
17	0x51	81
18	0x81	-127
19	0x07	7
20	0xf2	-14
21	0x04	4
22	0xdb	-37
23	0x01	1
24	0x9a	-102
25	0x32	50
26	0xfa	-6
27	0x88	-120
28	0x7a	122
29	0xfc	-4
30	0x7f	127
31	0xfe	-2
32	0xd9	-39
33	0x2b	43
34	0xfe	-2
35	0x81	-127
36	0x31	49
37	0xff	-1
38	0x7c	124
39	0x08	8
40	0x57	87
41	0x7f	127
42	0x03	3
43	0x8a	-118
44	0x48	72
45	0xdf	-33
46	0x27	39
47	0xd5	-43
48	0x81	-127
49	0x5c	92
50	0x11	17
51	0x7c	124
52	0x8c	-116
53	0x08	8
54	0x40	64
55	0x20	32
56	0x01	1
57	0x14	20
58	0xfa	-6
59	0x11	17
60	0xfe	-2
61	0x0b	11
62	0x10	16
63	0x81	-127

model/conv2d_2/Conv2D i1 [4, 1, 1, 8]
0	0x87	-121
1	0x4f	79
2	0x7f	127
3	0x51	81
4	0x4b	75
5	0x41	65
6	0x62	98
7	0x68	104
8	0x81	-127
9	0xc7	-57
10	0xbe	-66
11	0x1d	29
12	0xcb	-53
13	0xf2	-14
14	0xd5	-43
15	0x69	105
16	0x48	72
17	0x81	-127
18	0x1c	28
19	0x70	112
20	0x8b	-117
21	0x46	70
22	0x70	112
23	0xcf	-49
24	0xc9	-55
25	0x09	9
26	0x04	4
27	0x81	-127
28	0xfd	-3
29	0x4b	75
30	0x03	3
31	0x2a	42

model/conv2d_3/Conv2D i1 [32, 1, 1, 4]
0	0x81	-127
1	0xb3	-77
2	0xe2	-30
3	0x2a	42
4	0x30	48
5	0xee	-18
6	0xab	-85
7	0x7f	127
8	0x75	117
9	0x7f	127
10	0x30	48
11	0xbb	-69
12	0x63	99
13	0x15	21
14	0x27	39
15	0x81	-127
16	0xc9	-55
17	0x44	68
18	0x81	-127
19	0x96	-106
20	0xc1	-63
21	0x81	-127
22	0xf4	-12
23	0xcf	-49
24	0xe0	-32
25	0x36	54
26	0xe0	-32
27	0x7f	127
28	0x53	83
29	0x13	19
30	0x41	65
31	0x81	-127
32	0x7f	127
33	0x96	-106
34	0xa5	-91
35	0xeb	-21
36	0x7f	127
37	0x7f	127
38	0x15	21
39	0xa1	-95
40	0xc6	-58
41	0x81	-127
42	0x2b	43
43	0xc8	-56
44	0x83	-125
45	0x7f	127
46	0x4f	79
47	0xf2	-14
48	0x81	-127
49	0x98	-104
50	0xef	-17
51	0x3b	59
52	0xac	-84
53	0x25	37
54	0x81	-127
55	0xc7	-57
56	0x46	70
57	0x7f	127
58	0xe9	-23
59	0x37	55
60	0x7f	127
61	0xbf	-65
62	0x7e	126
63	0x34	52
64	0x96	-106
65	0x32	50
66	0x81	-127
67	0x13	19
68	0x15	21
69	0x23	35
70	0xb6	-74
71	0x7f	127
72	0x03	3
73	0xe4	-28
74	0x5f	95
75	0x7f	127
76	0x1e	30
77	0xd7	-41
78	0x81	-127
79	0xd8	-40
80	0x19	25
81	0x98	-104
82	0x76	118
83	0x81	-127
84	0x31	49
85	0xe2	-30
86	0x7f	127
87	0x48	72
88	0x81	-127
89	0x83	-125
90	0x29	41
91	0xdc	-36
92	0x81	-127
93	0x72	114
94	0x45	69
95	0x2d	45
96	0x7f	127
97	0x62	98
98	0x1f	31
99	0xd9	-39
100	0x8b	-117
101	0x7a	122
102	0x7f	127
103	0xf5	-11
104	0x7f	127
105	0x81	-127
106	0xca	-54
107	0xfc	-4
108	0xf7	-9
109	0xaa	-86
110	0x48	72
111	0x81	-127
112	0xbb	-69
113	0xf4	-12
114	0xeb	-21
115	0x7f	127
116	0xc1	-63
117	0x81	-127
118	0x18	24
119	0xda	-38
120	0xe7	-25
121	0xda	-38
122	0xf8	-8
123	0x7f	127
124	0xa9	-87
125	0x81	-127
126	0x10	16
127	0xdb	-37

model/conv2d_4/Conv2D i1 [8, 1, 1, 32]
0	0x76	118
1	0x12	18
2	0x15	21
3	0x16	22
4	0xc5	-59
5	0xbd	-67
6	0xe6	-26
7	0x8e	-114
8	0xa3	-93
9	0x29	41
10	0x1e	30
11	0xaf	-81
12	0xdf	-33
13	0x67	103
14	0xb5	-75
15	0x20	32
16	0xc4	-60
17	0x0b	11
18	0x68	104
19	0xd9	-39
20	0x4b	75
21	0xbe	-66
22	0xbf	-65
23	0x13	19
24	0x3f	63
25	0xb0	-80
26	0xd0	-48
27	0x9a	-102
28	0xef	-17
29	0x94	-108
30	0xaa	-86
31	0x81	-127
32	0x0a	10
33	0xf2	-14
34	0x14	20
35	0x6f	111
36	0x0e	14
37	0x1a	26
38	0x0b	11
39	0x54	84
40	0x23	35
41	0x1b	27
42	0xb9	-71
43	0xfc	-4
44	0x4f	79
45	0xf9	-7
46	0x9d	-99
47	0xb9	-71
48	0xff	-1
49	0xa3	-93
50	0x00	0
51	0x08	8
52	0xc0	-64
53	0x08	8
54	0x1b	27
55	0x38	56
56	0x05	5
57	0xf0	-16
58	0x00	0
59	0x81	-127
60	0xe5	-27
61	0xb0	-80
62	0x28	40
63	0x9f	-97
64	0xd0	-48
65	0x11	17
66	0xfd	-3
67	0x05	5
68	0x24	36
69	0xa3	-93
70	0xd9	-39
71	0xf7	-9
72	0x10	16
73	0x08	8
74	0xe4	-28
75	0x12	18
76	0x29	41
77	0xca	-54
78	0x25	37
79	0xec	-20
80	0x20	32
81	0xe8	-24
82	0xcf	-49
83	0x22	34
84	0xc4	-60
85	0x20	32
86	0x81	-127
87	0xc8	-56
88	0xe6	-26
89	0x08	8
90	0x11	17
91	0xd4	-44
92	0x28	40
93	0xf7	-9
94	0x1d	29
95	0x45	69
96	0xcc	-52
97	0xc7	-57
98	0xc7	-57
99	0xc2	-62
100	0x20	32
101	0xea	-22
102	0xff	-1
103	0x0c	12
104	0x41	65
105	0xd4	-44
106	0xcb	-53
107	0x6a	106
108	0x81	-127
109	0xfc	-4
110	0xbe	-66
111	0x56	86
112	0x22	34
113	0x14	20
114	0xf5	-11
115	0x3f	63
116	0xf7	-9
117	0x20	32
118	0xe2	-30
119	0xfe	-2
120	0xb0	-80
121	0x5e	94
122	0x6a	106
123	0x55	85
124	0x2e	46
125	0xc7	-57
126	0x0b	11
127	0xaa	-86
128	0x01	1
129	0x03	3
130	0x11	17
131	0xec	-20
132	0x21	33
133	0x81	-127
134	0xc2	-62
135	0xf8	-8
136	0xd8	-40
137	0x18	24
138	0x05	5
139	0x1f	31
140	0x2e	46
141	0xf7	-9
142	0x23	35
143	0x16	22
144	0x22	34
145	0x0a	10
146	0xfb	-5
147	0xbf	-65
148	0xf7	-9
149	0x14	20
150	0x3f	63
151	0xf4	-12
152	0x0e	14
153	0x28	40
154	0x21	33
155	0xdc	-36
156	0x20	32
157	0x0d	13
158	0x06	6
159	0x2e	46
160	0x31	49
161	0x2c	44
162	0x45	69
163	0x4d	77
164	0x48	72
165	0x22	34
166	0x8c	-116
167	0x4b	75
168	0xff	-1
169	0x4f	79
170	0xdc	-36
171	0x36	54
172	0x55	85
173	0x1c	28
174	0xc2	-62
175	0x6f	111
176	0x3a	58
177	0xf1	-15
178	0x1e	30
179	0xbd	-67
180	0xe4	-28
181	0x30	48
182	0xf4	-12
183	0x81	-127
184	0x3e	62
185	0x19	25
186	0x0c	12
187	0xb6	-74
188	0x1a	26
189	0xd8	-40
190	0x4c	76
191	0xd2	-46
192	0xd5	-43
193	0x0f	15
194	0xb6	-74
195	0x4c	76
196	0x24	36
197	0xd9	-39
198	0x6e	110
199	0x5c	92
200	0xeb	-21
201	0xd7	-41
202	0xc7	-57
203	0xe5	-27
204	0x93	-109
205	0x09	9
206	0x9b	-101
207	0xba	-70
208	0x32	50
209	0xe7	-25
210	0x0a	10
211	0xe9	-23
212	0xf9	-7
213	0x08	8
214	0xdc	-36
215	0xb6	-74
216	0xaf	-81
217	0xd9	-39
218	0xe8	-24
219	0x5a	90
220	0xfa	-6
221	0xa4	-92
222	0x45	69
223	0x81	-127
224	0xe4	-28
225	0x7f	127
226	0x07	7
227	0x59	89
228	0xd0	-48
229	0x55	85
230	0xe6	-26
231	0x08	8
232	0x50	80
233	0xf8	-8
234	0xf0	-16
235	0xda	-38
236	0x29	41
237	0xe6	-26
238	0xfb	-5
239	0xfd	-3
240	0xc9	-55
241	0xc2	-62
242	0xdf	-33
243	0x7e	126
244	0xd8	-40
245	0xd3	-45
246	0x2d	45
247	0xa9	-87
248	0xf7	-9
249	0xd8	-40
250	0xcc	-52
251	0x18	24
252	0xef	-17
253	0x08	8
254	0xd8	-40
255	0x0f	15

model/conv2d_5/Conv2D i1 [48, 1, 1, 8]
0	0xf6	-10
1	0x07	7
2	0x09	9
3	0x81	-127
4	0x3a	58
5	0x04	4
6	0x6b	107
7	0xe6	-26
8	0xeb	-21
9	0x0c	12
10	0x10	16
11	0x9e	-98
12	0xe8	-24
13	0xd4	-44
14	0xf5	-11
15	0x81	-127
16	0xbd	-67
17	0x95	-107
18	0xd4	-44
19	0xa3	-93
20	0xf0	-16
21	0x7f	127
22	0x6e	110
23	0x85	-123
24	0x2a	42
25	0xd4	-44
26	0x0a	10
27	0x81	-127
28	0xfa	-6
29	0x35	53
30	0x44	68
31	0x31	49
32	0xe5	-27
33	0xff	-1
34	0xd8	-40
35	0xaf	-81
36	0xf8	-8
37	0x81	-127
38	0x9e	-98
39	0x37	55
40	0x30	48
41	0x6a	106
42	0x0a	10
43	0x42	66
44	0x2f	47
45	0x46	70
46	0x7f	127
47	0xf4	-12
48	0x16	22
49	0xe9	-23
50	0x02	2
51	0x0a	10
52	0x7f	127
53	0x4b	75
54	0x16	22
55	0x30	48
56	0x7f	127
57	0x69	105
58	0x50	80
59	0xc1	-63
60	0x0a	10
61	0xbf	-65
62	0x8b	-117
63	0x7a	122
64	0x09	9
65	0x88	-120
66	0x81	-127
67	0xd4	-44
68	0x01	1
69	0xbe	-66
70	0x8e	-114
71	0xc2	-62
72	0xeb	-21
73	0xfb	-5
74	0x55	85
75	0x30	48
76	0xd3	-45
77	0x4e	78
78	0xd8	-40
79	0x81	-127
80	0xe8	-24
81	0xcc	-52
82	0x09	9
83	0x19	25
84	0x13	19
85	0x74	116
86	0x3c	60
87	0x81	-127
88	0x12	18
89	0xf6	-10
90	0x00	0
91	0x05	5
92	0x7f	127
93	0x01	1
94	0x09	9
95	0x36	54
96	0x1f	31
97	0xfb	-5
98	0x39	57
99	0x18	24
100	0x81	-127
101	0x1f	31
102	0xfe	-2
103	0xe9	-23
104	0xb1	-79
105	0x1a	26
106	0x02	2
107	0x8e	-114
108	0x01	1
109	0x42	66
110	0x7f	127
111	0xf4	-12
112	0x81	-127
113	0xe3	-29
114	0x93	-109
115	0xe3	-29
116	0xc2	-62
117	0xe1	-31
118	0x12	18
119	0xba	-70
120	0xe3	-29
121	0xb0	-80
122	0x81	-127
123	0xa9	-87
124	0x05	5
125	0x4a	74
126	0x25	37
127	0x5d	93
128	0xd4	-44
129	0xf7	-9
130	0xd2	-46
131	0xcc	-52
132	0x9b	-101
133	0x06	6
134	0x06	6
135	0x81	-127
136	0x0b	11
137	0xf3	-13
138	0x2d	45
139	0xfb	-5
140	0x81	-127
141	0x19	25
142	0xec	-20
143	0xd9	-39
144	0xdc	-36
145	0x81	-127
146	0x06	6
147	0x0f	15
148	0x17	23
149	0xbf	-65
150	0x47	71
151	0xf0	-16
152	0xaa	-86
153	0x22	34
154	0xa9	-87
155	0x81	-127
156	0x35	53
157	0xae	-82
158	0x31	49
159	0x82	-126
160	0xdc	-36
161	0x5f	95
162	0xbe	-66
163	0xfe	-2
164	0x17	23
165	0x7f	127
166	0xaa	-86
167	0x13	19
168	0x09	9
169	0x02	2
170	0xec	-20
171	0x16	22
172	0x7f	127
173	0x0f	15
174	0x21	33
175	0x00	0
176	0x45	69
177	0xdc	-36
178	0xda	-38
179	0xe0	-32
180	0x7f	127
181	0x18	24
182	0x89	-119
183	0x2d	45
184	0x81	-127
185	0xc3	-61
186	0xa1	-95
187	0xb1	-79
188	0x93	-109
189	0x71	113
190	0x0f	15
191	0x15	21
192	0xbd	-67
193	0xa0	-96
194	0xc0	-64
195	0xac	-84
196	0x22	34
197	0x7f	127
198	0x3b	59
199	0xe2	-30
200	0x1d	29
201	0xab	-85
202	0x2c	44
203	0x81	-127
204	0xfa	-6
205	0xbf	-65
206	0xa3	-93
207	0xf9	-7
208	0x50	80
209	0x7b	123
210	0xc1	-63
211	0x7f	127
212	0x11	17
213	0xf5	-11
214	0x24	36
215	0xd6	-42
216	0x09	9
217	0xb1	-79
218	0x7f	127
219	0xd8	-40
220	0x48	72
221	0xf5	-11
222	0x68	104
223	0x2f	47
224	0x16	22
225	0x81	-127
226	0x34	52
227	0xda	-38
228	0xa2	-94
229	0x2b	43
230	0xea	-22
231	0x04	4
232	0x7f	127
233	0x5b	91
234	0xce	-50
235	0x68	104
236	0x0c	12
237	0x3f	63
238	0x4e	78
239	0xc8	-56
240	0x10	16
241	0xe3	-29
242	0x13	19
243	0xf6	-10
244	0x22	34
245	0x7f	127
246	0x48	72
247	0x9b	-101
248	0xfe	-2
249	0xb9	-71
250	0x1c	28
251	0xfb	-5
252	0xf6	-10
253	0x7f	127
254	0x27	39
255	0x2b	43

model/conv2d_6/Conv2D i1 [8, 1, 1, 48]
0	0xf1	-15
1	0xb6	-74
2	0x20	32
3	0xc5	-59
4	0x39	57
5	0x03	3
6	0xe3	-29
7	0x3d	61
8	0xe0	-32
9	0x03	3
10	0xed	-19
11	0xf0	-16
12	0xba	-70
13	0x98	-104
14	0xf1	-15
15	0xc0	-64
16	0xad	-83
17	0xb5	-75
18	0xdf	-33
19	0x16	22
20	0xdf	-33
21	0x94	-108
22	0xc4	-60
23	0xc0	-64
24	0xe5	-27
25	0xfa	-6
26	0xda	-38
27	0x62	98
28	0x5b	91
29	0x7f	127
30	0xef	-17
31	0xd7	-41
32	0x19	25
33	0x03	3
34	0x0b	11
35	0x27	39
36	0x28	40
37	0x6b	107
38	0xe2	-30
39	0x41	65
40	0xde	-34
41	0xd3	-45
42	0xeb	-21
43	0x1e	30
44	0xcc	-52
45	0xaf	-81
46	0x41	65
47	0x46	70
48	0xe0	-32
49	0x7f	127
50	0xed	-19
51	0x07	7
52	0x1e	30
53	0xe1	-31
54	0xb5	-75
55	0x0f	15
56	0x51	81
57	0x33	51
58	0x25	37
59	0xf8	-8
60	0x26	38
61	0x17	23
62	0xc7	-57
63	0x01	1
64	0xc9	-55
65	0x21	33
66	0x0d	13
67	0xe2	-30
68	0x18	24
69	0xe5	-27
70	0xd9	-39
71	0xca	-54
72	0x07	7
73	0x15	21
74	0xe5	-27
75	0x29	41
76	0x3b	59
77	0xf6	-10
78	0x12	18
79	0xee	-18
80	0x35	53
81	0x51	81
82	0xf8	-8
83	0x05	5
84	0x0c	12
85	0x11	17
86	0x33	51
87	0x3a	58
88	0x15	21
89	0xd3	-45
90	0x17	23
91	0x19	25
92	0xdc	-36
93	0x45	69
94	0x4a	74
95	0xff	-1
96	0x17	23
97	0xee	-18
98	0xaf	-81
99	0x29	41
100	0x31	49
101	0x0c	12
102	0xb8	-72
103	0x01	1
104	0x54	84
105	0xea	-22
106	0xc3	-61
107	0x9f	-97
108	0xa3	-93
109	0x23	35
110	0x94	-108
111	0x42	66
112	0x18	24
113	0x9e	-98
114	0x13	19
115	0xbf	-65
116	0xb8	-72
117	0x1b	27
118	0xde	-34
119	0xb1	-79
120	0x32	50
121	0xc0	-64
122	0x7f	127
123	0x48	72
124	0x2d	45
125	0xe1	-31
126	0xeb	-21
127	0x25	37
128	0xf0	-16
129	0xc2	-62
130	0x16	22
131	0xc4	-60
132	0x15	21
133	0xbf	-65
134	0xc1	-63
135	0xbd	-67
136	0xb8	-72
137	0xbe	-66
138	0x19	25
139	0xfb	-5
140	0xd8	-40
141	0xee	-18
142	0xe0	-32
143	0xea	-22
144	0x1f	31
145	0x06	6
146	0x4a	74
147	0x19	25
148	0x58	88
149	0x38	56
150	0x10	16
151	0x16	22
152	0x2f	47
153	0xa4	-92
154	0x21	33
155	0x0d	13
156	0xef	-17
157	0x0e	14
158	0x13	19
159	0xef	-17
160	0x4c	76
161	0xc3	-61
162	0xe7	-25
163	0xf3	-13
164	0x09	9
165	0xef	-17
166	0x30	48
167	0xdb	-37
168	0x40	64
169	0x39	57
170	0xf3	-13
171	0xf0	-16
172	0x39	57
173	0xdc	-36
174	0x1a	26
175	0x1d	29
176	0x07	7
177	0x17	23
178	0x7f	127
179	0x34	52
180	0x64	100
181	0x1e	30
182	0xe4	-28
183	0x22	34
184	0x2f	47
185	0x12	18
186	0x46	70
187	0x2d	45
188	0xf2	-14
189	0x38	56
190	0xfc	-4
191	0x1f	31
192	0x31	49
193	0xea	-22
194	0xfd	-3
195	0xfb	-5
196	0x19	25
197	0x7f	127
198	0x15	21
199	0xee	-18
200	0x10	16
201	0xaa	-86
202	0x5d	93
203	0xb0	-80
204	0x18	24
205	0xe8	-24
206	0xcc	-52
207	0xbd	-67
208	0xb5	-75
209	0x5c	92
210	0x3f	63
211	0xcc	-52
212	0xd3	-45
213	0x2c	44
214	0xcd	-51
215	0x4f	79
216	0xfa	-6
217	0x07	7
218	0xf7	-9
219	0x11	17
220	0x1b	27
221	0xe8	-24
222	0x67	103
223	0xd5	-43
224	0xe4	-28
225	0xf6	-10
226	0xfe	-2
227	0xc1	-63
228	0x05	5
229	0xdf	-33
230	0xde	-34
231	0xdd	-35
232	0xfc	-4
233	0x35	53
234	0xa9	-87
235	0xaf	-81
236	0x9a	-102
237	0x3b	59
238	0xfc	-4
239	0x3f	63
240	0x39	57
241	0xc7	-57
242	0xee	-18
243	0x1b	27
244	0x1c	28
245	0xac	-84
246	0xf8	-8
247	0xd2	-46
248	0x39	57
249	0x23	35
250	0x0a	10
251	0xf5	-11
252	0x32	50
253	0x22	34
254	0xe8	-24
255	0x15	21

model/conv2d_7/Conv2D i1 [48, 1, 1, 8]
0	0xb7	-73
1	0x45	69
2	0x81	-127
3	0x33	51
4	0x1a	26
5	0x39	57
6	0xb5	-75
7	0xf2	-14
8	0xe5	-27
9	0x44	68
10	0x27	39
11	0xe6	-26
12	0x04	4
13	0x1a	26
14	0x7f	127
15	0x57	87
16	0xcf	-49
17	0xe7	-25
18	0x35	53
19	0xf7	-9
20	0x0a	10
21	0x81	-127
22	0x19	25
23	0xcc	-52
24	0x1f	31
25	0x3e	62
26	0xdd	-35
27	0x0b	11
28	0x00	0
29	0x97	-105
30	0xcf	-49
31	0x7f	127
32	0x0a	10
33	0x6a	106
34	0xd1	-47
35	0x0d	13
36	0x07	7
37	0x19	25
38	0x81	-127
39	0x16	22
40	0x4a	74
41	0x88	-120
42	0x23	35
43	0x3c	60
44	0x10	16
45	0x32	50
46	0xe8	-24
47	0x7f	127
48	0xc1	-63
49	0xe6	-26
50	0xd2	-46
51	0xe7	-25
52	0xdf	-33
53	0x81	-127
54	0xc9	-55
55	0x7a	122
56	0xe7	-25
57	0x50	80
58	0xc9	-55
59	0xff	-1
60	0xee	-18
61	0xfc	-4
62	0x67	103
63	0x7f	127
64	0xa8	-88
65	0x8d	-115
66	0x19	25
67	0x81	-127
68	0xd9	-39
69	0x43	67
70	0x3c	60
71	0x2b	43
72	0x25	37
73	0x7f	127
74	0x44	68
75	0x03	3
76	0xfb	-5
77	0x48	72
78	0xdd	-35
79	0x26	38
80	0xed	-19
81	0x8f	-113
82	0x0b	11
83	0x81	-127
84	0xe8	-24
85	0x3e	62
86	0xde	-34
87	0xbe	-66
88	0xb2	-78
89	0x7f	127
90	0xf3	-13
91	0xa0	-96
92	0xfe	-2
93	0xc0	-64
94	0xe5	-27
95	0x99	-103
96	0x1d	29
97	0x50	80
98	0x89	-119
99	0x12	18
100	0xf1	-15
101	0x99	-103
102	0xb8	-72
103	0x7f	127
104	0x09	9
105	0x23	35
106	0x19	25
107	0xb7	-73
108	0xd2	-46
109	0xe6	-26
110	0x81	-127
111	0x74	116
112	0x10	16
113	0x07	7
114	0xf0	-16
115	0x5a	90
116	0x26	38
117	0x20	32
118	0x7f	127
119	0xd4	-44
120	0x89	-119
121	0x05	5
122	0x36	54
123	0x7f	127
124	0xae	-82
125	0xd2	-46
126	0xbd	-67
127	0x19	25
128	0x01	1
129	0xc8	-56
130	0x2e	46
131	0x31	49
132	0x02	2
133	0x8d	-115
134	0x7f	127
135	0xfd	-3
136	0x05	5
137	0x39	57
138	0xfa	-6
139	0x2d	45
140	0xcc	-52
141	0x3b	59
142	0x7f	127
143	0xe4	-28
144	0xf6	-10
145	0x9d	-99
146	0x08	8
147	0xb9	-71
148	0x1c	28
149	0x7f	127
150	0x39	57
151	0x89	-119
152	0xf8	-8
153	0xef	-17
154	0x09	9
155	0xd7	-41
156	0xf4	-12
157	0x81	-127
158	0x0c	12
159	0x2e	46
160	0x76	118
161	0x11	17
162	0xf8	-8
163	0x0c	12
164	0x0c	12
165	0x43	67
166	0xc5	-59
167	0x7f	127
168	0xdd	-35
169	0xa3	-93
170	0x81	-127
171	0x38	56
172	0xce	-50
173	0xd3	-45
174	0x63	99
175	0xdb	-37
176	0x2b	43
177	0xfc	-4
178	0xc4	-60
179	0x05	5
180	0x08	8
181	0x81	-127
182	0x05	5
183	0x0c	12
184	0x10	16
185	0xb6	-74
186	0xde	-34
187	0x6b	107
188	0x04	4
189	0x81	-127
190	0x42	66
191	0x12	18
192	0xf4	-12
193	0x13	19
194	0xe7	-25
195	0x4c	76
196	0x04	4
197	0x7f	127
198	0xf3	-13
199	0xd2	-46
200	0xe9	-23
201	0x61	97
202	0x12	18
203	0xe9	-23
204	0x15	21
205	0x81	-127
206	0xe4	-28
207	0x94	-108
208	0x5f	95
209	0x1e	30
210	0x06	6
211	0xef	-17
212	0xff	-1
213	0x4e	78
214	0x81	-127
215	0xe2	-30
216	0xb3	-77
217	0xb2	-78
218	0xbe	-66
219	0x81	-127
220	0x3c	60
221	0x32	50
222	0x55	85
223	0x71	113
224	0x74	116
225	0xed	-19
226	0x81	-127
227	0xb7	-73
228	0x81	-127
229	0xbc	-68
230	0xd4	-44
231	0x00	0
232	0x81	-127
233	0xf9	-7
234	0x64	100
235	0xf3	-13
236	0x7b	123
237	0xe4	-28
238	0x32	50
239	0x6a	106
240	0xf7	-9
241	0xc5	-59
242	0xa4	-92
243	0x5c	92
244	0x19	25
245	0x7f	127
246	0xd2	-46
247	0x4d	77
248	0xe2	-30
249	0x81	-127
250	0x11	17
251	0x09	9
252	0xf8	-8
253	0xba	-70
254	0xc2	-62
255	0xe5	-27

model/conv2d_8/Conv2D i1 [16, 1, 1, 48]
0	0xac	-84
1	0x11	17
2	0xdf	-33
3	0x2f	47
4	0xf4	-12
5	0x51	81
6	0xee	-18
7	0x2f	47
8	0x35	53
9	0x63	99
10	0x41	65
11	0xda	-38
12	0x63	99
13	0xd5	-43
14	0x9f	-97
15	0xcb	-53
16	0x7f	127
17	0x0f	15
18	0xee	-18
19	0x50	80
20	0x25	37
21	0x2b	43
22	0x3f	63
23	0xdb	-37
24	0x27	39
25	0x5a	90
26	0x87	-121
27	0x0c	12
28	0x33	51
29	0x1a	26
30	0xe2	-30
31	0x91	-111
32	0xc1	-63
33	0x2c	44
34	0x13	19
35	0xc3	-61
36	0x2d	45
37	0x12	18
38	0xfa	-6
39	0x0a	10
40	0xbf	-65
41	0xdd	-35
42	0x09	9
43	0x50	80
44	0x8d	-115
45	0xdb	-37
46	0x20	32
47	0xc3	-61
48	0x14	20
49	0xed	-19
50	0x23	35
51	0xdc	-36
52	0xfb	-5
53	0x05	5
54	0x5f	95
55	0xb0	-80
56	0xfd	-3
57	0x5b	91
58	0x0a	10
59	0x19	25
60	0x10	16
61	0xfc	-4
62	0x02	2
63	0x14	20
64	0x31	49
65	0xc2	-62
66	0xfc	-4
67	0xea	-22
68	0xd5	-43
69	0x10	16
70	0xe5	-27
71	0xf0	-16
72	0x02	2
73	0x40	64
74	0x1b	27
75	0x27	39
76	0x7f	127
77	0xb2	-78
78	0x22	34
79	0x4b	75
80	0x61	97
81	0xf1	-15
82	0x0f	15
83	0x2b	43
84	0xb2	-78
85	0xe6	-26
86	0x29	41
87	0xe4	-28
88	0x7c	124
89	0x30	48
90	0x20	32
91	0x04	4
92	0x3a	58
93	0xf9	-7
94	0xe5	-27
95	0xcf	-49
96	0x02	2
97	0x20	32
98	0xfa	-6
99	0xe2	-30
100	0xfa	-6
101	0xfd	-3
102	0x1f	31
103	0x0f	15
104	0x8a	-118
105	0x35	53
106	0xbc	-68
107	0x54	84
108	0x20	32
109	0xfa	-6
110	0xfe	-2
111	0x0e	14
112	0x35	53
113	0xd1	-47
114	0x95	-107
115	0x38	56
116	0x25	37
117	0x7f	127
118	0xf2	-14
119	0x15	21
120	0x19	25
121	0xd9	-39
122	0xd1	-47
123	0x47	71
124	0x01	1
125	0x16	22
126	0x67	103
127	0x0f	15
128	0x5b	91
129	0x23	35
130	0xda	-38
131	0xb0	-80
132	0x13	19
133	0x22	34
134	0xf7	-9
135	0x34	52
136	0x18	24
137	0x31	49
138	0x15	21
139	0xf5	-11
140	0x06	6
141	0xff	-1
142	0xcc	-52
143	0x0e	14
144	0x15	21
145	0x71	113
146	0xa9	-87
147	0xd4	-44
148	0x14	20
149	0xbb	-69
150	0x03	3
151	0x12	18
152	0x27	39
153	0xff	-1
154	0xd3	-45
155	0xef	-17
156	0xe2	-30
157	0x31	49
158	0xe2	-30
159	0x0e	14
160	0x1c	28
161	0xbe	-66
162	0xf1	-15
163	0xfb	-5
164	0x02	2
165	0x06	6
166	0xfd	-3
167	0xf9	-7
168	0xe9	-23
169	0xae	-82
170	0xc2	-62
171	0xa3	-93
172	0x22	34
173	0x35	53
174	0xfd	-3
175	0xc8	-56
176	0xcb	-53
177	0xde	-34
178	0x00	0
179	0x5a	90
180	0xbd	-67
181	0x6f	111
182	0xe2	-30
183	0x43	67
184	0x7f	127
185	0x19	25
186	0xe2	-30
187	0xc2	-62
188	0x37	55
189	0x36	54
190	0x46	70
191	0x03	3
192	0xde	-34
193	0x09	9
194	0xf3	-13
195	0x06	6
196	0xe5	-27
197	0xc2	-62
198	0x58	88
199	0x21	33
200	0x21	33
201	0x11	17
202	0x20	32
203	0xfb	-5
204	0xe7	-25
205	0x2b	43
206	0xf3	-13
207	0x03	3
208	0x36	54
209	0xf2	-14
210	0x38	56
211	0xc4	-60
212	0xe1	-31
213	0x50	80
214	0xe1	-31
215	0x3d	61
216	0xd1	-47
217	0xda	-38
218	0x0d	13
219	0x24	36
220	0xc3	-61
221	0xff	-1
222	0xa2	-94
223	0x32	50
224	0xd6	-42
225	0x02	2
226	0x60	96
227	0xe4	-28
228	0xa6	-90
229	0x1e	30
230	0x3f	63
231	0x09	9
232	0x43	67
233	0x7f	127
234	0xc6	-58
235	0xed	-19
236	0xbf	-65
237	0xfb	-5
238	0x3a	58
239	0xf4	-12
240	0x1a	26
241	0xfe	-2
242	0xd1	-47
243	0xbc	-68
244	0x27	39
245	0xe2	-30
246	0x11	17
247	0x27	39
248	0xc3	-61
249	0x18	24
250	0xe2	-30
251	0xed	-19
252	0xf0	-16
253	0x24	36
254	0xd8	-40
255	0xc8	-56

model/conv2d_9/Conv2D i1 [64, 3, 3, 16]
0	0xee	-18
1	0xd0	-48
2	0x58	88
3	0x1e	30
4	0xdb	-37
5	0xd4	-44
6	0x42	66
7	0x13	19
8	0x2b	43
9	0x11	17
10	0x17	23
11	0xea	-22
12	0x13	19
13	0xdd	-35
14	0x00	0
15	0x3a	58
16	0xf0	-16
17	0x0a	10
18	0x71	113
19	0x09	9
20	0x0a	10
21	0x51	81
22	0xe1	-31
23	0xce	-50
24	0x24	36
25	0x42	66
26	0x3d	61
27	0xf6	-10
28	0xe4	-28
29	0x44	68
30	0xed	-19
31	0x34	52
32	0xed	-19
33	0x00	0
34	0x0e	14
35	0xb0	-80
36	0xcb	-53
37	0xf6	-10
38	0xb7	-73
39	0xbc	-68
40	0x2d	45
41	0x04	4
42	0xe6	-26
43	0x26	38
44	0xf2	-14
45	0x64	100
46	0xd2	-46
47	0xb1	-79
48	0x0d	13
49	0xe7	-25
50	0x12	18
51	0x41	65
52	0xa6	-90
53	0x8d	-115
54	0x25	37
55	0x14	20
56	0x25	37
57	0x07	7
58	0x07	7
59	0x49	73
60	0x14	20
61	0x1f	31
62	0xbb	-69
63	0x07	7
64	0x17	23
65	0x41	65
66	0x22	34
67	0x05	5
68	0x07	7
69	0x6e	110
70	0xbb	-69
71	0x0d	13
72	0x14	20
73	0xf8	-8
74	0x54	84
75	0x05	5
76	0xd5	-43
77	0x15	21
78	0x1b	27
79	0x55	85
80	0x1b	27
81	0x65	101
82	0xe7	-25
83	0xbc	-68
84	0xf9	-7
85	0x39	57
86	0xc1	-63
87	0xe2	-30
88	0xdb	-37
89	0xe8	-24
90	0xde	-34
91	0x02	2
92	0xfe	-2
93	0x3f	63
94	0xfc	-4
95	0x93	-109
96	0x26	38
97	0xfe	-2
98	0x00	0
99	0x47	71
100	0xac	-84
101	0x81	-127
102	0x2f	47
103	0x07	7
104	0xe2	-30
105	0xee	-18
106	0xfb	-5
107	0x52	82
108	0x08	8
109	0x3b	59
110	0xb1	-79
111	0xd1	-47
112	0x1d	29
113	0xfd	-3
114	0xc8	-56
115	0xd7	-41
116	0x3c	60
117	0x40	64
118	0xee	-18
119	0x5c	92
120	0xec	-20
121	0x8b	-117
122	0x2b	43
123	0xd8	-40
124	0xc5	-59
125	0xa7	-89
126	0x37	55
127	0x6e	110
128	0x1c	28
129	0x23	35
130	0xcc	-52
131	0xb9	-71
132	0x45	69
133	0x40	64
134	0x19	25
135	0x22	34
136	0xb2	-78
137	0xad	-83
138	0xf7	-9
139	0xba	-70
140	0xe8	-24
141	0xcf	-49
142	0x3b	59
143	0xf2	-14
144	0xe9	-23
145	0xf7	-9
146	0x29	41
147	0x01	1
148	0x00	0
149	0x26	38
150	0x3c	60
151	0x34	52
152	0xfc	-4
153	0xf0	-16
154	0x33	51
155	0xf3	-13
156	0x01	1
157	0x45	69
158	0xfd	-3
159	0x15	21
160	0xd0	-48
161	0xea	-22
162	0x7f	127
163	0x11	17
164	0x00	0
165	0xfd	-3
166	0xf8	-8
167	0x3c	60
168	0x33	51
169	0x06	6
170	0x67	103
171	0x37	55
172	0xfb	-5
173	0x6f	111
174	0xf4	-12
175	0x0c	12
176	0xcb	-53
177	0x03	3
178	0x4c	76
179	0x01	1
180	0xea	-22
181	0xfe	-2
182	0xdf	-33
183	0x30	48
184	0x14	20
185	0xf2	-14
186	0x50	80
187	0x28	40
188	0xee	-18
189	0x18	24
190	0x3c	60
191	0x31	49
192	0x17	23
193	0xea	-22
194	0xeb	-21
195	0x48	72
196	0xff	-1
197	0x1b	27
198	0x51	81
199	0x1c	28
200	0xab	-85
201	0xf8	-8
202	0x12	18
203	0xed	-19
204	0xfe	-2
205	0x0d	13
206	0xf5	-11
207	0x10	16
208	0x01	1
209	0xce	-50
210	0xea	-22
211	0x58	88
212	0xfa	-6
213	0xeb	-21
214	0x2e	46
215	0x4b	75
216	0x06	6
217	0x15	21
218	0x36	54
219	0x2c	44
220	0x01	1
221	0x37	55
222	0xbc	-68
223	0xfb	-5
224	0xf3	-13
225	0x05	5
226	0x28	40
227	0x22	34
228	0xf9	-7
229	0xd7	-41
230	0xdf	-33
231	0x5a	90
232	0x2d	45
233	0x13	19
234	0x59	89
235	0x3d	61
236	0xfb	-5
237	0x35	53
238	0xf4	-12
239	0xea	-22
240	0x08	8
241	0xf0	-16
242	0xf2	-14
243	0x25	37
244	0x1d	29
245	0x44	68
246	0x22	34
247	0x07	7
248	0x9b	-101
249	0x0e	14
250	0x1b	27
251	0x07	7
252	0xf3	-13
253	0xd5	-43
254	0x00	0
255	0x4f	79

model/conv2d_10/Conv2D i1 [64, 1, 1, 64]
0	0x23	35
1	0xc1	-63
2	0x19	25
3	0x9d	-99
4	0x2d	45
5	0x06	6
6	0x0c	12
7	0xdd	-35
8	0xe3	-29
9	0xd2	-46
10	0x0a	10
11	0x64	100
12	0xb4	-76
13	0xf4	-12
14	0xf0	-16
15	0x34	52
16	0x0c	12
17	0x52	82
18	0xcd	-51
19	0xf5	-11
20	0xd8	-40
21	0xd7	-41
22	0xbd	-67
23	0xcd	-51
24	0xf4	-12
25	0xf1	-15
26	0x81	-127
27	0x13	19
28	0xf2	-14
29	0x1a	26
30	0x45	69
31	0xbd	-67
32	0x16	22
33	0xf9	-7
34	0xc9	-55
35	0x15	21
36	0xc0	-64
37	0xe7	-25
38	0xd4	-44
39	0xcd	-51
40	0xf3	-13
41	0xe9	-23
42	0x38	56
43	0xb6	-74
44	0xbf	-65
45	0xf9	-7
46	0x1e	30
47	0x37	55
48	0x13	19
49	0x49	73
50	0x05	5
51	0x2e	46
52	0xf9	-7
53	0x2e	46
54	0x09	9
55	0xe7	-25
56	0x16	22
57	0x18	24
58	0xc9	-55
59	0xc8	-56
60	0xd8	-40
61	0xd9	-39
62	0xe6	-26
63	0x0a	10
64	0xd5	-43
65	0xc0	-64
66	0x21	33
67	0x06	6
68	0xfc	-4
69	0x06	6
70	0x37	55
71	0x7f	127
72	0x11	17
73	0xe8	-24
74	0xbf	-65
75	0x06	6
76	0xc4	-60
77	0xe9	-23
78	0x0f	15
79	0xcc	-52
80	0x25	37
81	0x00	0
82	0xe7	-25
83	0x1c	28
84	0xd5	-43
85	0xb6	-74
86	0x40	64
87	0xf2	-14
88	0x30	48
89	0x09	9
90	0x28	40
91	0x2f	47
92	0xce	-50
93	0x3a	58
94	0x2f	47
95	0x1a	26
96	0x33	51
97	0xea	-22
98	0xfa	-6
99	0x1a	26
100	0xc0	-64
101	0x13	19
102	0xe7	-25
103	0xeb	-21
104	0x3c	60
105	0xd7	-41
106	0x2b	43
107	0xdb	-37
108	0xd0	-48
109	0x2a	42
110	0xd0	-48
111	0x17	23
112	0xfa	-6
113	0xf9	-7
114	0xee	-18
115	0x1c	28
116	0x15	21
117	0x23	35
118	0x9e	-98
119	0xbb	-69
120	0x05	5
121	0xd2	-46
122	0xae	-82
123	0x06	6
124	0xeb	-21
125	0xee	-18
126	0x14	20
127	0xd1	-47
128	0x41	65
129	0xce	-50
130	0xe0	-32
131	0xe5	-27
132	0x07	7
133	0x19	25
134	0xcd	-51
135	0xb9	-71
136	0xb6	-74
137	0x18	24
138	0xce	-50
139	0x84	-124
140	0x16	22
141	0x49	73
142	0x55	85
143	0x15	21
144	0xc3	-61
145	0x0f	15
146	0x24	36
147	0xfa	-6
148	0x9d	-99
149	0x89	-119
150	0x12	18
151	0xf3	-13
152	0xe7	-25
153	0x3c	60
154	0xca	-54
155	0x65	101
156	0x09	9
157	0x5a	90
158	0xae	-82
159	0xed	-19
160	0xdc	-36
161	0xb3	-77
162	0x93	-109
163	0x17	23
164	0xe2	-30
165	0xa3	-93
166	0x81	-127
167	0x83	-125
168	0x40	64
169	0xfa	-6
170	0x05	5
171	0xd1	-47
172	0x0e	14
173	0xb9	-71
174	0x0d	13
175	0x44	68
176	0xe7	-25
177	0xb6	-74
178	0xcd	-51
179	0xf1	-15
180	0x3f	63
181	0xbe	-66
182	0xde	-34
183	0x3e	62
184	0xf9	-7
185	0x25	37
186	0xee	-18
187	0x44	68
188	0xda	-38
189	0x21	33
190	0xd8	-40
191	0xa1	-95
192	0x0b	11
193	0xf6	-10
194	0x0c	12
195	0x29	41
196	0xb0	-80
197	0xd6	-42
198	0xf6	-10
199	0xce	-50
200	0xde	-34
201	0xf7	-9
202	0x98	-104
203	0xe4	-28
204	0x56	86
205	0xe1	-31
206	0x2c	44
207	0x95	-107
208	0xe0	-32
209	0x3e	62
210	0x06	6
211	0x28	40
212	0xce	-50
213	0xd6	-42
214	0xfd	-3
215	0xd7	-41
216	0x37	55
217	0x16	22
218	0xfb	-5
219	0x61	97
220	0x6c	108
221	0x02	2
222	0x04	4
223	0xc6	-58
224	0xcf	-49
225	0xc8	-56
226	0xf5	-11
227	0x15	21
228	0xdf	-33
229	0xd8	-40
230	0xe5	-27
231	0xd6	-42
232	0x30	48
233	0xec	-20
234	0x0b	11
235	0x81	-127
236	0x01	1
237	0xff	-1
238	0x46	70
239	0x0d	13
240	0xcf	-49
241	0x58	88
242	0xc7	-57
243	0x27	39
244	0x0b	11
245	0x06	6
246	0x1f	31
247	0x0b	11
248	0x20	32
249	0x4d	77
250	0xf4	-12
251	0x24	36
252	0x06	6
253	0x1b	27
254	0xb2	-78
255	0x0e	14

model/conv2d_11/Conv2D i1 [16, 1, 1, 64]
0	0x4e	78
1	0xea	-22
2	0x1b	27
3	0xd5	-43
4	0x03	3
5	0xe6	-26
6	0xb1	-79
7	0xe4	-28
8	0xb4	-76
9	0xd8	-40
10	0xc0	-64
11	0xb5	-75
12	0x25	37
13	0xc7	-57
14	0xe3	-29
15	0x57	87
16	0x18	24
17	0x62	98
18	0xcb	-53
19	0xd9	-39
20	0xfc	-4
21	0x00	0
22	0xe1	-31
23	0x5b	91
24	0xf3	-13
25	0x22	34
26	0x26	38
27	0x02	2
28	0x06	6
29	0x06	6
30	0xca	-54
31	0xbb	-69
32	0xca	-54
33	0xa5	-91
34	0xc5	-59
35	0x3b	59
36	0xce	-50
37	0x0b	11
38	0x09	9
39	0xad	-83
40	0x2e	46
41	0x3f	63
42	0x20	32
43	0xcb	-53
44	0xbf	-65
45	0x46	70
46	0xf5	-11
47	0x20	32
48	0x0a	10
49	0x05	5
50	0x0c	12
51	0x81	-127
52	0x36	54
53	0xc4	-60
54	0xd3	-45
55	0x11	17
56	0x90	-112
57	0xfe	-2
58	0xdf	-33
59	0x1e	30
60	0x3b	59
61	0x07	7
62	0x36	54
63	0xb8	-72
64	0x69	105
65	0xd1	-47
66	0xab	-85
67	0x1a	26
68	0x06	6
69	0x1b	27
70	0x04	4
71	0xed	-19
72	0xe7	-25
73	0x0b	11
74	0x04	4
75	0x3e	62
76	0xc7	-57
77	0x3c	60
78	0xc1	-63
79	0x3f	63
80	0xc2	-62
81	0x1e	30
82	0x0e	14
83	0xc8	-56
84	0xc9	-55
85	0x2a	42
86	0x2a	42
87	0x2b	43
88	0xf7	-9
89	0x27	39
90	0xe1	-31
91	0x0d	13
92	0xf2	-14
93	0xc8	-56
94	0xe9	-23
95	0xeb	-21
96	0xeb	-21
97	0x1d	29
98	0xbc	-68
99	0xb7	-73
100	0x0b	11
101	0xf1	-15
102	0xde	-34
103	0x07	7
104	0x50	80
105	0xc1	-63
106	0x15	21
107	0xe4	-28
108	0x08	8
109	0xde	-34
110	0xb8	-72
111	0xa3	-93
112	0x12	18
113	0x37	55
114	0xf0	-16
115	0x23	35
116	0x02	2
117	0x40	64
118	0xea	-22
119	0xfb	-5
120	0xa9	-87
121	0xca	-54
122	0x81	-127
123	0x59	89
124	0xce	-50
125	0x1a	26
126	0xbd	-67
127	0x39	57
128	0xca	-54
129	0x48	72
130	0xe2	-30
131	0xd3	-45
132	0x45	69
133	0xe8	-24
134	0x56	86
135	0x06	6
136	0xea	-22
137	0x30	48
138	0xe4	-28
139	0x06	6
140	0x41	65
141	0xeb	-21
142	0x24	36
143	0x05	5
144	0x0a	10
145	0x4a	74
146	0x0b	11
147	0xfd	-3
148	0xbb	-69
149	0xf1	-15
150	0x0a	10
151	0x24	36
152	0x10	16
153	0x0b	11
154	0xf3	-13
155	0x2e	46
156	0xf9	-7
157	0xd8	-40
158	0x1b	27
159	0x02	2
160	0xd8	-40
161	0x5f	95
162	0x06	6
163	0xeb	-21
164	0x07	7
165	0xcf	-49
166	0xec	-20
167	0xf9	-7
168	0xa3	-93
169	0x0a	10
170	0xbe	-66
171	0x4f	79
172	0x0c	12
173	0x03	3
174	0x0b	11
175	0xcd	-51
176	0xfa	-6
177	0x1f	31
178	0xfa	-6
179	0x3b	59
180	0xf4	-12
181	0xaa	-86
182	0x81	-127
183	0x17	23
184	0xe3	-29
185	0xeb	-21
186	0xd4	-44
187	0x41	65
188	0xeb	-21
189	0x11	17
190	0x3d	61
191	0xbb	-69
192	0x7f	127
193	0x52	82
194	0xfb	-5
195	0xff	-1
196	0xda	-38
197	0x37	55
198	0x7d	125
199	0x02	2
200	0x2a	42
201	0x57	87
202	0x55	85
203	0x14	20
204	0xd5	-43
205	0x8c	-116
206	0xfe	-2
207	0x7c	124
208	0xf7	-9
209	0xdc	-36
210	0x1c	28
211	0xc8	-56
212	0x0a	10
213	0xde	-34
214	0x43	67
215	0xf8	-8
216	0xa7	-89
217	0x53	83
218	0x01	1
219	0x28	40
220	0x63	99
221	0x0b	11
222	0x18	24
223	0x24	36
224	0xf2	-14
225	0x0f	15
226	0xcd	-51
227	0x15	21
228	0x0c	12
229	0xbd	-67
230	0x61	97
231	0xdd	-35
232	0x3a	58
233	0xfa	-6
234	0xc9	-55
235	0xf3	-13
236	0x21	33
237	0x38	56
238	0x20	32
239	0xbb	-69
240	0xb1	-79
241	0xbf	-65
242	0x1e	30
243	0xd1	-47
244	0x65	101
245	0x82	-126
246	0xe8	-24
247	0x20	32
248	0xb4	-76
249	0x44	68
250	0xed	-19
251	0x15	21
252	0x2f	47
253	0xfb	-5
254	0xd7	-41
255	0x51	81

model/conv2d_12/Conv2D i1 [24, 1, 1, 16]
0	0x13	19
1	0x0a	10
2	0x06	6
3	0x01	1
4	0xf7	-9
5	0x03	3
6	0xd9	-39
7	0xee	-18
8	0x09	9
9	0xfb	-5
10	0x32	50
11	0x20	32
12	0xeb	-21
13	0xd5	-43
14	0x81	-127
15	0x21	33
16	0x12	18
17	0x1c	28
18	0xe2	-30
19	0x41	65
20	0x03	3
21	0xb7	-73
22	0xe7	-25
23	0xee	-18
24	0xa4	-92
25	0xb8	-72
26	0x1e	30
27	0x01	1
28	0x81	-127
29	0xe4	-28
30	0x07	7
31	0x22	34
32	0x59	89
33	0x81	-127
34	0x02	2
35	0x40	64
36	0x01	1
37	0x3c	60
38	0x02	2
39	0x96	-106
40	0xfa	-6
41	0xe4	-28
42	0x14	20
43	0x32	50
44	0x34	52
45	0x4a	74
46	0x88	-120
47	0xa0	-96
48	0x3c	60
49	0x3b	59
50	0x49	73
51	0xe0	-32
52	0x24	36
53	0x12	18
54	0x81	-127
55	0xea	-22
56	0x35	53
57	0x44	68
58	0xe1	-31
59	0xc6	-58
60	0x22	34
61	0xdd	-35
62	0x09	9
63	0x1d	29
64	0x50	80
65	0x7a	122
66	0x8a	-118
67	0x10	16
68	0x33	51
69	0x0e	14
70	0xfb	-5
71	0xfa	-6
72	0xb8	-72
73	0xea	-22
74	0x18	24
75	0x19	25
76	0x7f	127
77	0xf1	-15
78	0x26	38
79	0xd1	-47
80	0x97	-105
81	0x50	80
82	0xe6	-26
83	0xec	-20
84	0xd8	-40
85	0x32	50
86	0x1c	28
87	0xcd	-51
88	0xba	-70
89	0xf1	-15
90	0x00	0
91	0xf8	-8
92	0x1b	27
93	0x0f	15
94	0x0c	12
95	0x7f	127
96	0x4f	79
97	0xf3	-13
98	0x27	39
99	0x8a	-118
100	0x82	-126
101	0x36	54
102	0xf5	-11
103	0xed	-19
104	0x2c	44
105	0x59	89
106	0x81	-127
107	0xfd	-3
108	0xe8	-24
109	0x45	69
110	0x03	3
111	0x0c	12
112	0x19	25
113	0xaa	-86
114	0xd9	-39
115	0x6e	110
116	0x1f	31
117	0x2e	46
118	0x02	2
119	0xca	-54
120	0x2f	47
121	0x51	81
122	0xf7	-9
123	0x06	6
124	0xe2	-30
125	0xf2	-14
126	0x1e	30
127	0x7f	127
128	0x05	5
129	0x26	38
130	0x08	8
131	0x7a	122
132	0xce	-50
133	0xf4	-12
134	0x35	53
135	0x5f	95
136	0x04	4
137	0x1f	31
138	0x81	-127
139	0xe2	-30
140	0x38	56
141	0x00	0
142	0xaf	-81
143	0xf5	-11
144	0xad	-83
145	0xea	-22
146	0xe0	-32
147	0xf9	-7
148	0xdb	-37
149	0xd3	-45
150	0xa4	-92
151	0x81	-127
152	0x39	57
153	0xdf	-33
154	0x3c	60
155	0xd7	-41
156	0x2f	47
157	0xd1	-47
158	0x05	5
159	0x05	5
160	0x1a	26
161	0x14	20
162	0x3f	63
163	0xf5	-11
164	0xbf	-65
165	0x3e	62
166	0x42	66
167	0x81	-127
168	0xff	-1
169	0xeb	-21
170	0x28	40
171	0xe3	-29
172	0xd7	-41
173	0x36	54
174	0xfd	-3
175	0xfd	-3
176	0xfb	-5
177	0x33	51
178	0xce	-50
179	0xe8	-24
180	0xc4	-60
181	0xfb	-5
182	0xf2	-14
183	0xda	-38
184	0xc5	-59
185	0xc0	-64
186	0xa7	-89
187	0x81	-127
188	0xde	-34
189	0xff	-1
190	0xb1	-79
191	0xe5	-27
192	0x0f	15
193	0xd1	-47
194	0x2a	42
195	0xf9	-7
196	0x21	33
197	0x97	-105
198	0x11	17
199	0xe0	-32
200	0x0f	15
201	0xbe	-66
202	0x03	3
203	0x7f	127
204	0x36	54
205	0xf6	-10
206	0xee	-18
207	0x2e	46
208	0x1a	26
209	0xc0	-64
210	0x0d	13
211	0x81	-127
212	0xf5	-11
213	0x44	68
214	0x47	71
215	0xf4	-12
216	0xce	-50
217	0x17	23
218	0x02	2
219	0xeb	-21
220	0x4d	77
221	0xf2	-14
222	0xc3	-61
223	0x43	67
224	0xdc	-36
225	0xd3	-45
226	0xd7	-41
227	0xfe	-2
228	0x18	24
229	0xf5	-11
230	0x06	6
231	0x01	1
232	0xc9	-55
233	0x7f	127
234	0x20	32
235	0xed	-19
236	0xfc	-4
237	0x2c	44
238	0xcd	-51
239	0xeb	-21
240	0x81	-127
241	0xf5	-11
242	0xd3	-45
243	0x1b	27
244	0x66	102
245	0x6d	109
246	0x54	84
247	0x2f	47
248	0x43	67
249	0xd8	-40
250	0xc8	-56
251	0xf4	-12
252	0xd4	-44
253	0xed	-19
254	0xd0	-48
255	0xf4	-12

model/conv2d_13/Conv2D i1 [96, 1, 1, 24]
0	0xe6	-26
1	0x01	1
2	0x38	56
3	0x01	1
4	0xff	-1
5	0xf3	-13
6	0xf4	-12
7	0xff	-1
8	0xcb	-53
9	0xea	-22
10	0xda	-38
11	0xd7	-41
12	0xfc	-4
13	0x02	2
14	0x7f	127
15	0x47	71
16	0xdb	-37
17	0x48	72
18	0x26	38
19	0xf1	-15
20	0xcf	-49
21	0xd4	-44
22	0xe9	-23
23	0x0f	15
24	0xf9	-7
25	0x01	1
26	0x8c	-116
27	0x23	35
28	0x2e	46
29	0xbf	-65
30	0x0f	15
31	0xc5	-59
32	0xc4	-60
33	0xd1	-47
34	0x9f	-97
35	0xa0	-96
36	0xfc	-4
37	0xaf	-81
38	0x20	32
39	0x20	32
40	0x28	40
41	0x81	-127
42	0x40	64
43	0x45	69
44	0x5d	93
45	0xd9	-39
46	0xf2	-14
47	0x64	100
48	0xc4	-60
49	0x29	41
50	0x41	65
51	0xab	-85
52	0x2f	47
53	0x30	48
54	0x5f	95
55	0xd8	-40
56	0x62	98
57	0x02	2
58	0x7f	127
59	0x3a	58
60	0xdf	-33
61	0x63	99
62	0x0c	12
63	0xa1	-95
64	0xff	-1
65	0xff	-1
66	0xd7	-41
67	0x17	23
68	0x6a	106
69	0xf5	-11
70	0x64	100
71	0xeb	-21
72	0x00	0
73	0x1a	26
74	0xe2	-30
75	0xcf	-49
76	0xc8	-56
77	0x05	5
78	0xfd	-3
79	0xcb	-53
80	0x23	35
81	0x29	41
82	0x81	-127
83	0x23	35
84	0xe4	-28
85	0x2e	46
86	0xe5	-27
87	0x3b	59
88	0xd7	-41
89	0xda	-38
90	0x36	54
91	0x08	8
92	0x11	17
93	0x18	24
94	0x0b	11
95	0x1b	27
96	0x01	1
97	0xd5	-43
98	0x21	33
99	0x09	9
100	0x13	19
101	0x2d	45
102	0x3a	58
103	0xdf	-33
104	0x05	5
105	0x1c	28
106	0x49	73
107	0x3f	63
108	0x26	38
109	0x5d	93
110	0xd2	-46
111	0x81	-127
112	0xd1	-47
113	0xf2	-14
114	0xb4	-76
115	0xf1	-15
116	0x44	68
117	0xe2	-30
118	0x3b	59
119	0xc6	-58
120	0xc7	-57
121	0x7f	127
122	0xe4	-28
123	0xcd	-51
124	0x35	53
125	0x3f	63
126	0xb4	-76
127	0x1b	27
128	0xe4	-28
129	0x3e	62
130	0xed	-19
131	0x23	35
132	0xe3	-29
133	0xed	-19
134	0xfb	-5
135	0x47	71
136	0x56	86
137	0x2e	46
138	0xd7	-41
139	0x30	48
140	0x01	1
141	0x2e	46
142	0x1e	30
143	0x70	112
144	0x0e	14
145	0x00	0
146	0xe7	-25
147	0x29	41
148	0x81	-127
149	0x08	8
150	0xca	-54
151	0x1f	31
152	0xa3	-93
153	0x50	80
154	0xf3	-13
155	0xf0	-16
156	0x37	55
157	0xfb	-5
158	0x1a	26
159	0xe9	-23
160	0x08	8
161	0xf7	-9
162	0x3e	62
163	0xc0	-64
164	0xda	-38
165	0xec	-20
166	0x93	-109
167	0xcf	-49
168	0xc3	-61
169	0x21	33
170	0xe8	-24
171	0xc6	-58
172	0x16	22
173	0x24	36
174	0x1b	27
175	0xf2	-14
176	0x11	17
177	0xf4	-12
178	0x32	50
179	0x7f	127
180	0x2b	43
181	0x45	69
182	0xc7	-57
183	0xdd	-35
184	0x99	-103
185	0xbe	-66
186	0x00	0
187	0x6b	107
188	0x5c	92
189	0x1e	30
190	0x63	99
191	0x62	98
192	0x21	33
193	0x02	2
194	0x0a	10
195	0xe6	-26
196	0x00	0
197	0xd0	-48
198	0x06	6
199	0xee	-18
200	0x21	33
201	0xde	-34
202	0x1d	29
203	0xbc	-68
204	0xfb	-5
205	0x16	22
206	0xf0	-16
207	0xa1	-95
208	0x37	55
209	0x0d	13
210	0x7a	122
211	0x05	5
212	0x0b	11
213	0x7f	127
214	0x43	67
215	0x2a	42
216	0xcf	-49
217	0x5d	93
218	0x03	3
219	0x8f	-113
220	0xf0	-16
221	0x13	19
222	0x05	5
223	0x19	25
224	0x78	120
225	0x3d	61
226	0xcb	-53
227	0x27	39
228	0xd3	-45
229	0xef	-17
230	0xd3	-45
231	0xff	-1
232	0x29	41
233	0x13	19
234	0xce	-50
235	0xe1	-31
236	0xe4	-28
237	0x27	39
238	0x7f	127
239	0x0c	12
240	0x3f	63
241	0xce	-50
242	0x06	6
243	0xd7	-41
244	0x85	-123
245	0xe2	-30
246	0xe2	-30
247	0x0e	14
248	0x03	3
249	0x17	23
250	0xe9	-23
251	0xd7	-41
252	0x32	50
253	0x17	23
254	0xe7	-25
255	0x2e	46

model/conv2d_14/Conv2D i1 [24, 1, 1, 96]
0	0x37	55
1	0x21	33
2	0x26	38
3	0x3d	61
4	0xca	-54
5	0x10	16
6	0xd5	-43
7	0x13	19
8	0x07	7
9	0x26	38
10	0xac	-84
11	0xc2	-62
12	0xc4	-60
13	0x38	56
14	0x05	5
15	0x22	34
16	0x03	3
17	0xcb	-53
18	0xe4	-28
19	0xe5	-27
20	0xf2	-14
21	0xe7	-25
22	0x23	35
23	0xf0	-16
24	0x4b	75
25	0xee	-18
26	0x50	80
27	0x48	72
28	0x09	9
29	0x13	19
30	0x9e	-98
31	0x35	53
32	0x37	55
33	0xff	-1
34	0xeb	-21
35	0xec	-20
36	0x05	5
37	0x1b	27
38	0xb4	-76
39	0x37	55
40	0xa3	-93
41	0xfd	-3
42	0x18	24
43	0xcb	-53
44	0xe5	-27
45	0x0d	13
46	0x6d	109
47	0xa3	-93
48	0xe1	-31
49	0x25	37
50	0x69	105
51	0x1f	31
52	0x09	9
53	0xed	-19
54	0x54	84
55	0x4c	76
56	0x0b	11
57	0xf1	-15
58	0xe3	-29
59	0x57	87
60	0x0b	11
61	0x0d	13
62	0xe4	-28
63	0x1f	31
64	0xae	-82
65	0xd3	-45
66	0x5a	90
67	0xe4	-28
68	0x8c	-116
69	0xcb	-53
70	0xef	-17
71	0x39	57
72	0x0f	15
73	0x03	3
74	0xd2	-46
75	0xbf	-65
76	0xfa	-6
77	0x29	41
78	0xf6	-10
79	0xdf	-33
80	0x00	0
81	0x3b	59
82	0xb7	-73
83	0xf3	-13
84	0xef	-17
85	0x7d	125
86	0x65	101
87	0x62	98
88	0x3e	62
89	0x22	34
90	0x6e	110
91	0xff	-1
92	0x06	6
93	0xd7	-41
94	0x20	32
95	0x7f	127
96	0x10	16
97	0x4d	77
98	0xeb	-21
99	0x55	85
100	0xf9	-7
101	0x1b	27
102	0xe0	-32
103	0x62	98
104	0xc7	-57
105	0x10	16
106	0xea	-22
107	0xd5	-43
108	0x5d	93
109	0xd0	-48
110	0x86	-122
111	0x18	24
112	0xeb	-21
113	0xa0	-96
114	0x06	6
115	0x1e	30
116	0xe1	-31
117	0x36	54
118	0x28	40
119	0x24	36
120	0x14	20
121	0xff	-1
122	0xe9	-23
123	0x74	116
124	0xf7	-9
125	0xf7	-9
126	0xdd	-35
127	0xc6	-58
128	0xd8	-40
129	0x17	23
130	0x16	22
131	0xeb	-21
132	0x00	0
133	0x0f	15
134	0x1c	28
135	0xb5	-75
136	0xdf	-33
137	0xcd	-51
138	0xd8	-40
139	0xc1	-63
140	0x01	1
141	0x11	17
142	0x35	53
143	0xbc	-68
144	0x20	32
145	0x04	4
146	0x0e	14
147	0x1b	27
148	0x51	81
149	0x56	86
150	0x2f	47
151	0x2b	43
152	0xe6	-26
153	0x7f	127
154	0xeb	-21
155	0x43	67
156	0xc1	-63
157	0x16	22
158	0x06	6
159	0xff	-1
160	0x06	6
161	0xd1	-47
162	0xfc	-4
163	0xfb	-5
164	0xe1	-31
165	0xf3	-13
166	0xfa	-6
167	0xbd	-67
168	0x3e	62
169	0xd1	-47
170	0x10	16
171	0x25	37
172	0x28	40
173	0xbb	-69
174	0xf1	-15
175	0x62	98
176	0xdf	-33
177	0x14	20
178	0x1a	26
179	0x18	24
180	0x50	80
181	0xbc	-68
182	0xf6	-10
183	0x5f	95
184	0xdf	-33
185	0xf4	-12
186	0x2a	42
187	0xe4	-28
188	0xee	-18
189	0xf0	-16
190	0xea	-22
191	0x28	40
192	0xd3	-45
193	0xdf	-33
194	0x70	112
195	0xee	-18
196	0x19	25
197	0xec	-20
198	0xcd	-51
199	0xdf	-33
200	0x44	68
201	0x29	41
202	0xfe	-2
203	0xcc	-52
204	0xe4	-28
205	0x7f	127
206	0x34	52
207	0xe0	-32
208	0xe1	-31
209	0x2e	46
210	0xe5	-27
211	0xc3	-61
212	0xc9	-55
213	0xef	-17
214	0xe9	-23
215	0xdb	-37
216	0x18	24
217	0x3d	61
218	0x15	21
219	0xef	-17
220	0x49	73
221	0x15	21
222	0xe1	-31
223	0xcb	-53
224	0x46	70
225	0x4b	75
226	0xe3	-29
227	0x18	24
228	0xe4	-28
229	0x0d	13
230	0xca	-54
231	0xf1	-15
232	0x10	16
233	0xfc	-4
234	0x07	7
235	0xec	-20
236	0x42	66
237	0xf7	-9
238	0x35	53
239	0x10	16
240	0x14	20
241	0xed	-19
242	0x0d	13
243	0xd7	-41
244	0xe0	-32
245	0x00	0
246	0xe4	-28
247	0x17	23
248	0x64	100
249	0x2b	43
250	0x0a	10
251	0xf1	-15
252	0xd9	-39
253	0xdb	-37
254	0xe6	-26
255	0x01	1

model/conv2d_15/Conv2D i1 [96, 1, 1, 24]
0	0x2f	47
1	0xe4	-28
2	0xe4	-28
3	0xb9	-71
4	0xbd	-67
5	0xba	-70
6	0x62	98
7	0xdb	-37
8	0xfb	-5
9	0x2e	46
10	0xc4	-60
11	0xe7	-25
12	0x27	39
13	0xe9	-23
14	0x25	37
15	0x43	67
16	0xed	-19
17	0xc5	-59
18	0x0d	13
19	0xee	-18
20	0x7f	127
21	0xc4	-60
22	0x61	97
23	0xf4	-12
24	0x04	4
25	0x02	2
26	0x3a	58
27	0x7a	122
28	0xf6	-10
29	0x29	41
30	0x0b	11
31	0xd0	-48
32	0x87	-121
33	0x10	16
34	0x37	55
35	0xc6	-58
36	0x18	24
37	0x43	67
38	0x67	103
39	0x3c	60
40	0x05	5
41	0x85	-123
42	0xcd	-51
43	0xd2	-46
44	0x0e	14
45	0xea	-22
46	0x8a	-118
47	0x81	-127
48	0x87	-121
49	0xd3	-45
50	0x41	65
51	0xcb	-53
52	0x1a	26
53	0x0d	13
54	0x81	-127
55	0xe8	-24
56	0xe5	-27
57	0x07	7
58	0x0f	15
59	0xe9	-23
60	0x15	21
61	0xae	-82
62	0x02	2
63	0x0d	13
64	0x19	25
65	0x13	19
66	0x0e	14
67	0x2d	45
68	0xba	-70
69	0xe0	-32
70	0x0c	12
71	0x17	23
72	0x1a	26
73	0x0b	11
74	0xe6	-26
75	0xe2	-30
76	0x81	-127
77	0xba	-70
78	0xf8	-8
79	0xed	-19
80	0xe9	-23
81	0x9f	-97
82	0xad	-83
83	0xe2	-30
84	0xae	-82
85	0xf5	-11
86	0xaa	-86
87	0x0a	10
88	0x50	80
89	0x17	23
90	0xf7	-9
91	0x6f	111
92	0x15	21
93	0xde	-34
94	0xec	-20
95	0x12	18
96	0x18	24
97	0x2a	42
98	0x42	66
99	0xac	-84
100	0x23	35
101	0x48	72
102	0x0e	14
103	0xc3	-61
104	0xbd	-67
105	0x81	-127
106	0x60	96
107	0x3f	63
108	0xc3	-61
109	0x1a	26
110	0xf7	-9
111	0x25	37
112	0x0d	13
113	0x60	96
114	0xa9	-87
115	0xae	-82
116	0x92	-110
117	0x70	112
118	0x49	73
119	0x3a	58
120	0xe0	-32
121	0x59	89
122	0xec	-20
123	0x28	40
124	0xe2	-30
125	0xec	-20
126	0x11	17
127	0x09	9
128	0xc9	-55
129	0x30	48
130	0xee	-18
131	0x16	22
132	0xfa	-6
133	0x03	3
134	0x0e	14
135	0xcc	-52
136	0xdf	-33
137	0x03	3
138	0xaf	-81
139	0xa0	-96
140	0x10	16
141	0xb3	-77
142	0xad	-83
143	0x81	-127
144	0x01	1
145	0x27	39
146	0xad	-83
147	0xd2	-46
148	0xfa	-6
149	0xeb	-21
150	0x7f	127
151	0x25	37
152	0x5b	91
153	0x3a	58
154	0xde	-34
155	0xf8	-8
156	0x94	-108
157	0xd8	-40
158	0xd4	-44
159	0x1b	27
160	0xff	-1
161	0x03	3
162	0x13	19
163	0x9a	-102
164	0x1b	27
165	0x3e	62
166	0xfb	-5
167	0xd7	-41
168	0x32	50
169	0x5d	93
170	0x10	16
171	0xec	-20
172	0xa6	-90
173	0xf8	-8
174	0x7f	127
175	0x73	115
176	0x0a	10
177	0x28	40
178	0x0b	11
179	0xdc	-36
180	0xfc	-4
181	0x3a	58
182	0xfb	-5
183	0x3d	61
184	0x76	118
185	0x02	2
186	0xdf	-33
187	0xe1	-31
188	0x0f	15
189	0x0e	14
190	0xee	-18
191	0x38	56
192	0xbd	-67
193	0xcb	-53
194	0x9a	-102
195	0xe4	-28
196	0x19	25
197	0x9f	-97
198	0x36	54
199	0xd5	-43
200	0x26	38
201	0xe8	-24
202	0xcf	-49
203	0x47	71
204	0x15	21
205	0x4b	75
206	0x81	-127
207	0x1b	27
208	0x02	2
209	0xc1	-63
210	0xfd	-3
211	0xf7	-9
212	0x23	35
213	0x3d	61
214	0x3c	60
215	0xd6	-42
216	0x04	4
217	0xfd	-3
218	0x0e	14
219	0x41	65
220	0xdb	-37
221	0xd8	-40
222	0xe8	-24
223	0x13	19
224	0x6a	106
225	0x1c	28
226	0xee	-18
227	0xcd	-51
228	0x03	3
229	0xbf	-65
230	0x19	25
231	0x13	19
232	0xe3	-29
233	0x27	39
234	0x15	21
235	0xd6	-42
236	0x7f	127
237	0xca	-54
238	0xf5	-11
239	0x1b	27
240	0x7f	127
241	0x03	3
242	0x34	52
243	0xe5	-27
244	0x7a	122
245	0xd5	-43
246	0x27	39
247	0x2c	44
248	0xfd	-3
249	0xf2	-14
250	0xea	-22
251	0x50	80
252	0x0d	13
253	0x54	84
254	0xaf	-81
255	0xc3	-61

model/conv2d_16/Conv2D i1 [24, 1, 1, 96]
0	0xdd	-35
1	0x13	19
2	0xd0	-48
3	0x35	53
4	0xe1	-31
5	0x20	32
6	0xfe	-2
7	0x02	2
8	0x0c	12
9	0xc6	-58
10	0xdd	-35
11	0x0d	13
12	0xd0	-48
13	0xd9	-39
14	0x03	3
15	0xfd	-3
16	0x11	17
17	0xfd	-3
18	0xe4	-28
19	0xe4	-28
20	0xd8	-40
21	0xfa	-6
22	0xd1	-47
23	0xa6	-90
24	0x81	-127
25	0x00	0
26	0x34	52
27	0x4c	76
28	0xef	-17
29	0xfa	-6
30	0xde	-34
31	0xf1	-15
32	0xae	-82
33	0xff	-1
34	0x14	20
35	0x9e	-98
36	0xef	-17
37	0xc8	-56
38	0xda	-38
39	0x05	5
40	0xe4	-28
41	0x3a	58
42	0x1c	28
43	0xa1	-95
44	0x22	34
45	0xea	-22
46	0xe4	-28
47	0x21	33
48	0x0d	13
49	0x4a	74
50	0x17	23
51	0x08	8
52	0x4e	78
53	0x48	72
54	0x3f	63
55	0xe3	-29
56	0x04	4
57	0x11	17
58	0x0e	14
59	0x14	20
60	0xe3	-29
61	0x05	5
62	0x0c	12
63	0x0d	13
64	0xfd	-3
65	0x23	35
66	0x16	22
67	0x12	18
68	0xfe	-2
69	0x1f	31
70	0x26	38
71	0xed	-19
72	0xe3	-29
73	0x17	23
74	0xf8	-8
75	0xed	-19
76	0x01	1
77	0xca	-54
78	0xdb	-37
79	0x2f	47
80	0xf6	-10
81	0x30	48
82	0x08	8
83	0x0f	15
84	0x25	37
85	0x02	2
86	0x2c	44
87	0x1e	30
88	0x09	9
89	0xff	-1
90	0xbe	-66
91	0x0b	11
92	0x01	1
93	0x09	9
94	0xed	-19
95	0x13	19
96	0xf9	-7
97	0x4f	79
98	0x20	32
99	0x29	41
100	0x0f	15
101	0xef	-17
102	0xd5	-43
103	0x3d	61
104	0xa3	-93
105	0xbf	-65
106	0x34	52
107	0x05	5
108	0x3a	58
109	0xf8	-8
110	0xb8	-72
111	0x08	8
112	0x15	21
113	0xee	-18
114	0xef	-17
115	0x32	50
116	0x29	41
117	0xd7	-41
118	0xf4	-12
119	0x26	38
120	0xee	-18
121	0x08	8
122	0xed	-19
123	0x12	18
124	0x14	20
125	0xfe	-2
126	0x1c	28
127	0x03	3
128	0xde	-34
129	0xdb	-37
130	0x29	41
131	0x19	25
132	0xde	-34
133	0x1b	27
134	0xef	-17
135	0x2a	42
136	0xe3	-29
137	0x10	16
138	0x04	4
139	0xcd	-51
140	0xf6	-10
141	0x16	22
142	0x44	68
143	0x81	-127
144	0xd8	-40
145	0x0b	11
146	0xf7	-9
147	0xeb	-21
148	0x72	114
149	0x03	3
150	0x20	32
151	0x02	2
152	0x1f	31
153	0x1b	27
154	0x00	0
155	0x18	24
156	0x17	23
157	0xe4	-28
158	0x49	73
159	0xcc	-52
160	0xf6	-10
161	0xa2	-94
162	0x26	38
163	0xf5	-11
164	0x43	67
165	0xbe	-66
166	0x40	64
167	0x14	20
168	0xbe	-66
169	0xca	-54
170	0xfd	-3
171	0x60	96
172	0xc6	-58
173	0x2e	46
174	0xc6	-58
175	0x17	23
176	0x2e	46
177	0x93	-109
178	0x03	3
179	0xf8	-8
180	0x13	19
181	0x1a	26
182	0x3d	61
183	0x1f	31
184	0xd0	-48
185	0xb4	-76
186	0xc8	-56
187	0x01	1
188	0x1f	31
189	0x18	24
190	0x38	56
191	0xf3	-13
192	0x14	20
193	0xc2	-62
194	0x14	20
195	0xf0	-16
196	0xa6	-90
197	0xf0	-16
198	0xd0	-48
199	0x01	1
200	0x81	-127
201	0xe2	-30
202	0xe9	-23
203	0x21	33
204	0xf0	-16
205	0x2b	43
206	0xe4	-28
207	0x0e	14
208	0x5b	91
209	0xf0	-16
210	0x22	34
211	0xed	-19
212	0x2b	43
213	0xb2	-78
214	0x2d	45
215	0x0f	15
216	0x19	25
217	0xff	-1
218	0x14	20
219	0x44	68
220	0xe2	-30
221	0xcb	-53
222	0xfc	-4
223	0xd4	-44
224	0xb1	-79
225	0x35	53
226	0xca	-54
227	0xa0	-96
228	0xd8	-40
229	0xda	-38
230	0xcf	-49
231	0x34	52
232	0xbe	-66
233	0x3e	62
234	0x17	23
235	0x00	0
236	0x0c	12
237	0x5a	90
238	0xf9	-7
239	0xd8	-40
240	0x06	6
241	0x2b	43
242	0x04	4
243	0x3e	62
244	0xaa	-86
245	0x12	18
246	0xbe	-66
247	0x0f	15
248	0x0f	15
249	0x08	8
250	0x06	6
251	0x00	0
252	0x1e	30
253	0x19	25
254	0xd6	-42
255	0x2b	43

model/conv2d_17/Conv2D i1 [136, 1, 1, 24]
0	0x81	-127
1	0x2b	43
2	0xc0	-64
3	0xfe	-2
4	0x08	8
5	0x28	40
6	0x3c	60
7	0x18	24
8	0xce	-50
9	0x60	96
10	0x6e	110
11	0x09	9
12	0x03	3
13	0x69	105
14	0xf1	-15
15	0xaa	-86
16	0x75	117
17	0x70	112
18	0xb7	-73
19	0x0f	15
20	0x25	37
21	0x1d	29
22	0xf0	-16
23	0xd3	-45
24	0xd6	-42
25	0xf9	-7
26	0x2a	42
27	0x32	50
28	0xf2	-14
29	0xbf	-65
30	0xda	-38
31	0x9d	-99
32	0x09	9
33	0x25	37
34	0xe8	-24
35	0xf4	-12
36	0x15	21
37	0xe4	-28
38	0x81	-127
39	0xd8	-40
40	0xce	-50
41	0xdc	-36
42	0xec	-20
43	0x35	53
44	0x3a	58
45	0xd7	-41
46	0x56	86
47	0xaf	-81
48	0x66	102
49	0x60	96
50	0x13	19
51	0x7f	127
52	0x0b	11
53	0x26	38
54	0x49	73
55	0xfa	-6
56	0xfd	-3
57	0x1d	29
58	0x0b	11
59	0x8e	-114
60	0xef	-17
61	0xdc	-36
62	0x21	33
63	0xf4	-12
64	0xf9	-7
65	0xbf	-65
66	0xa5	-91
67	0xf6	-10
68	0x02	2
69	0xb4	-76
70	0xe1	-31
71	0xbb	-69
72	0xd8	-40
73	0x04	4
74	0xf2	-14
75	0xec	-20
76	0x3d	61
77	0x1c	28
78	0x32	50
79	0x7f	127
80	0xed	-19
81	0xf0	-16
82	0xfc	-4
83	0xc2	-62
84	0x30	48
85	0x31	49
86	0x0e	14
87	0x26	38
88	0xf3	-13
89	0xb6	-74
90	0x0a	10
91	0x1b	27
92	0xb9	-71
93	0x23	35
94	0x22	34
95	0x08	8
96	0x94	-108
97	0x19	25
98	0x97	-105
99	0x0b	11
100	0xea	-22
101	0xde	-34
102	0x81	-127
103	0xa9	-87
104	0xfa	-6
105	0x3b	59
106	0xc9	-55
107	0x45	69
108	0x4f	79
109	0x0f	15
110	0xd7	-41
111	0x1e	30
112	0xec	-20
113	0x8b	-117
114	0x32	50
115	0x1e	30
116	0x13	19
117	0x32	50
118	0x9f	-97
119	0xf0	-16
120	0xd6	-42
121	0xd4	-44
122	0x2e	46
123	0x32	50
124	0xd9	-39
125	0xf3	-13
126	0xbd	-67
127	0xb4	-76
128	0xe4	-28
129	0xf5	-11
130	0xa9	-87
131	0x06	6
132	0x2e	46
133	0xef	-17
134	0xe5	-27
135	0x00	0
136	0x92	-110
137	0x20	32
138	0x4a	74
139	0xdf	-33
140	0xf9	-7
141	0x14	20
142	0x81	-127
143	0xc0	-64
144	0x2b	43
145	0xbf	-65
146	0x11	17
147	0x5b	91
148	0x45	69
149	0x2a	42
150	0x81	-127
151	0xf6	-10
152	0xd5	-43
153	0x52	82
154	0x47	71
155	0xdc	-36
156	0x32	50
157	0x7d	125
158	0x52	82
159	0xc1	-63
160	0xca	-54
161	0xc2	-62
162	0xd5	-43
163	0x21	33
164	0xd3	-45
165	0x0c	12
166	0xe7	-25
167	0xf3	-13
168	0xff	-1
169	0xcd	-51
170	0xbf	-65
171	0x81	-127
172	0x1f	31
173	0xd3	-45
174	0x17	23
175	0x58	88
176	0xd8	-40
177	0xf4	-12
178	0x2a	42
179	0x1b	27
180	0x14	20
181	0x41	65
182	0x08	8
183	0x0d	13
184	0x0f	15
185	0xed	-19
186	0x10	16
187	0xf0	-16
188	0xfb	-5
189	0x18	24
190	0xcb	-53
191	0xe8	-24
192	0xb2	-78
193	0x54	84
194	0x82	-126
195	0xd1	-47
196	0x3b	59
197	0xe7	-25
198	0x3b	59
199	0x6e	110
200	0x3a	58
201	0xef	-17
202	0x7f	127
203	0x0d	13
204	0xdb	-37
205	0x3f	63
206	0xce	-50
207	0x0d	13
208	0x72	114
209	0xc2	-62
210	0xe4	-28
211	0x22	34
212	0xb3	-77
213	0xc6	-58
214	0x47	71
215	0x16	22
216	0x01	1
217	0x48	72
218	0xce	-50
219	0xf9	-7
220	0x26	38
221	0xed	-19
222	0xdf	-33
223	0x31	49
224	0x0b	11
225	0x21	33
226	0xee	-18
227	0xf3	-13
228	0x81	-127
229	0xed	-19
230	0xe4	-28
231	0xf0	-16
232	0xd9	-39
233	0x42	66
234	0x1f	31
235	0xd8	-40
236	0xfa	-6
237	0x22	34
238	0xe9	-23
239	0x31	49
240	0x10	16
241	0x67	103
242	0xf7	-9
243	0x27	39
244	0xca	-54
245	0xff	-1
246	0xee	-18
247	0xb1	-79
248	0xe7	-25
249	0x4b	75
250	0xeb	-21
251	0x81	-127
252	0x24	36
253	0xbc	-68
254	0xdb	-37
255	0x0f	15

model/conv2d_18/Conv2D i1 [24, 1, 1, 136]
0	0xc7	-57
1	0xee	-18
2	0xc9	-55
3	0xe4	-28
4	0x1e	30
5	0xdb	-37
6	0xed	-19
7	0xf5	-11
8	0x01	1
9	0x39	57
10	0x2f	47
11	0xfc	-4
12	0x38	56
13	0xd5	-43
14	0xca	-54
15	0x29	41
16	0x2c	44
17	0x3f	63
18	0xd0	-48
19	0x38	56
20	0xf1	-15
21	0x29	41
22	0xd9	-39
23	0x36	54
24	0x35	53
25	0x37	55
26	0xd4	-44
27	0x06	6
28	0xd6	-42
29	0xe6	-26
30	0x14	20
31	0xd9	-39
32	0xdf	-33
33	0xf5	-11
34	0x17	23
35	0xfc	-4
36	0xe8	-24
37	0xff	-1
38	0xf2	-14
39	0xd1	-47
40	0x51	81
41	0xfd	-3
42	0xe2	-30
43	0x0c	12
44	0xe3	-29
45	0x00	0
46	0xea	-22
47	0xce	-50
48	0x55	85
49	0x5e	94
50	0x27	39
51	0xe6	-26
52	0xc0	-64
53	0xfe	-2
54	0xc7	-57
55	0xe2	-30
56	0x0c	12
57	0x0a	10
58	0x43	67
59	0xc3	-61
60	0x50	80
61	0xd0	-48
62	0xad	-83
63	0x3c	60
64	0xf8	-8
65	0x00	0
66	0xfb	-5
67	0x00	0
68	0xde	-34
69	0x1a	26
70	0xe6	-26
71	0x15	21
72	0x16	22
73	0x1e	30
74	0xd2	-46
75	0x1c	28
76	0xd0	-48
77	0xee	-18
78	0x33	51
79	0x10	16
80	0xf3	-13
81	0xf4	-12
82	0x0d	13
83	0x1e	30
84	0xd2	-46
85	0x02	2
86	0xf5	-11
87	0x2f	47
88	0xa9	-87
89	0x2a	42
90	0xd8	-40
91	0xc6	-58
92	0xce	-50
93	0xe9	-23
94	0x51	81
95	0x08	8
96	0x35	53
97	0x29	41
98	0xe5	-27
99	0x15	21
100	0xf0	-16
101	0x08	8
102	0xc3	-61
103	0x01	1
104	0xfa	-6
105	0xe2	-30
106	0x81	-127
107	0x1a	26
108	0x06	6
109	0x0b	11
110	0xfd	-3
111	0x1a	26
112	0x58	88
113	0xdc	-36
114	0x0b	11
115	0x07	7
116	0x29	41
117	0xf2	-14
118	0x15	21
119	0xa6	-90
120	0x20	32
121	0xe8	-24
122	0x09	9
123	0xea	-22
124	0xed	-19
125	0x07	7
126	0x0f	15
127	0xd9	-39
128	0x47	71
129	0xee	-18
130	0x2b	43
131	0xa2	-94
132	0xf1	-15
133	0x38	56
134	0xdf	-33
135	0x2b	43
136	0x0f	15
137	0x3a	58
138	0x00	0
139	0xc2	-62
140	0xd7	-41
141	0x24	36
142	0xda	-38
143	0xca	-54
144	0x06	6
145	0x2f	47
146	0xd1	-47
147	0x14	20
148	0x3e	62
149	0x3e	62
150	0xaf	-81
151	0x9c	-100
152	0xfd	-3
153	0xad	-83
154	0x11	17
155	0x34	52
156	0xcf	-49
157	0xf4	-12
158	0x49	73
159	0x5a	90
160	0xd0	-48
161	0xfd	-3
162	0xb4	-76
163	0x07	7
164	0x51	81
165	0x6b	107
166	0x9e	-98
167	0x23	35
168	0x1c	28
169	0x34	52
170	0x04	4
171	0xda	-38
172	0xe5	-27
173	0xe3	-29
174	0x31	49
175	0x20	32
176	0x36	54
177	0x55	85
178	0x97	-105
179	0x20	32
180	0xcb	-53
181	0x30	48
182	0x42	66
183	0xdf	-33
184	0xed	-19
185	0xb1	-79
186	0x01	1
187	0x7f	127
188	0x88	-120
189	0x08	8
190	0xcb	-53
191	0x9e	-98
192	0xc8	-56
193	0xd1	-47
194	0x1e	30
195	0xa8	-88
196	0x1f	31
197	0x39	57
198	0xf8	-8
199	0xb9	-71
200	0xb7	-73
201	0xac	-84
202	0x4f	79
203	0x13	19
204	0xdf	-33
205	0xe9	-23
206	0x19	25
207	0x1d	29
208	0xd4	-44
209	0xd9	-39
210	0xca	-54
211	0x43	67
212	0xd5	-43
213	0x53	83
214	0x77	119
215	0xfb	-5
216	0xd0	-48
217	0xed	-19
218	0x0d	13
219	0xb2	-78
220	0x27	39
221	0x0c	12
222	0xd3	-45
223	0x28	40
224	0xfe	-2
225	0x45	69
226	0x2f	47
227	0x34	52
228	0x11	17
229	0xfa	-6
230	0x79	121
231	0x13	19
232	0x5a	90
233	0x0f	15
234	0x04	4
235	0x01	1
236	0xb6	-74
237	0x01	1
238	0x05	5
239	0x4b	75
240	0xf0	-16
241	0xe2	-30
242	0x33	51
243	0x92	-110
244	0xd2	-46
245	0xd5	-43
246	0xba	-70
247	0xc2	-62
248	0x22	34
249	0x1f	31
250	0x3f	63
251	0x6f	111
252	0xa5	-91
253	0xb0	-80
254	0xfd	-3
255	0xf0	-16
