weights/yolo-s_without_quantize.tflite (tflite, 290704 bytes, 50 tensors)

model/batch_normalization_12/FusedBatchNormV3 f4 [96]
000000 6d c7 8f 3f fa 00 61 3f 14 e7 f8 bd dc 42 af 3f
       1.1232735 0.87892115 -0.1215345 1.3692279
000010 e4 b0 0c 40 91 26 d5 be 02 2c 02 be 30 06 00 be
       2.1982965 -0.41630986 -0.127121 -0.1250236
000020 f2 e4 cb 3d 13 90 8c be a0 0c cf 3c 66 c7 82 bf
       0.09955777 -0.2745367 0.025274575 -1.0217102
000030 02 07 27 bd 02 b4 83 bf 1e ee a6 3f 8a c1 1f 3f
       -0.040778168 -1.0289309 1.3041418 0.6240469
000040 65 fa 07 bf b9 97 09 be e5 3f d7 bd d8 0e 59 bf
       -0.53116447 -0.13436784 -0.10510234 -0.84788275
000050 96 8b f2 be 88 e4 14 bd cc 6d 84 3d 02 70 58 be
       -0.4737212 -0.036350757 0.064662546 -0.21136478
000060 e7 84 fe be 9a aa 8e 3d e2 71 26 bf 9c a2 0b bd
       -0.4971077 0.069661334 -0.6501752 -0.034090623
000070 f0 ca 5c 3e 32 67 08 bf b0 c0 c1 bc 83 35 82 3d
       0.2156179 -0.53282464 -0.02365145 0.06357863
000080 2f ca d3 be ce 0e b3 be a1 75 70 3d bd 08 80 3f
       -0.4136519 -0.34972233 0.05870593 1.0002667
000090 52 b0 e6 3e 00 12 29 3e 10 de f6 bd 3c 38 52 bf
       0.45056397 0.16510773 -0.12054074 -0.82117057
0000a0 88 cc bb 3d 50 81 78 bf 5b 6c d4 be 53 70 73 bf
       0.091698706 -0.97072315 -0.4148892 -0.9509327
0000b0 0c 04 3c be 88 1d 99 bf 02 d8 cb 3f 0c fc 32 be
       -0.18360919 -1.1962137 1.5925295 -0.17478961
0000c0 00 bc 35 bd 38 5a 72 3d 80 2c fe bd 57 62 10 bf
       -0.044368744 0.05916807 -0.124108315 -0.56400055
0000d0 3d 96 25 bf e1 76 77 3f c1 3b 43 bf b1 9f 24 be
       -0.6468237 0.9666577 -0.7626305 -0.16076542
0000e0 ab 0f b6 3e d4 2d 24 3e fe 01 de 3e b6 cf 38 be
       0.3555883 0.16033107 0.43360895 -0.18047985
0000f0 b6 60 92 3f 4a 32 ee be 1f e1 be 3f cd 86 d2 3f
       1.1435764 -0.46522743 1.4912452 1.6447388
000100 14 e1 ae bd 10 4a 9a bc 3c e7 85 be 29 ff 1f bf
       -0.08539024 -0.018834144 -0.2615298 -0.6249872
000110 ae e3 1c bf b8 79 97 bd 49 5c 9f 3f 05 8f 03 bf
       -0.6128491 -0.07396263 1.2450038 -0.51390105
000120 c4 69 49 3f 2e db 00 be ea 6d 95 bd 0a bc 26 bf
       0.7867701 -0.1258361 -0.07296355 -0.65130675
000130 7e 54 1e be 9a a6 83 be 84 f6 42 3c 8e ce c9 3e
       -0.15461919 -0.25713044 0.011899594 0.394154
000140 45 2d c6 bd 48 cf 16 3e 1f fb 35 be 80 70 45 3c
       -0.09676603 0.14727509 -0.17771576 0.012050748
000150 df 7d 38 bf 58 e3 0e bf 8f de 85 be 3a cd 72 be
       -0.72067064 -0.5581565 -0.2614636 -0.237111
000160 2f ba 24 3e 74 e7 c2 3e a0 58 d8 bd 72 1d 1b 3f
       0.16086648 0.3806721 -0.10563779 0.60591805
000170 0a 14 d9 be 34 b0 2f be 46 c7 4c 3f 36 30 39 bf
       -0.423981 -0.1715706 0.7999157 -0.7233919

model/batch_normalization_15/FusedBatchNormV3 f4 [96]
000000 4e a7 0d 40 8a d9 93 be d9 a7 61 bf 2e fb d9 be
       2.2133365 -0.28876907 -0.8814674 -0.42574447
000010 6d 3b 17 3f a8 3f d8 3f 90 ce 7a bd 28 ca 2d bf
       0.5907505 1.6894426 -0.06123215 -0.6788659
000020 ab 3a 7a bf 1b 7d 8a bf 24 04 7b 3e 74 6a cf bd
       -0.9774577 -1.0819429 0.24513298 -0.10127726
000030 3a d9 92 be 40 ab 73 be 59 ea ab be 98 aa cb 3f
       -0.28681356 -0.23795795 -0.3357723 1.5911436
000040 99 1f be be 30 ab ef 3f 7a 21 a5 be aa 39 d0 3d
       -0.37133482 1.8724117 -0.32252103 0.101672485
000050 54 fe 73 be de a5 06 be 80 84 5e bf 5a d3 2e bf
       -0.23827487 -0.13149211 -0.8692093 -0.68291247
000060 e7 21 18 3f 02 7f 09 3e 52 00 48 bf c2 ca 74 3f
       0.5942673 0.13427356 -0.7812549 0.95621884
000070 d8 a7 01 3d 04 ef 80 3f 08 1d 14 bf 98 60 a9 3f
       0.03165421 1.0072942 -0.578568 1.3232603
000080 b8 4e b7 3c 9b 0c 97 3f 93 9c c8 3f f3 94 d9 be
       0.022376403 1.1800722 1.5672783 -0.42496452
000090 6e 74 ab be 55 18 23 bf 7c 29 64 3e 5c 01 08 bf
       -0.33487266 -0.63709 0.2228145 -0.53127074
0000a0 b2 0e 96 3f 48 3b 19 bf f0 e9 96 3e f6 e3 a6 bc
       1.1723235 -0.5985608 0.29475355 -0.020372372
0000b0 40 35 7a 3f 6a c0 7e 3f b4 55 a6 3f 32 7c 02 bf
       0.97737503 0.9951235 1.2994905 -0.50970757
0000c0 38 83 17 bf 2a dd 0b be b4 b3 3f 3f aa 0e 45 bf
       -0.591846 -0.13658586 0.7488358 -0.769755
0000d0 ce 1e 0e be 9c c7 11 bf f1 4b 97 3f 04 df 86 3f
       -0.13878939 -0.56945205 1.182005 1.0536809
0000e0 02 f4 b2 bf 4b c7 36 bf 5a 65 5c be 46 60 98 3f
       -1.3980715 -0.71397847 -0.21523038 1.190438
0000f0 cc 0f 55 bf c6 75 96 3f bc d4 91 3f 42 08 71 bf
       -0.8322723 1.1754692 1.1393046 -0.94153225
000100 a6 52 3f bf ca 29 d5 3d 95 aa 85 bf e8 b2 bd 3c
       -0.74735487 0.10408361 -1.0442683 0.023156598
000110 f7 24 1e bf 49 10 b6 bf e2 40 73 bf 26 0c 81 be
       -0.61775154 -1.422372 -0.9502088 -0.2520458
000120 db da 10 bf 58 e8 25 bd e1 1a e8 3e 00 e8 e1 3e
       -0.56583947 -0.040504783 0.45333007 0.44122314
000130 83 8e c8 3e ca c9 0f bf ed 62 b6 be f0 ca c5 3c
       0.39171228 -0.5616728 -0.3562235 0.02414462
000140 08 38 8b 3f a5 ad 36 be 13 36 b2 be c8 49 90 bc
       1.0876474 -0.17839678 -0.3480688 -0.017613307
000150 a8 f5 82 bf 03 b1 32 bf 97 32 a0 bf 73 b4 36 bf
       -1.0231218 -0.6980135 -1.2515439 -0.71369094
000160 38 6b 41 bf 30 1c 60 bf be 52 5d 3f c6 f1 53 bf
       -0.7555423 -0.8754301 0.8645438 -0.8279079
000170 26 28 0d bf ee b5 9a bd 70 75 7e bc a5 3e ab be
       -0.55139387 -0.075542316 -0.015530929 -0.3344623

model/batch_normalization_18/FusedBatchNormV3 f4 [96]
000000 a8 03 79 bd cb 18 6c bf 8e 39 8a bf 44 ec a3 be
       -0.060794502 -0.9222533 -1.0798814 -0.32016194
000010 65 d5 44 3f 6a b0 ca be 25 a8 e0 3e 5a b0 16 be
       0.76888114 -0.39587718 0.43878284 -0.1471571
000020 36 22 9d 3f 9c f6 1d be 46 f7 d6 3e 0a a1 1c bf
       1.2276065 -0.15426105 0.4198553 -0.61183226
000030 e6 64 e6 bf 41 cf 61 bf f6 31 28 be f3 c5 e7 be
       -1.7999542 -0.8820687 -0.16425309 -0.4526821
000040 8c 0e 69 bf 3e 97 91 bf c8 ca 65 3d 9b cb 39 bf
       -0.9103782 -1.137428 0.05610159 -0.725763
000050 d4 2e dc 3d 30 30 49 bc 70 3d 19 bf 88 39 d2 be
       0.10751119 -0.012279555 -0.5985937 -0.41059518
000060 d4 5b 10 bf 7c d9 88 be 88 8c ac be 40 0c 88 bf
       -0.5639012 -0.26728427 -0.33700967 -1.0628738
000070 d6 44 3b bf d3 4e 52 bf 50 21 39 bf 58 64 a1 3f
       -0.7315191 -0.82151526 -0.72316456 1.2608747
000080 62 ef 2d bf 66 fa b3 bf f8 80 01 bf a2 c1 7b bf
       -0.67943394 -1.406079 -0.50587416 -0.98342335
000090 f7 9f e8 3f 3c 22 d9 3d 7c db e2 3d a5 40 fe be
       1.8173817 0.10602233 0.110770196 -0.49658695
0000a0 63 fd 37 3f e8 cb 98 3f 95 61 f6 be 38 d7 24 be
       0.7187101 1.1937227 -0.48121324 -0.16097724
0000b0 b7 40 1e bf de 81 cb 3f a2 20 ad bf 3a 5d 68 3f
       -0.61817497 1.5899007 -1.3525584 0.9076725
0000c0 0e 0d e6 be 98 60 06 3f a5 86 45 bf ef 1c 18 bf
       -0.44931835 0.5249114 -0.77158576 -0.5941915
0000d0 4a d4 7e 3f a4 d6 85 3e 77 32 b8 3f 4c 60 5b 3e
       0.9954268 0.2614032 1.4390401 0.21423453
0000e0 4d ab 3a bf 42 81 84 be 5d 0e 42 3f a8 91 70 3d
       -0.72917634 -0.25879866 0.75803167 0.05873266
0000f0 4a 74 05 be df 07 89 3f e6 9b 75 be e8 32 9a 3d
       -0.13032642 1.0705527 -0.23985252 0.07529241
000100 95 a2 43 bf 16 ac 38 be c8 42 2a be f8 c7 f1 3c
       -0.76419955 -0.18034396 -0.16627038 0.029514298
000110 1a 79 5a bf 73 e0 8c bf 70 45 a1 3d d1 08 01 bf
       -0.85341036 -1.1005996 0.07874572 -0.5040408
000120 4f 23 de be 7b 87 99 3f 4e a7 ce 3f de ac 6a bf
       -0.43386313 1.199447 1.6144807 -0.91670024
000130 14 22 8c be af 50 20 be 65 05 92 3d 48 8d f0 3e
       -0.2736975 -0.15655778 0.07129935 0.4698279
000140 07 8e cf 3f c4 2a 14 bf 75 69 3f bf e2 be a0 3d
       1.6215218 -0.57877755 -0.7477029 0.07848908
000150 2c 49 7f bf 04 fe e7 3f 01 6d 73 bf 5d 3a 58 3f
       -0.99721026 1.8124394 -0.950882 0.84464055
000160 b8 97 5f bb 07 7d 63 bf e8 ca 9c bd 48 3e 9d 3f
       -0.003411753 -0.8886265 -0.07655889 1.2284632
000170 dc 60 8e 3f ef 8d d6 be 84 67 25 bf 62 9b c0 3f
       1.1123309 -0.41905162 -0.6461108 1.5047419

model/batch_normalization_2/FusedBatchNormV3 f4 [8]
000000 d2 f6 17 c1 5c bb b6 bf 58 f8 39 3d 18 fb e9 3d
       -9.497759 -1.4275928 0.045402855 0.114248455
000010 03 02 86 be 7d 7f 1c 40 54 40 32 3f 08 43 cc 3d
       -0.2617341 2.4452813 0.69629407 0.09973723

model/batch_normalization_21/FusedBatchNormV3 f4 [128]
000000 b2 e8 c0 3f 54 5f 73 3f cf 60 a5 3f 54 06 17 bf
       1.5071013 0.95067334 1.2920169 -0.5899403
000010 ae 4a a8 3f 3c 0b 23 be dc 52 2d bf 8c f0 28 bf
       1.314779 -0.15922254 -0.6770456 -0.65992045
000020 f2 41 31 3f b0 a8 a8 be 54 69 fa 3f 2a 12 6f be
       0.6924125 -0.32941198 1.9563394 -0.23346773
000030 6c c5 27 bf bd 21 75 3f 00 26 f6 bf 3a cf 94 bf
       -0.65535617 0.95754606 -1.9230347 -1.162574
000040 d4 26 1d bf 87 b5 51 bf 1c fc 8c 3f 66 f2 94 3f
       -0.6138737 -0.81917614 1.1014438 1.1636474
000050 6e d0 1b bf 80 1f 02 bd 6c cb 8f 3f bd af 7d 3f
       -0.60864913 -0.031768322 1.1233954 0.9909628
000060 c8 3a 07 bf ca 0d 83 3f ed 3c b2 3f 54 b5 b0 3f
       -0.5282407 1.0238583 1.3924843 1.3805337
000070 94 6c b2 3d 3c 39 91 be c0 cf cd bb bd a0 4e bf
       0.08712116 -0.2836398 -0.0062808692 -0.8071402
000080 e3 7c 49 3f 02 10 cb be 6c ab df be 5e 92 48 bf
       0.78706187 -0.3966065 -0.43685472 -0.7834834
000090 bc ad a8 3f ac 8a ad 3f 77 64 98 be f7 8d 87 3f
       1.317802 1.3557944 -0.2976415 1.0590199
0000a0 04 14 93 be a3 3c 2a bf 9f 8d 80 be 84 56 61 be
       -0.28726208 -0.66498774 -0.25108048 -0.2200566
0000b0 ce 6c 8a bd 59 91 03 3f 1c c1 e3 3f 94 0a 52 be
       -0.06759034 0.5139366 1.7793307 -0.20511848
0000c0 16 a1 1a bf 2a 34 31 bf b5 be 01 bf 11 4a 3c 3f
       -0.6040205 -0.6922022 -0.5068162 0.73550516
0000d0 0c 0e a4 3f e1 a0 2c bf 06 c7 5f bf b6 5e d4 be
       1.2816787 -0.6743298 -0.8741306 -0.4147851
0000e0 40 9a 3d 3d 4e 7d af bf 0c 3c a3 bd 2f 39 a4 bf
       0.046289682 -1.3710115 -0.079704374 -1.2829951
0000f0 8e 7c a8 3f c7 90 59 bf 31 40 bb 3f fe e9 85 3f
       1.3163011 -0.8498654 1.4628965 1.0462034
000100 bf 29 0b c0 71 17 9d bf da 63 a2 c0 95 77 f0 be
       -2.174423 -1.2272779 -5.074689 -0.46966234
000110 24 a9 91 3f 8e 26 a4 be d3 f7 73 3f 58 9e 92 be
       1.1379743 -0.32060665 0.95300025 -0.28636432
000120 b3 fa 1f bf da 17 95 3f f5 88 7a 3f 6b f9 92 3f
       -0.6249191 1.1647904 0.9786523 1.1482366
000130 5e 64 88 3f 10 ad 1f bf a7 57 30 3f 4c 7a 8f 3f
       1.065563 -0.6237345 0.68883747 1.1209197
000140 fc ae f0 3e 52 be 68 3f 95 96 4d bf e1 6a b1 3f
       0.47008502 0.90915406 -0.80307895 1.3860742
000150 88 f3 c9 3f 6e 23 24 bf a8 05 d1 3f 10 80 93 bc
       1.5777445 -0.6411656 1.6329851 -0.0180054
000160 c4 9b e7 be 53 7f b3 3e 6f 3e d1 3f fd 5e 2b bf
       -0.45236027 0.35058078 1.6347178 -0.66941816
000170 47 03 53 3e 5f 45 2e 3f ea 0b ab 3f 7e 3c cc 3f
       0.20606719 0.680746 1.3363011 1.5955961
000180 c4 b6 0d bf ad 1c 87 be 76 46 00 bf 4b 49 96 bf
       -0.55357003 -0.26389065 -0.50107515 -1.1741117
000190 10 f1 93 bc 00 69 03 bf 14 f9 ef be 17 2d 8b 3f
       -0.018059283 -0.5133209 -0.4686972 1.0873135
0001a0 1f b0 91 bf 98 8f 48 bf 83 c3 ba bf c0 5c cd 3e
       -1.1381873 -0.78344107 -1.4590915 0.40109825
0001b0 4e 1e ee be f0 fe ba 3f ab 14 4e be f2 72 71 bf
       -0.46507496 1.4609051 -0.20125072 -0.9431602
0001c0 3d f8 0f bf fa 3e 8a 3f 8d ad 6f bf 5d 82 05 3e
       -0.56238157 1.0800469 -0.9362419 0.13038011
0001d0 25 61 64 bf 05 2d 46 bf 3d 07 91 3f df 55 07 bd
       -0.8921073 -0.77412444 1.1330334 -0.033040877
0001e0 dc c6 56 3f 2f 84 d1 be 88 24 81 3f cf c3 3a 3f
       0.83897185 -0.4092116 1.0089273 0.7295503
0001f0 d8 54 cc be bd 51 88 3f 25 e7 e0 3f a6 1b b3 3f
       -0.3990848 1.0649945 1.757054 1.3992813

model/batch_normalization_6/FusedBatchNormV3 f4 [48]
000000 82 26 9b 3e aa ae 4b 3f 34 80 04 40 d2 42 7d 3d
       0.30302817 0.7956339 2.070325 0.061831303
000010 2a d5 34 bf 3a 98 c3 3f 29 ea b3 3e 8e 47 b6 bf
       -0.7063776 1.5280831 0.35139588 -1.4240587
000020 81 c9 1b 3f e0 eb 94 bf 02 9e a1 bf fa da 13 3d
       0.60854346 -1.1634483 -1.2626345 0.036097504
000030 f0 73 27 3f 60 c9 4a be 01 8d 50 3f 58 b6 b3 3f
       0.6541128 -0.19803381 0.81465155 1.4040022
000040 2c 05 46 3f 36 36 3e 3f 14 9f 3e be c0 f9 cd bc
       0.7735164 0.7430147 -0.18615371 -0.025143504
000050 56 66 67 3e 0a 70 07 3f 15 fa f4 3d 6e f4 b0 bf
       0.22597632 0.52905333 0.11961762 -1.3824594
000060 c4 5f 89 3d d2 c7 87 bd 94 02 cb 3e 69 d6 e1 bd
       0.06707719 -0.066299096 0.39650404 -0.110272236
000070 b3 ad a8 3d b2 4f 99 bf 7a 34 c7 3e a4 89 fc 3d
       0.082362555 -1.1977446 0.38907224 0.1233094
000080 66 2d bd be 29 7b 07 be c0 0a 21 c0 9c f8 94 3e
       -0.369487 -0.13230576 -2.5162811 0.29095924
000090 98 c1 41 3c 84 e3 e5 3f f0 2f 33 bc 78 25 af be
       0.0118259415 1.7960057 -0.010936722 -0.34208274
0000a0 f4 af 92 3f 3b 73 aa be 9e c4 19 bc f3 82 c1 3f
       1.1459947 -0.3329104 -0.009385256 1.5118088
0000b0 9c c9 8a 3d 68 df 6c 3f 40 7a 22 bc 58 a5 f5 3d
       0.06776735 0.9252839 -0.009916842 0.119944274

model/batch_normalization_9/FusedBatchNormV3 f4 [64]
000000 f2 79 04 3f 3f 70 9a 3f 70 29 b7 3d a8 eb 66 3d
       0.51748574 1.2065505 0.089434505 0.056377083
000010 5e e9 0f 3f 3c 13 4a 3e 30 45 ff bd 39 59 94 3f
       0.56215465 0.197339 -0.12464368 1.1589729
000020 ae b1 01 40 f4 c0 12 3d 00 bc c7 3e ce 5d 0a 3f
       2.0264697 0.035828546 0.3901062 0.54049385
000030 bd fa f6 3f 60 fe 5b be 1e b1 8c bf 01 25 02 40
       1.9295269 -0.21483755 -1.0991552 2.0335085
000040 cc aa 10 40 29 08 08 40 d8 55 e3 3e 4c 25 4a bf
       2.2604246 2.125498 0.4440143 -0.7896316
000050 d8 03 82 bd 08 e6 d8 3d 4a bc 8a 3d c4 8c 86 3e
       -0.063483894 0.1059075 0.067741945 0.2627927
000060 60 96 91 3f 14 1c 99 be 21 1a 7a bf 1c 35 16 40
       1.1374016 -0.29904234 -0.9769612 2.3469915
000070 68 26 a3 3d 4a e0 13 bf 50 1e 9d 3f 90 eb ac 3d
       0.0796631 -0.5776411 1.2274876 0.084433675
000080 36 94 85 40 92 83 b1 3f 98 ce 63 3e 2b e7 51 3f
       4.174342 1.3868277 0.22246778 0.8199336
000090 30 ff 44 bd a4 97 4d 40 96 ed 40 40 17 8d 59 bf
       -0.04809493 3.2123804 3.014501 -0.8498091
0000a0 38 2e 49 40 18 fb 29 bd 00 40 cd 38 f2 7d 81 bf
       3.143446 -0.041499227 9.787083e-05 -1.011656
0000b0 3f 12 1b 40 cc 0d 50 bf e2 6f 07 40 e4 35 7b 3e
       2.4229887 -0.8127105 2.1162038 0.24532276
0000c0 30 c6 8a 3e 50 fc d0 be f6 42 00 40 a6 27 9f 3e
       0.2710433 -0.408175 2.004087 0.31084937
0000d0 fd d1 cc 3f b6 5b 56 40 46 de 2d be d2 19 19 40
       1.6001583 3.3493476 -0.16979322 2.392201
0000e0 5d 13 d4 be 40 dc 01 be ab 80 04 40 7a 67 30 3f
       -0.41421023 -0.12681675 2.0703533 0.6890789
0000f0 f4 e5 6b bf b8 e6 bd 3d ba 63 8d be f8 c0 ec 3f
       -0.92147756 0.09272522 -0.27615148 1.8496389

model/conv2d/Conv2D f4 [8, 3, 3, 1]
000000 2a d5 89 3f 73 b9 1d 41 61 df 4c 40 27 97 23 c1
       1.0768178 9.857776 3.201134 -10.224402
000010 71 a4 49 3f bf 71 13 41 7e c4 be c0 83 aa 1a c1
       0.7876654 9.21527 -5.961486 -9.666629
000020 63 39 97 3f c8 2d 86 c0 4e ea 06 bf 74 f4 47 40
       1.1814388 -4.1930885 -0.5270127 3.1242952
000030 14 e9 fb c0 ff 3f 0b 40 4b 12 c0 40 86 6c 1e c0
       -7.872202 2.175781 6.002233 -2.4753737
000040 36 c4 0d 40 25 63 c5 3f bc 98 32 3f f6 58 0e 3f
       2.2151008 1.5420882 0.69764304 0.55604494
000050 82 2e eb 3e d9 86 a9 3e 24 d7 94 3e fe 04 b4 3f
       0.4593392 0.33110693 0.2907039 1.4064023
000060 e6 13 2b be 5a 9d aa be 9c de 2b 3f f2 61 04 40
       -0.1670681 -0.33323175 0.6713655 2.068478
000070 83 93 51 41 a8 50 80 be a3 c0 d3 bf 9b a2 02 41
       13.098514 -0.25061536 -1.6543163 8.164699
000080 47 65 cc c0 a5 4b fa c0 41 6b 90 c0 b7 60 3b c0
       -6.387363 -7.821734 -4.5130925 -2.927778
000090 b9 09 3c 3e 4b 48 10 40 1f 98 5c bf 7e 12 6a 3e
       0.18363084 2.2544124 -0.8616962 0.22858617
0000a0 c5 48 b0 3f 7c d5 15 c0 73 4a de be a4 7b a3 c0
       1.3772207 -2.341155 -0.43416175 -5.108843
0000b0 42 f3 72 c0 81 1a b6 3d c8 f9 ae c0 e3 32 07 bf
       -3.7960973 0.08891774 -5.467991 -0.5281202
0000c0 82 3c 84 be a4 61 df c0 45 2a 9e 40 79 84 b5 3e
       -0.25827414 -6.980669 4.94266 0.3545263
0000d0 74 22 10 c0 e5 39 1a 40 fd ef 4b bf fb 5f 49 bf
       -2.2521029 2.4097836 -0.7966307 -0.7866208
0000e0 86 c1 d1 be b7 c3 19 bf 6d 30 ff be 8f 9a fc bf
       -0.4096796 -0.6006426 -0.49841633 -1.9734668
0000f0 5b 57 0f be 6a 68 21 3f ad 93 2f bf e7 c6 71 40
       -0.13998167 0.6304995 -0.6858471 3.777765
000100 c7 40 b8 40 b7 92 f1 40 47 4b 99 40 cd 57 a0 c0
       5.7579074 7.5491595 4.790439 -5.010718
000110 7e c6 0c 3f 91 35 44 c0 b7 3b 44 c1 55 b4 2a c0
       0.54990375 -3.0657694 -12.264579 -2.6672566

model/conv2d_1/Conv2D f4 [8, 1, 1, 8]
000000 3b 4e 33 be 97 28 80 3e 80 3c 46 3d ad f4 d6 bc
       -0.17510311 0.25030968 0.04839754 -0.026239717
000010 6c 71 e6 bd ce 68 1c 3e b4 ab 1a bd 20 38 92 bd
       -0.11252102 0.15274355 -0.037761405 -0.07139611
000020 02 8f 94 be ea 99 1b 3f ae 4b 46 be 2f 5d a7 bd
       -0.29015356 0.6078173 -0.19364807 -0.0817207
000030 23 b5 a5 be b8 5c 68 3e 66 06 2c 3e ee 23 26 be
       -0.3236476 0.2269162 0.16799316 -0.16224644
000040 9f 53 76 bc 4f 8f 2c 3c 1e 0d c6 be 7f 7b ed bc
       -0.015034585 0.010532214 -0.38681883 -0.028989552
000050 8b f0 87 3e 68 2d 89 3d be 57 db 3e 2e 79 5b 3d
       0.26550707 0.06698114 0.4284038 0.053582363
000060 bd a8 2f 3e 50 52 87 3e 91 be 30 3c 24 f9 b6 3f
       0.17154212 0.26429987 0.010787622 1.4294782
000070 a3 bb d7 3e ad 27 1e bf d7 db 1f 3e 2c b4 ab bf
       0.42135343 -0.6177929 0.15611206 -1.3414359
000080 75 90 69 bf dd a9 e3 be 7c aa c7 bd 67 c6 23 be
       -0.9123605 -0.44465533 -0.09749314 -0.15993653
000090 c2 87 dd 3d bc 94 01 be 0e b2 db 3e f7 d0 62 be
       0.108169094 -0.12654394 0.42909282 -0.22150026
0000a0 2f 8b db 3c db b3 42 3c f5 f2 13 bf d0 f4 0c bd
       0.026799766 0.011883701 -0.577926 -0.03441316
0000b0 3d ce 66 3e c9 cf a9 3d 90 8f 14 3f d8 7b 3d 3a
       0.22539611 0.08291585 0.5803156 0.0007228232
0000c0 dc 8b 4e bf 29 ac 20 be 01 25 e4 bc f5 06 15 3f
       -0.8068216 -0.15690674 -0.027849676 0.5821374
0000d0 c0 a9 2b 3f 00 cd 28 bf c4 80 3c 3d 3b 12 77 3f
       0.6705589 -0.65937805 0.046021238 0.9651219
0000e0 35 5d 70 bc 81 79 ed bd 49 74 7c 3e ef 07 cd bf
       -0.01467066 -0.11595441 0.24653734 -1.6018046
0000f0 0b 54 d9 be 4d 5e 4b 3f 69 95 94 be 22 30 c0 3f
       -0.42446932 0.79440767 -0.2902024 1.5014689

model/conv2d_2/Conv2D f4 [4, 1, 1, 8]
000000 bf 2c 30 3f 4f 32 3a 3f 03 19 86 3e 4a 4e 2c bd
       0.6881828 0.72733015 0.26190957 -0.04206685
000010 db 8e d1 be 08 a5 24 3f 5b 67 5b 3f c2 7b a8 3c
       -0.40929303 0.6431432 0.8570458 0.020566825
000020 d3 ae 14 be f4 47 75 be dd fe eb 3e 3f d5 7a be
       -0.14519815 -0.23953229 0.46092883 -0.2449541
000030 58 20 7c 3d db ca d3 bf f6 4b 0d 3f 94 97 7a be
       0.061554283 -1.6546282 0.5519403 -0.24471885
000040 aa 79 2b 3f 60 cd 37 3f a1 2c 3f bf 0f 47 7e bd
       0.6698252 0.7179775 -0.74677473 -0.062079486
000050 9e 17 30 bf 81 df b0 be 1b e2 85 be fe 8d cd bc
       -0.68786037 -0.3454552 -0.26149067 -0.025092121
000060 f5 ff 48 bd f4 d4 fb bc 79 b5 5c 3e 69 6f 87 bf
       -0.049072225 -0.030741192 0.21553601 -1.0580875
000070 f2 26 90 be 49 5a 4f bd 42 da af 3e 67 68 7d bf
       -0.28154713 -0.050623212 0.34346205 -0.9898743

model/conv2d_3/Conv2D f4 [8, 3, 3, 4]
000000 f5 dd 2b bc c7 06 11 3d 5e 99 63 bc 6e 0e b6 bc
       -0.01048993 0.035406854 -0.013891546 -0.022223677
000010 6f 71 82 bd 83 66 0d bd 39 22 6e bd a9 0c bc 3c
       -0.06369292 -0.03452159 -0.058138106 0.022955256
000020 eb 5d a8 3d 4e 27 ed 3b 27 80 ad bd e3 42 39 bd
       0.082210384 0.0072373515 -0.08471709 -0.045229804
000030 02 e6 36 bc 6e f2 85 bc 90 58 58 bd fa 23 9a bc
       -0.011163237 -0.016350951 -0.052818835 -0.018815983
000040 65 92 78 bd e3 d6 aa bd 71 21 c3 bd 04 b6 75 3d
       -0.060686488 -0.08341768 -0.09527863 0.059988037
000050 83 a8 5a 3e dc e4 aa bd 1f af 20 be 41 a3 bb bd
       0.21353345 -0.08344433 -0.15691803 -0.091619976
000060 6e ce 6d bc 42 c4 89 bd 03 88 41 bd dc da 21 3c
       -0.014514549 -0.06726886 -0.04724885 0.00987884
000070 b3 73 44 3c a0 eb 33 bc 38 3c 84 bd 4c 98 a0 3c
       0.0119904755 -0.01098147 -0.06456798 0.01960387
000080 b3 d6 ea 3d 7f 64 8d bb b6 a7 6d bd 09 98 89 bd
       0.11466732 -0.0043149586 -0.05802127 -0.067184515
000090 f5 90 44 bc b1 eb 7a 3c d4 0d 47 bb a3 67 f8 3b
       -0.011997451 0.015314982 -0.0030373232 0.007580714
0000a0 bc 2b 08 bd a1 9c 95 bd 2b f4 b3 3b 5c 53 a2 bd
       -0.033244833 -0.07305265 0.0054917536 -0.07926056
0000b0 3c 85 41 bd f3 9e 73 bc 0f 26 26 bd f4 cc e7 3d
       -0.047246203 -0.014869439 -0.04056364 0.113183886
0000c0 8c 25 38 bd 09 34 07 3c 40 38 81 3b 4b 07 ce 3c
       -0.044957682 0.008252152 0.003943473 0.025149962
0000d0 f6 0c b3 bd 60 7b 8e bd bf 79 2c 3d 8d 2a 76 be
       -0.087427065 -0.06957126 0.042108294 -0.2403967
0000e0 b1 13 80 bd d0 2b 1b be f8 40 a1 bd 98 1b 85 3e
       -0.06253756 -0.15153432 -0.0787372 0.25997615
0000f0 cc 96 2d bd d8 b7 a7 bc ff 6e d7 3b 05 b0 43 3d
       -0.04238014 -0.020473406 0.006574511 0.047775287
000100 28 93 74 bd 8c 91 e6 3c 48 1b 50 3d 64 e7 5a be
       -0.05971065 0.028145574 0.050807267 -0.21377331
000110 3b ce 6d bd a3 8c 1a bd 09 10 65 39 d8 1a 1b 3e
       -0.058058005 -0.037731778 0.00021845115 0.15146959
000120 bc f5 40 bc 61 b5 b8 3c 54 6b e5 bc ce 05 68 bc
       -0.011777338 0.022547426 -0.02800528 -0.01416154
000130 19 a1 88 bd b1 aa d6 bc 05 29 20 bd fd a0 b2 bd
       -0.06671352 -0.026204439 -0.03910162 -0.08722112
000140 39 20 c8 bc 3a 88 43 3d 02 9e 5c bc a1 a4 59 3c
       -0.024429427 0.047737338 -0.013465406 0.0132838795
000150 c4 4b 47 bd 70 4a e7 bc ae 8f 44 bd c9 34 0a 3d
       -0.04865624 -0.028233737 -0.047988586 0.033741746
000160 a5 58 90 3c 43 5b c4 bd 67 f7 18 be c0 cc 7f be
       0.017620394 -0.09587719 -0.14938127 -0.2498045
000170 d5 55 83 bd ee ca 60 3e aa 3f 49 3c fb 65 e2 bc
       -0.064128555 0.21952412 0.012283245 -0.027636519
000180 d9 41 6d bd 19 4c 29 bd b5 e3 70 bc 4a 8a 2a 3d
       -0.057924125 -0.041332338 -0.014702727 0.04163579
000190 ff b1 9b 3d 71 0e d7 bd 0a f9 01 be 05 4d 29 be
       0.076023094 -0.10500801 -0.12692657 -0.16533287
0001a0 13 2f 83 b8 c0 d1 af 3d d7 87 26 bd 3b ae b6 bc
       -6.255335e-05 0.085849285 -0.04065689 -0.022299876
0001b0 53 d9 ea bc 3b 2d a7 3c 44 95 58 bd 78 57 1f bd
       -0.028668081 0.02040731 -0.052876726 -0.038901776
0001c0 e3 29 bf bd ba ed b4 bc 70 ba b5 bd 6e 52 03 3d
       -0.09334161 -0.022086013 -0.08873451 0.032061033
0001d0 fd c3 0f 3d 2c 82 ff 3c 40 91 9f bd d3 d4 c9 bc
       0.03509902 0.03119 -0.07791376 -0.024637615
0001e0 5b a0 87 bd 28 79 75 3d 8a e6 95 bd 3f e4 78 bd
       -0.06622382 0.059929997 -0.073193625 -0.060764547
0001f0 f9 1f 3f be 09 14 60 3e cb ba 9e bd 64 4a 4e 3c
       -0.1866454 0.21882643 -0.07750472 0.012590978
000200 74 b9 5f 3d 79 d1 f4 3d 90 f8 eb bd 0b da ac bd
       0.05462022 0.11954016 -0.11522019 -0.08440026
000210 61 ec 57 bd 47 78 03 3d 2b 9d fe bc 9c 24 8f bc
       -0.052715663 0.032097127 -0.031080803 -0.017473511
000220 e7 88 b6 bd 34 2e 5c 3e 9c 0e 07 bd 8c 2b 4f 3b
       -0.08912831 0.21502 -0.032972917 0.003161165
000230 62 71 8b 3c b4 97 01 3e 85 ee 4f bd 2d aa 7b bd
       0.017021839 0.12655526 -0.05076458 -0.06144159
000240 b8 3c 8c 3d 24 37 26 3d 56 00 8e 3d 61 5c 45 3b
       0.06847519 0.04057993 0.06933658 0.0030114877
000250 d2 88 9a bd 91 9b 1b bd 4a 3b 03 3e 0e 5f 02 3d
       -0.07545628 -0.037990157 0.12815586 0.031828932
000260 d5 73 87 3d a9 1a 94 3d c2 17 43 3d c5 31 35 bb
       0.0661389 0.072316475 0.04763008 -0.0027648073
000270 17 7f 67 3c f2 62 00 3d e6 6e 17 3e 69 15 02 bc
       0.014129422 0.03134436 0.14788398 -0.007939675
000280 e8 1b 92 bd 15 21 1e be b9 8c 46 3e 41 ef cc 3d
       -0.07134229 -0.15442307 0.19389619 0.100065716
000290 d0 f2 4b 3e bd 7a c8 3d 9f a9 c4 3d 19 7d 92 3c
       0.19916844 0.097890355 0.09602665 0.017881917
0002a0 6a 5d b9 bd f2 79 86 bb b0 87 cf 3d 2d ce 34 3c
       -0.090510204 -0.0041038925 0.10133302 0.011035484
0002b0 f3 ef 15 3d 83 4c ea bd 8e 3a 89 3d a6 67 69 3d
       0.036605787 -0.11440375 0.067006215 0.056983612
0002c0 f5 b5 30 3e cb 2c f1 3c 67 34 da 3c 0e 8a 26 3d
       0.17256911 0.029440304 0.026636316 0.040659003
0002d0 b4 24 e0 bb ae cd a6 bd b4 d7 57 bd f9 15 97 3c
       -0.006840313 -0.08144699 -0.052695945 0.018443095
0002e0 c2 50 bd 3c ea ef f0 bc 07 4f 16 be 70 39 bb 3c
       0.023109797 -0.029411275 -0.14678584 0.022854537
0002f0 4d 99 97 bd 6c dc cc 3b 7d ff f2 bc 15 fc 9b bc
       -0.07402287 0.0062518623 -0.029662842 -0.0190411
000300 d8 65 93 bd 3c da df 3d cd 85 47 3d b7 5c 28 bd
       -0.071971595 0.10930297 0.048711587 -0.041104045
000310 c6 7b 0c 3a b1 61 50 be eb a6 7a be b3 b8 18 3e
       0.000535902 -0.20349766 -0.24477737 0.14914207
000320 2b 38 b5 bd 69 3f 6d bc a0 d5 d7 bd 3a 26 47 bd
       -0.08848604 -0.01448045 -0.105387926 -0.04862044
000330 e5 d6 cf bd ee 9b 9f 3e 09 62 fb 3d 0d b5 f5 bd
       -0.1014841 0.31173652 0.12274558 -0.11997423
000340 59 ce 11 be b9 1c d9 3d 29 f3 f9 3b 8a 7d 9d 3d
       -0.14238872 0.106011815 0.007627864 0.0768996
000350 0c 5e fd bc 74 da 25 3d 20 f2 71 bd 56 32 8b bd
       -0.030928634 0.040491536 -0.0590688 -0.0679671
000360 0f dd 88 3b ba 41 1f bd 15 82 22 3c 42 1b 2d 3d
       0.004176743 -0.03888104 0.009918709 0.042262323
000370 52 95 dd 3d 04 4e c8 3b bf 50 2f bc f0 df d0 bc
       0.10819496 0.006112816 -0.010700404 -0.025497407
000380 f2 e8 b9 3d 13 54 63 3d 9f 5e 86 bc 40 27 0f 3d
       0.09077634 0.0555001 -0.01640254 0.03494954
000390 31 45 b9 3c 5c 79 0e 3d 8f 9e 42 3d 14 b1 0a 3d
       0.022616 0.034783706 0.047514495 0.03386028
0003a0 62 6d 78 3e 65 e7 be 3d ac 76 a0 bc ef e3 c6 bd
       0.24260476 0.09321479 -0.019587837 -0.09711444
0003b0 0c b4 33 3e 8b 16 57 3d 05 44 a1 bd be 7a 80 3d
       0.17549151 0.052511733 -0.07874302 0.06273411
0003c0 01 2f 1b 3d 94 5f b4 3d eb 8f 3a 3d 91 c8 dc 3b
       0.037886623 0.088072926 0.045547407 0.0067377766
0003d0 2e 17 e6 3d 7b f1 18 3e 74 b4 0e 3d be 6b 9b bd
       0.1123489 0.14935867 0.034840062 -0.075889096
0003e0 fc 46 86 3d 5d 5b 83 3d de 9a 23 bd 88 e7 41 3d
       0.06556508 0.064139105 -0.039942615 0.047339946
0003f0 27 18 f9 bb cb f1 5d bc b8 c4 42 3c 7e 5b 01 3d
       -0.007601756 -0.0135464175 0.011887722 0.031581394

model/conv2d_4/Conv2D f4 [48, 1, 1, 8]
000000 98 77 e8 3d 3e 5f 3c be fb 9b 4f 3d 01 d0 61 3e
       0.11350936 -0.18395707 0.050685864 0.22052003
000010 5a 2e 4a 3d e7 de 03 bc 84 f2 29 3e 66 73 c7 3e
       0.04936061 -0.0080487495 0.16596419 0.3895523
000020 70 c7 48 be 06 2c f2 3e d4 af c6 be ec a2 2d be
       -0.1960733 0.47299212 -0.3880602 -0.16956681
000030 28 3d 2a bd 44 98 8d 3f df 36 3f be 46 6a f5 3c
       -0.04156223 1.1062093 -0.18673275 0.029957902
000040 39 df 99 bd 3e e4 4a be 21 2e 92 be 41 b0 92 be
       -0.075132795 -0.1981363 -0.2855082 -0.28650096
000050 a6 eb 65 3e e8 8e ee 3c 3a b9 9c bd 21 79 14 be
       0.22453174 0.029120877 -0.07652517 -0.14499332
000060 39 39 4a 3e c4 6b 12 bf 4d be 08 3f 96 7e c7 be
       0.19748391 -0.5719569 0.53415376 -0.38963765
000070 35 a5 ae 3d 6b c5 ef 3e 1e a8 12 be 66 94 9c be
       0.085276045 0.46830305 -0.14321944 -0.3058197
000080 16 63 2d 3e f2 c7 8a 3e 7c 39 a9 3d 46 7b b0 3e
       0.1693233 0.2710567 0.082629174 0.3446905
000090 83 b1 d2 3e 3f 8f 5e 3d 63 9e 07 bf 14 b3 1f 3a
       0.41151056 0.05433583 -0.52976054 0.00060920534
0000a0 34 b1 b8 be 12 4b 48 be 1b 3d b6 be 02 60 0b bf
       -0.36072695 -0.19559887 -0.35593495 -0.5444337
0000b0 b8 57 2b 3f 07 89 c0 be ac 72 59 3e e3 67 65 bd
       0.66930723 -0.37604544 0.2123515 -0.056007277
0000c0 ea b1 ed be 22 fa 34 3e 54 76 04 be eb 69 38 be
       -0.464248 0.17673543 -0.12935764 -0.18009154
0000d0 48 44 c6 bb 29 74 d2 3d 68 8a 52 bf 33 f3 21 3e
       -0.00605062 0.10276062 -0.8224244 0.1581543
0000e0 ca 71 07 be ad 91 0f 3e 97 b2 b2 3c 2a 1a 61 3d
       -0.13227001 0.14020415 0.021813674 0.054956593
0000f0 df 75 2c 3d d1 1d 99 bd 57 42 c8 3d 69 10 fa be
       0.042104598 -0.0747639 0.09778278 -0.48840645
000100 76 8d cd 3d cb 09 a3 be 75 00 db bd b7 51 ca be
       0.10036747 -0.3184341 -0.106934465 -0.39515468
000110 ea 21 10 be 59 df 23 3e 29 ec 20 3d 42 b2 4a 3f
       -0.14075437 0.16003169 0.03928772 0.7917825
000120 4c 1d d6 be 9c d2 04 3f 84 d4 ff bd b5 1f 8f bc
       -0.41819227 0.51883864 -0.12491706 -0.017471174
000130 35 32 c1 3d 91 9f d4 bc a0 79 9b 3d 44 d3 45 bf
       0.09433404 -0.025954993 0.075915575 -0.7727549
000140 81 da ca be 57 68 a6 3e fa cf 67 bd 0d a3 41 3c
       -0.3961983 0.3250148 -0.056594826 0.0118186595
000150 c5 77 43 bd 80 66 59 3c 2b 09 b5 3b 45 57 f9 be
       -0.047721643 0.013269067 0.0055247745 -0.48699394
000160 35 db b1 3e e2 29 57 3f 60 e1 5e bf 8c 0f ec 3e
       0.34737554 0.84048283 -0.87062645 0.4610561
000170 d6 92 a0 be cf 63 ad bd 21 06 83 3c 71 80 ab 3d
       -0.31362027 -0.084663026 0.015994133 0.08374108
000180 87 75 e4 3d 33 59 03 be b2 04 b5 3e e6 02 1a be
       0.11155229 -0.12826996 0.35355145 -0.15040168
000190 11 2d a8 bd 32 73 6b bd 44 b9 c5 3d 60 e9 16 3f
       -0.08211721 -0.057482906 0.09654477 0.5894985
0001a0 70 9b 57 3e 50 71 24 bf ba b8 1d bf 2f 9a 15 3e
       0.21055388 -0.642354 -0.61609995 0.14609598
0001b0 cd 51 ac 3d bc 5f e5 3d 60 0b 05 bf 49 36 4b be
       0.0841404 0.111999005 -0.5197048 -0.19844927
0001c0 87 bb d1 be 4d 8e 30 3f 13 67 e2 3e 11 d3 57 be
       -0.40963385 0.68967134 0.44219264 -0.21076609
0001d0 ba 9a 35 be e7 32 3f be ab 21 ad 3e 80 df 81 be
       -0.17734805 -0.18671761 0.3381475 -0.2536583
0001e0 44 92 d7 3d 67 1f 50 3e 69 e9 50 3e a6 49 d4 3e
       0.10525945 0.20324479 0.20401539 0.4146244
0001f0 c5 8a d4 be 77 28 c9 3d 74 b3 d6 be fc ce 21 bd
       -0.41512123 0.09822171 -0.41933787 -0.039504036
000200 73 3f 78 3c 70 5c a8 be 25 58 de 3c 7e 43 9c be
       0.015151846 -0.32883024 0.02714164 -0.30520242
000210 d5 82 23 3c 7e d7 ae be 61 3a 12 3f 0a 83 44 be
       0.009979923 -0.34148782 0.5712033 -0.19190612
000220 6a 4c 99 bc 92 6a 43 be 8b 4e 35 be b5 13 0a 3e
       -0.018713195 -0.19083622 -0.17705743 0.1348408
000230 1a 82 9a bd d2 6f b6 3c a8 df 3a bd 48 c8 e3 be
       -0.07544346 0.022270117 -0.04562345 -0.4448874
000240 d7 f7 e7 3e 42 05 85 3e 87 8b 81 be 68 f2 72 be
       0.45306274 0.25980574 -0.25301763 -0.23725283
000250 30 21 d5 bd 6b 27 a3 3d 71 49 1d bd a4 bf 2f bd
       -0.10406721 0.07966503 -0.038400117 -0.042907372
000260 2e 17 5d 3e 20 f6 1f 3f b5 de 86 bf d3 e0 28 3f
       0.21590874 0.6248493 -1.0536715 0.65968055
000270 af 6b 96 be bb 6d 2a bf f6 f2 44 3d 45 2c 69 3e
       -0.2937903 -0.66573685 0.048083268 0.22770794
000280 a5 db a6 be 5a c6 25 bf ff 5e 42 3f 28 6d ab be
       -0.3258945 -0.64755785 0.759262 -0.33481717
000290 d0 f6 32 bd a1 56 63 3d 5b 7a e2 bd 4a 29 35 be
       -0.04369241 0.055502538 -0.11058494 -0.17691532
0002a0 eb 85 54 3c a0 27 22 bd 27 ec b1 3b ad ad e9 bd
       0.012971382 -0.03958857 0.005429763 -0.11410079
0002b0 bc 6d 7d 3d 23 4b 97 bd 1c cd c4 3d 55 bc 99 3d
       0.06187223 -0.07387378 0.09609434 0.075066246
0002c0 bf a1 8d be f6 d7 85 bd 55 f8 2f 3d 64 d2 a1 3e
       -0.27662465 -0.06535332 0.042961437 0.31605828
0002d0 95 b7 1f 3e e5 24 f0 3c 5c df 2f 3e 83 f2 3f 3e
       0.15597375 0.029314468 0.17175049 0.18744855
0002e0 00 63 e6 be d0 da ec 3e 2b b3 b6 3e 8c 3a 28 be
       -0.44997406 0.4626069 0.3568357 -0.16428584
0002f0 fd 4b 85 bc a4 90 7d 3d b3 17 4d 3e de 52 d3 be
       -0.016271586 0.06190552 0.20028572 -0.4127416
000300 5c 1e ce be a2 c1 84 be 7a 30 3b 3f 5f 58 f3 be
       -0.40257537 -0.2592898 0.73120844 -0.4752836
000310 c6 70 b7 bb 2c 7f 50 3f e1 8a 0e bf 8c 6e 37 be
       -0.0055981604 0.8144405 -0.5568066 -0.17913264
000320 16 9c b3 3e e9 0d 16 3c 2c b8 75 3d 3c 6f b2 be
       0.35080022 0.00915859 0.059990093 -0.3485049
000330 45 6f 0a be 4c 32 49 bd c7 20 02 be 76 9b 3b be
       -0.13519008 -0.049120232 -0.12707816 -0.18321022
000340 9a 14 c6 3e 1b 35 9e be fb e9 20 3e f1 4e 09 3d
       0.38687593 -0.3089989 0.15714256 0.03352255
000350 67 5b b0 3d ca 0d 4f be 77 93 27 3f 79 29 68 be
       0.086111836 -0.20220104 0.6545939 -0.2267207
000360 07 ea e0 be cf 6d 33 be 8e 3f ff be 3c 20 c7 be
       -0.4392855 -0.17522357 -0.49853176 -0.3889178
000370 c4 6d c2 3e 85 0b 52 be 9e 34 84 3d d2 5e 57 3d
       0.3797437 -0.20512207 0.064553484 0.052580662
000380 f6 f9 db 3e 14 65 cd 3b 02 1a 97 3a 71 78 eb be
       0.42964143 0.006268153 0.0011528137 -0.45990327
000390 81 ff 22 be 53 17 ed 3c 33 f4 fa bd e7 cf 0c be
       -0.1591778 0.028941786 -0.122536086 -0.13751183
0003a0 7c 20 8b be 77 08 3d 3e 8f 0a 6c be e3 47 95 bd
       -0.2717322 0.1846026 -0.23050903 -0.07289102
0003b0 f2 8a f9 bc 8f 17 b9 3d f7 2f 30 be 03 a7 ef be
       -0.030461762 0.090376966 -0.17205797 -0.46807107
0003c0 08 15 a5 3d d1 b3 90 be 69 16 05 be 40 83 21 3e
       0.08060652 -0.2826219 -0.1299683 0.15772724
0003d0 4d aa 70 be 52 45 69 3b ef f5 ae 3e dd ab d2 be
       -0.23502465 0.0035594297 0.34172007 -0.41146746
0003e0 c7 34 8c bc 6c d7 a5 3c 69 f7 b1 bd 57 5b 3e 3f
       -0.01711501 0.020244323 -0.08689768 0.74358124
0003f0 8e 8d 02 bf 89 ca 8e bf 48 bf d6 be 4d 1a 9f bd
       -0.50997245 -1.1155559 -0.4194281 -0.07768688

model/conv2d_5/Conv2D f4 [16, 1, 1, 48]
000000 31 1e be 3d dc 23 ee 3b 6d fe 15 3e 34 4c 86 3e
       0.09283102 0.0072674584 0.14647837 0.26230013
000010 03 dc 87 3e 28 ec 00 be 1d df a2 be d2 fd a1 3d
       0.26535043 -0.12590086 -0.31810847 0.079097405
000020 75 cd 28 3d 91 b2 04 3e cc 12 21 3e 60 2a 88 3e
       0.041211564 0.12958743 0.15729827 0.2659483
000030 ac 78 df bd e4 da d5 3d f1 7a cd bd 9d 74 51 bd
       -0.10911688 0.10442141 -0.10033215 -0.0511366
000040 f4 c9 7a bd 5d d5 1e be c1 30 e5 bd 98 8d 6f bd
       -0.061227754 -0.15511079 -0.1119094 -0.058484644
000050 e8 02 b0 3e ed 90 12 3e 16 08 b0 3d 73 51 04 3e
       0.34377217 0.14313097 0.08595292 0.12921695
000060 40 34 d2 3e 2e e0 52 be 20 74 a9 3e 9d f4 75 3e
       0.4105549 -0.2059333 0.3309641 0.24019094
000070 a7 0b 5a bb 35 7c 8d bd 4a 4d b0 3d d7 f9 c0 3e
       -0.0033271105 -0.06908456 0.08608492 0.37690613
000080 1b f3 9d be 19 3d 7b 3e 33 d4 1d be 06 1c d3 be
       -0.30849537 0.24535026 -0.15412979 -0.41232318
000090 d6 da 76 3e 3a 82 0f 3d dd e0 62 be 67 ff 37 3d
       0.24106917 0.035036303 -0.22156091 0.044921305
0000a0 9c c5 f7 3e 01 a2 ee bc ac 00 00 3e ea a5 0d be
       0.4839295 -0.029129984 0.12500256 -0.13832822
0000b0 93 6c 2f bd 4c 9e 23 3d fe 48 f3 3d f5 bf 31 be
       -0.042828154 0.039945886 0.118791565 -0.17358382
0000c0 d3 6d 73 be ab ec 30 3d c8 b8 96 be 51 f4 60 be
       -0.23772363 0.043194454 -0.29437852 -0.219682
0000d0 a1 86 80 bd ae 5c 41 be 2c 58 74 be cf 0b 4f bd
       -0.062756784 -0.1888301 -0.2386176 -0.05054837
0000e0 f9 fa c6 bd 7d 86 e8 bd bd 21 3d be 0b 56 9f bd
       -0.09715838 -0.113537766 -0.18469901 -0.07780083
0000f0 38 0b 77 3e ee ae a7 be 9e d3 c1 3d 42 1e dc 3d
       0.24125373 -0.32750648 0.09464191 0.10747959
000100 43 c9 7e 3e c8 26 61 3e f5 dc dd bd ab 74 37 be
       0.24881463 0.2198745 -0.1083316 -0.17915599
000110 c4 c1 82 be aa ad aa 3e b1 1e ba 3d 82 74 96 be
       -0.25538456 0.3333562 0.09087885 -0.29385763
000120 bc 0e 0a ba f2 e5 0a be dc 8c ff bd 07 b5 90 3d
       -0.0005266478 -0.1356428 -0.12478039 0.07065778
000130 98 20 11 be 1e d8 8e bd a6 0f 1b 3e 8a 50 ae be
       -0.1417259 -0.06974815 0.15142688 -0.3404582
000140 cb 15 5f 3e a6 08 78 3d 41 3c 46 3e 9c ab 49 3e
       0.21785657 0.060555123 0.19358923 0.1969437
000150 d2 90 da 3c 62 c3 00 3e 13 a9 9c bc 4f ec a9 be
       0.026680384 0.12574533 -0.01912359 -0.33188102
000160 4a 09 03 3e e0 08 86 bd c7 17 9c be 8a c7 2e 3e
       0.12796512 -0.065446615 -0.3048689 0.17068306
000170 2a 6d a5 be c5 a7 31 3e 21 73 aa be 77 f3 bf be
       -0.32309848 0.17349155 -0.3329096 -0.37490436
000180 34 6d 27 3e 8a f2 17 3e c1 8c b6 bd 9b 2b ca 3d
       0.16350251 0.14838615 -0.089135654 0.09871598
000190 80 9e 6c 3d 89 9a 62 bc 1c 49 0d 3e 13 83 5a be
       0.057768345 -0.013830789 0.1379742 -0.21339063
0001a0 51 af 20 bd ac 6a 03 3e d9 7d 9b 3d 25 12 6d 3e
       -0.039229695 0.12833661 0.07592363 0.23151453
0001b0 e6 75 28 be 8b bd d7 3d 28 5e d0 bd 95 7b 6c 3d
       -0.16451225 0.10534199 -0.10174209 0.057735045
0001c0 9b 5b 44 be a9 f3 3f bd 37 f5 b0 3d d6 c4 d6 3e
       -0.1917557 -0.04686323 0.08640521 0.4194705
0001d0 51 6f b8 3d d7 32 20 3e 9c 4d ca 3d 8d a3 a7 bc
       0.09005607 0.15644394 0.09878084 -0.02046373
0001e0 d5 9a 27 3e 76 59 74 be ee d5 0a 3e 04 f9 59 3e
       0.16367657 -0.23862252 0.1355817 0.21286398
0001f0 a0 11 85 3e d9 bd 72 be 7d f1 8f be ce 28 14 3e
       0.2599001 -0.23705234 -0.28113928 0.14468691
000200 64 66 51 3e 1e cf a0 3d bb a9 c5 3e 2f b2 02 3e
       0.20449215 0.078520045 0.38606057 0.12763284
000210 19 cb 02 3e 60 e4 ac 3b ce 0d 74 3e f3 a0 9b be
       0.12772788 0.005276248 0.23833391 -0.30396232
000220 7e 04 44 be 0d 6d 10 3e 43 2b 47 3e a9 b8 9c bd
       -0.19142339 0.141041 0.19450097 -0.07652409
000230 ca 1f 87 3e 94 db 40 be 5a d7 8d 3e 96 e7 8f be
       0.2639144 -0.18833762 0.27703363 -0.28106374
000240 00 74 35 3e e8 70 13 be c4 05 06 be c8 23 19 be
       0.17720032 -0.14398539 -0.13088137 -0.14955056
000250 46 23 98 3e 0d 89 22 be ee 5d 6c be b1 5c 26 3e
       0.29714411 -0.15872593 -0.23082706 0.16246296
000260 04 a0 eb 3e 9f 3f 5d 3c dd 9a 2d 3e 17 b6 b0 3d
       0.4602052 0.013503938 0.16953607 0.08628481
000270 45 32 2a 3e a0 ea 1b 3e 58 31 60 be 7c d3 00 be
       0.16620739 0.15226221 -0.21893823 -0.12580675
000280 b3 d5 aa bc 39 5d ae 3e f6 57 95 be bb 08 10 be
       -0.020853853 0.34055498 -0.2916867 -0.1406583
000290 2a 0d 76 3e 77 09 68 3e d0 9e 41 be dc b5 6e 3e
       0.24028459 0.2265986 -0.18908238 0.23311561
0002a0 39 52 e2 3d 3b ac af bd 1d 75 f5 3e 58 bc 46 3e
       0.11050839 -0.08577772 0.47940913 0.19407785
0002b0 ea b8 fe 3e 84 09 40 3f dd 0a b5 be 45 6f d4 3d
       0.49750453 0.7501452 -0.3535985 0.103727855
0002c0 5f 55 3b bc 27 01 4b 3e de 56 3a 3e d3 8b c4 bd
       -0.011433928 0.19824658 0.181972 -0.09596982
0002d0 f9 ab 8a 3e ec 99 4d bd 89 b5 ef bd ca 34 af bb
       0.2708433 -0.05019562 -0.11704547 -0.005346869
0002e0 5f 43 46 be 77 85 11 3e 8a 36 16 be 4d 0b 70 bd
       -0.19361638 0.14211069 -0.14669243 -0.058604527
0002f0 2e 19 85 3d 80 1e 94 3d 08 7c 12 be da 73 22 3e
       0.06498943 0.0723238 -0.14305127 0.15864506
000300 d2 58 bf bb 27 36 e1 3e 2b a7 9f be fd 4d bf be
       -0.0058394456 0.43986627 -0.31182227 -0.37364188
000310 9b e5 6b be 86 89 da 3c 60 df 39 3e 44 64 83 3e
       -0.23036806 0.026676904 0.18151617 0.25662434
000320 3b 06 c8 3e 74 f4 29 3e a0 d1 2c be 24 a0 08 3e
       0.39067253 0.16597158 -0.1687684 0.13342339
000330 5b b5 01 bf 79 e7 16 3e 9f 90 eb bd fe f1 d9 be
       -0.5066735 0.14736737 -0.11502194 -0.42567438
000340 2b dd 8e bd 27 db a6 3d dc cb 1e 3e 48 a0 5b 3e
       -0.06975778 0.08147269 0.15507454 0.21447861
000350 07 26 c7 bd 7b 74 14 3e ee ad c0 3e cb 0e 91 3e
       -0.0972405 0.14497559 0.37632698 0.283316
000360 ac 94 b8 3d ae 77 26 3e e9 80 0a bd 25 ba 4e be
       0.09012732 0.16256592 -0.033814345 -0.20188196
000370 e1 5a 1f be 54 83 dc 3e a9 66 82 3e 30 a7 8d be
       -0.15562011 0.43068945 0.25468948 -0.27666616
000380 c8 15 25 3c f1 91 d4 3d 26 84 ae 3e 97 16 76 bc
       0.010075994 0.103793986 0.34085196 -0.015020034
000390 4d 0b b2 3e 72 f9 65 bd 75 b2 1b 3e 16 b4 ad be
       0.34774247 -0.056146093 0.15204795 -0.33926457
0003a0 71 76 33 3e 08 f7 61 bd 53 28 a1 bd 8d 43 41 3e
       0.1752565 -0.055167228 -0.07869019 0.18873425
0003b0 1d 07 0d be 51 6c d6 3c 02 ff ba bd d9 f6 5e 3e
       -0.13772245 0.026174696 -0.0913067 0.21773852
0003c0 40 d3 6c 3e 3d 40 13 3e 00 13 28 3e ca 9e 6f be
       0.2312746 0.14379974 0.16413498 -0.23400417
0003d0 86 34 0d be 8e 40 97 3e a3 55 81 be 1d 0a e5 3d
       -0.13789567 0.2954144 -0.25260648 0.111835696
0003e0 a2 8d 0d 3e 4e 0e 1c 3f 69 57 58 3c 8e 59 a2 bd
       0.1382356 0.6095933 0.013204434 -0.079272375
0003f0 08 3f 8a 3e fa d6 84 3e b8 80 b0 be ee 67 60 3e
       0.27001214 0.25945264 -0.34473205 0.21914646

model/conv2d_6/Conv2D f4 [64, 1, 1, 24]
000000 a8 2c 4c 3e 11 65 3a be 7e 1b a7 bd a9 fe 43 be
       0.1993891 -0.18202616 -0.081595406 -0.19140114
000010 94 da 22 3d 60 4f 4d bd c8 54 81 bd b5 2c 2e bd
       0.039759234 -0.050124526 -0.06314999 -0.042523105
000020 82 ce 42 bd c3 5d 7d bc bf ef 97 bd 3b e7 fb bb
       -0.047560222 -0.015464249 -0.07418775 -0.007687477
000030 33 ee 33 3c c7 b1 4e 3b 3b e3 ac 3d 0d 7c c8 bd
       0.010982084 0.003153907 0.08441778 -0.09789286
000040 3e 89 1f 3f c1 34 99 3d f5 41 a0 3d 24 0e ba be
       0.6231879 0.07480765 0.0782508 -0.36338913
000050 ea 7a 31 be eb b3 26 3e 46 fb 9a 3c f5 bd 75 be
       -0.17332044 0.16279571 0.018918645 -0.23998244
000060 ea 8b 50 be 97 6e dd bd 0e e2 6a 3e 16 72 fa bd
       -0.20365873 -0.10812109 0.22937796 -0.122287914
000070 0d 0a 65 be 65 9d e8 bd 96 8a dd bd 6b 9a 88 be
       -0.22367115 -0.113581456 -0.10817449 -0.26680312
000080 33 86 97 3e 7a 3d ce 3c 25 b9 55 3e 83 a7 da 3b
       0.29594573 0.025175799 0.20871408 0.006672801
000090 29 b2 5b 3e 5d 9d ef 3b 29 4c 46 be 79 ac a6 bc
       0.21454681 0.0073124603 -0.1936499 -0.020345913
0000a0 61 3d ea 3d 0f 36 83 3d d6 51 6c bd 01 fc 89 be
       0.11437488 0.06406795 -0.057695232 -0.26950076
0000b0 5f 23 fe 3c 0c bd 44 bd 79 07 9d bc 03 5c 6c 3d
       0.031022726 -0.04803185 -0.019168602 0.057704937
0000c0 5a 84 03 be 99 d3 33 3e c8 57 86 3e 55 fb 0d be
       -0.12843457 0.17561187 0.26238847 -0.13865407
0000d0 53 29 50 be d2 97 82 be 21 17 94 3d 10 64 e4 bc
       -0.20328264 -0.25506455 0.07230974 -0.027879745
0000e0 6b 28 08 3e dd 6b 5d 3d b8 be 16 be 10 bc 4f bd
       0.13296668 0.054057945 -0.14721191 -0.05071646
0000f0 a9 85 0c 3e 5f 94 10 3e a2 01 15 3e f3 8c 0f 3e
       0.13722862 0.14119099 0.14551404 0.14018612
000100 d8 76 ef 3d e3 dd 09 3e 0d 2f 31 3c 87 3d 6f be
       0.116925895 0.1346355 0.01081444 -0.23363315
000110 4d c6 e1 bc 5f 40 d0 3d 88 ff cf be cb 28 76 3e
       -0.027560377 0.10168528 -0.40624642 0.24038999
000120 8a 69 29 3e 70 6c a6 3d 65 7b 50 be 52 de a2 3d
       0.16544166 0.081261516 -0.20359571 0.079525605
000130 41 cd f8 bc 85 3a 09 3d 10 9b 4a 3e 6e cf ec 3d
       -0.03037131 0.033503074 0.19785714 0.115630016
000140 f7 48 f4 bb 5d 89 05 3e f3 ea 11 3e d3 21 e3 3d
       -0.007454987 0.13040681 0.14249782 0.11090436
000150 cc b5 1f 3e e9 b3 2f 3c c2 99 b8 bd 9c a5 f9 3b
       0.15596694 0.010724046 -0.09013702 0.007618619
000160 6e 57 a1 3d 44 c2 68 3e 69 61 6f 3e 7b a0 9e 3e
       0.07878004 0.22730356 0.23377003 0.30981812
000170 bc c6 94 be b0 2f e5 3d 9d a7 0f bf f7 cb ee bd
       -0.29057872 0.11190736 -0.5611513 -0.11659997
000180 ad f0 c4 3d 99 91 bc bd 83 cd b2 ba d1 1b 3d 3e
       0.09616218 -0.09207458 -0.001364157 0.18467642
000190 cc 54 94 be e9 15 4e 3b 7c 80 44 3d a3 b4 14 be
       -0.28970945 0.0031446165 0.047974095 -0.14522032
0001a0 9c 0c 0c 3e ee 5f 96 3d b7 d1 04 bc f0 8e 26 be
       0.13676685 0.07342516 -0.008106641 -0.16265464
0001b0 be 6c 4a 3e 29 30 c8 3d 71 51 31 be ae 72 5a bd
       0.19768044 0.09774811 -0.17316224 -0.053332023
0001c0 12 19 c6 3d f2 6d 15 bd a2 e6 84 bd 75 f4 4b be
       0.096727505 -0.036481805 -0.06489302 -0.19917472
0001d0 a8 c4 21 3c d7 cc 16 be 78 7c 9d bc a3 8d ae 3c
       0.009873547 -0.14726578 -0.01922439 0.021307772
0001e0 24 76 15 3e 4c ac 2c be 82 a8 86 be 79 29 ea bc
       0.14595848 -0.16862601 -0.26300436 -0.028584229
0001f0 7f fa 2b be e3 02 1a bd bd bf 73 3d ae bd a7 3d
       -0.16794775 -0.03760041 0.059509028 0.081904754
000200 ca 25 32 be 6f 3e 16 be fd eb 1a be ef d6 da bd
       -0.17397228 -0.14672254 -0.15129085 -0.106855266
000210 9e bd 36 bc 6c 02 15 3e cc 1c 09 be 6a af 08 3d
       -0.011153607 0.14551705 -0.13389891 0.033370413
000220 1e ac fd bb 1f 17 d9 3e e8 76 70 3d 12 fa 9d 3e
       -0.0077414652 0.42400452 0.058707148 0.3085485
000230 ae f3 a3 be 6e a3 89 3e 42 d4 13 bf a7 77 dc bd
       -0.3202185 0.268825 -0.57745755 -0.107650094
000240 c4 ec 4d bd 9f f0 8f be 13 bb 81 3d 87 38 32 3e
       -0.050274625 -0.28113267 0.0633451 0.17404376
000250 50 95 c7 3d f7 c2 6d be 2c cb 17 39 06 45 2e 3c
       0.09745276 -0.23218904 0.0001447617 0.010636574
000260 19 c3 8a bd 09 80 80 3b 39 32 c2 be fc 41 1d 3d
       -0.06775493 0.003921513 -0.37928942 0.038393006
000270 13 73 de bd 5e 74 c0 be 3c ae 99 3d 89 6e 76 bd
       -0.108617924 -0.3758878 0.07503936 -0.06016401
000280 7a 74 9a 3c 9d ed 30 3e 6a 98 03 be ba f7 4b be
       0.018854368 0.17278142 -0.1285111 -0.19918719
000290 5a 89 13 3e 7c 5c 16 3e 81 35 8f bd 09 0d 81 bd
       0.14407864 0.14683717 -0.06992627 -0.063013144
0002a0 ee e7 c7 bb 0f 1b 24 be 0c bd 89 3e 86 4f 46 be
       -0.006100646 -0.16025947 0.26902044 -0.19366273
0002b0 38 d0 2e bd cc 28 1c ba 5a 96 21 3d 67 53 8a bd
       -0.04267904 -0.0005957007 0.039450027 -0.06754189
0002c0 62 4b 3e 3e c7 c6 1d 3e 9f 81 10 be cb 29 75 bc
       0.18583444 0.15407859 -0.14111947 -0.0149635775
0002d0 cb 18 cb 3c 1c fc b7 bd 7c 5e 17 bd 1b c6 d0 3d
       0.024792096 -0.08983633 -0.03695534 0.101940356
0002e0 e6 33 86 3d 84 4f cd 3c ab 00 5f 3c fe de e3 bd
       0.065528676 0.02506233 0.013610999 -0.11126517
0002f0 72 95 83 3d d3 a5 e3 3d 7b c2 54 3d 9b 9e 69 3e
       0.06424989 0.11115613 0.051943284 0.2281441
000300 4e 71 95 3d b9 7b c5 bd cb 7e 7a 3e d1 9c a7 bd
       0.07297002 -0.09642739 0.2446243 -0.08184207
000310 72 d8 5b 3e d4 e3 d8 3d 37 23 c7 3d d2 24 72 be
       0.21469286 0.1059033 0.097235136 -0.23646858
000320 52 74 a2 bc be 9d 72 3d c4 f1 43 be 2f 2e f4 bd
       -0.019830856 0.059232466 -0.19135195 -0.11922871
000330 1b 34 f9 3c 3d 10 81 be 4c af c5 3d cd 0b 49 3d
       0.030420354 -0.252077 0.09652576 0.04908352
000340 0f 13 ab bd af da aa 3d d3 3c 9b bd c6 c3 13 3d
       -0.083532445 0.08342492 -0.07579961 0.036075376
000350 18 96 38 3e 7b 87 59 3e 13 62 15 3e 2b e6 91 3d
       0.18026006 0.21243088 0.14588194 0.07123979
000360 7d 2d ac bc 88 94 14 3e 96 54 6d 3d 02 be 82 3c
       -0.021017784 0.14509785 0.057941996 0.015959743
000370 33 b9 3e 3e 85 61 16 be 46 6a 25 3e f1 cb d2 bd
       0.18625335 -0.14685638 0.16153821 -0.10292805
000380 0f 2d 01 bd 6b 63 55 3b 83 14 92 bd 98 c7 e3 bd
       -0.03153711 0.0032560478 -0.071328185 -0.11122054
000390 c6 e6 70 bd 36 2e fa bc 74 7c 0b 3e 1e cb 23 bd
       -0.058813833 -0.030539613 0.13621694 -0.03998863
0003a0 ca 80 12 be aa 07 42 3e c6 88 9d bd ca 15 15 be
       -0.14306942 0.18948236 -0.07692103 -0.14559093
0003b0 54 bd 3d 3e 2c d7 e2 3d 10 40 ea be b5 12 b3 3e
       0.18529254 0.11076197 -0.45752 0.3497521
0003c0 69 97 93 3e 5f aa 13 be ba 35 9d 3d 57 3f b8 ba
       0.28826454 -0.1442046 0.07676263 -0.0014056963
0003d0 81 b9 cf bd 95 2e 9c bd cd ba 75 3d 04 17 d0 bd
       -0.10142804 -0.07626072 0.0599926 -0.1016064
0003e0 f8 bd 0e 3d b5 d6 78 3e e0 5f 14 be c6 94 d9 3b
       0.034849137 0.24300654 -0.14489698 0.0066400496
0003f0 a0 4a 13 3d b4 75 45 bd 56 d1 73 bb 0d ec 94 3e
       0.03595984 -0.048207954 -0.0037203631 0.29086342
