weights/yolo-s_20.tflite (tflite, 174384 bytes, 25 tensors)

model/conv2d/Conv2D i1 [8, 3, 3, 1]
000000 d7 a3 28 69 eb 6d 39 81 e2 19 4f 50 5d 7f 5a 45
       -41 -93 40 105 -21 109 57 -127 -30 25 79 80 93 127 90 69
000010 4a 20 7f 67 48 68 29 06 a9 12 56 06 c0 c0 a2 81
       74 32 127 103 72 104 41 6 -87 18 86 6 -64 -64 -94 -127
000020 c3 c0 bf 1e 09 d3 b0 52 24 81 40 1c 95 f8 55 52
       -61 -64 -65 30 9 -45 -80 82 36 -127 64 28 -107 -8 85 82
000030 e9 f1 10 c6 8e 81 cb 7a 1f 84 2f 8e 15 7f c5 02
       -23 -15 16 -58 -114 -127 -53 122 31 -124 47 -114 21 127 -59 2
000040 f5 a1 e2 22 0a 9f 7f 56
       -11 -95 -30 34 10 -97 127 86

model/conv2d_1/Conv2D i1 [8, 1, 1, 8]
000000 05 81 fb 66 12 3a fd f9 fd 7f cb 81 f7 ed f9 fe
       5 -127 -5 102 18 58 -3 -7 -3 127 -53 -127 -9 -19 -7 -2
000010 7f f8 28 fa a1 7d 75 b1 0e f6 1f 7f e9 0b 0a 0a
       127 -8 40 -6 -95 125 117 -79 14 -10 31 127 -23 11 10 10
000020 00 7f 25 ae 0d fa 02 08 7c fe fc 0a bf 45 7f af
       0 127 37 -82 13 -6 2 8 124 -2 -4 10 -65 69 127 -81
000030 06 c8 81 72 39 21 fe 1c 20 95 7f 09 6d 9b 1f 00
       6 -56 -127 114 57 33 -2 28 32 -107 127 9 109 -101 31 0

model/conv2d_2/Conv2D i1 [4, 1, 1, 8]
000000 7f 2a fe 0d ed 09 fe d5 41 54 0c b6 db f9 19 7f
       127 42 -2 13 -19 9 -2 -43 65 84 12 -74 -37 -7 25 127
000010 cb 7f 01 40 87 04 7c 0c 00 f2 4b f3 08 7f fa e0
       -53 127 1 64 -121 4 124 12 0 -14 75 -13 8 127 -6 -32

model/conv2d_3/Conv2D i1 [8, 3, 3, 4]
000000 0c 07 03 01 17 0b a6 03 25 1a fb f9 f7 08 d3 0a
       12 7 3 1 23 11 -90 3 37 26 -5 -7 -9 8 -45 10
000010 31 25 1c f3 e3 f1 d7 08 12 f3 30 f2 b7 da 16 16
       49 37 28 -13 -29 -15 -41 8 18 -13 48 -14 -73 -38 22 22
000020 e5 00 7f fe f7 0c e2 02 25 18 f0 f7 11 02 ba ff
       -27 0 127 -2 -9 12 -30 2 37 24 -16 -9 17 2 -70 -1
000030 35 f7 08 f4 d4 d2 0c 24 f5 01 7f 0f 16 11 f0 0d
       53 -9 8 -12 -44 -46 12 36 -11 1 127 15 22 17 -16 13
000040 35 f4 7a 0a ec c1 14 26 00 10 f2 01 13 f7 f4 f9
       53 -12 122 10 -20 -63 20 38 0 16 -14 1 19 -9 -12 -7
000050 df e8 01 03 0c ed 1e f3 f2 d7 81 e4 44 1d 63 cf
       -33 -24 1 3 12 -19 30 -13 -14 -41 -127 -28 68 29 99 -49
000060 03 e7 14 ff d4 e2 da e2 39 02 3c d2 04 09 ff 00
       3 -25 20 -1 -44 -30 -38 -30 57 2 60 -46 4 9 -1 0
000070 da e9 fe fb 27 ff 06 f9 24 fa db f7 12 df 7f db
       -38 -23 -2 -5 39 -1 6 -7 36 -6 -37 -9 18 -33 127 -37
000080 0c ba 9c db 14 f2 fb f7 04 bc 29 f7 0a bc e8 e4
       12 -70 -100 -37 20 -14 -5 -9 4 -68 41 -9 10 -68 -24 -28
000090 f7 11 cd f7 0a fd 14 fa fa f2 fc ff 81 f7 8d f7
       -9 17 -51 -9 10 -3 20 -6 -6 -14 -4 -1 -127 -9 -115 -9
0000a0 73 5e 4d d3 f7 e0 45 f5 8c e6 a3 f6 69 4d 35 cd
       115 94 77 -45 -9 -32 69 -11 -116 -26 -93 -10 105 77 53 -51
0000b0 f4 e7 24 e4 e6 07 05 00 2e 0c cd f8 48 07 d3 fb
       -12 -25 36 -28 -26 7 5 0 46 12 -51 -8 72 7 -45 -5
0000c0 bf e4 35 05 81 e8 52 ee b7 fc 0c e8 c1 d6 15 ef
       -65 -28 53 5 -127 -24 82 -18 -73 -4 12 -24 -63 -42 21 -17
0000d0 d0 e8 ac be 0e 19 8f c5 07 ea ff fd ec ec 00 0a
       -48 -24 -84 -66 14 25 -113 -59 7 -22 -1 -3 -20 -20 0 10
0000e0 01 ea 01 03 57 19 e7 05 f1 1f 40 c5 9b f4 4d ac
       1 -22 1 3 87 25 -25 5 -15 31 64 -59 -101 -12 77 -84
0000f0 3e 32 d0 11 19 71 ef ac c3 4e 35 81 f6 fa 0a fd
       62 50 -48 17 25 113 -17 -84 -61 78 53 -127 -10 -6 10 -3

model/conv2d_4/Conv2D i1 [48, 1, 1, 8]
000000 e6 21 81 43 13 dc 0f e2 0e 2c df 01 dd b7 7f f1
       -26 33 -127 67 19 -36 15 -30 14 44 -33 1 -35 -73 127 -15
000010 40 dc 00 07 0a 81 bc 9d d7 ef 81 0c 28 10 54 ba
       64 -36 0 7 10 -127 -68 -99 -41 -17 -127 12 40 16 84 -70
000020 f2 26 e9 ef f1 c0 81 58 b0 ad 0c 38 b6 7f ce 8a
       -14 38 -23 -17 -15 -64 -127 88 -80 -83 12 56 -74 127 -50 -118
000030 f4 da 08 28 c8 55 81 ee 30 04 7f a2 3a e1 30 4e
       -12 -38 8 40 -56 85 -127 -18 48 4 127 -94 58 -31 48 78
000040 08 dc 05 f0 08 3e 7f b9 5a 7f fc ff fd 57 e3 fe
       8 -36 5 -16 8 62 127 -71 90 127 -4 -1 -3 87 -29 -2
000050 d4 23 d4 7f 05 02 eb de d9 02 ad 7f df 42 d0 ca
       -44 35 -44 127 5 2 -21 -34 -39 2 -83 127 -33 66 -48 -54
000060 0c 32 ec f5 f1 c0 81 32 cd f6 a5 7f c9 29 03 ac
       12 50 -20 -11 -15 -64 -127 50 -51 -10 -91 127 -55 41 3 -84
000070 3d 05 28 19 07 78 7e 81 d7 5a ab 7f a5 f6 be 82
       61 5 40 25 7 120 126 -127 -41 90 -85 127 -91 -10 -66 -126
000080 d8 81 1d f7 3d d7 01 d3 6d 81 68 f2 b2 13 11 61
       -40 -127 29 -9 61 -41 1 -45 109 -127 104 -14 -78 19 17 97
000090 d4 fa db db fb a1 81 70 dc df 81 09 d6 26 e7 ea
       -44 -6 -37 -37 -5 -95 -127 112 -36 -33 -127 9 -42 38 -25 -22
0000a0 81 5d b2 2d 64 e6 ea a4 f3 0a 9f 31 7f f9 f0 e6
       -127 93 -78 45 100 -26 -22 -92 -13 10 -97 49 127 -7 -16 -26
0000b0 17 55 03 03 09 7f 07 2c 15 25 f9 16 f3 b9 81 fd
       23 85 3 3 9 127 7 44 21 37 -7 22 -13 -71 -127 -3
0000c0 81 6a 22 c8 f7 04 0f 87 02 ab 36 cd 5f 7f b0 e9
       -127 106 34 -56 -9 4 15 -121 2 -85 54 -51 95 127 -80 -23
0000d0 7f 5c 03 f0 02 a2 2f b4 12 d5 0f 12 fe 40 7f 9b
       127 92 3 -16 2 -94 47 -76 18 -43 15 18 -2 64 127 -101
0000e0 c3 c4 b2 2f ac 7f c5 a7 9d 81 02 06 03 c0 e1 1a
       -61 -60 -78 47 -84 127 -59 -89 -99 -127 2 6 3 -64 -31 26
0000f0 e9 af 08 0a 03 81 df c8 fc 31 dc fc ef bb 81 4d
       -23 -81 8 10 3 -127 -33 -56 -4 49 -36 -4 -17 -69 -127 77

model/conv2d_5/Conv2D i1 [16, 1, 1, 48]
000000 e5 1a 09 ed 15 06 da 2f f6 b6 15 42 e2 ea f6 b7
       -27 26 9 -19 21 6 -38 47 -10 -74 21 66 -30 -22 -10 -73
000010 e9 d4 7f 20 d1 e9 ec 06 9d ee 1e 54 16 02 9c dd
       -23 -44 127 32 -47 -23 -20 6 -99 -18 30 84 22 2 -100 -35
000020 ec 43 39 3e 44 03 18 fe f7 46 8b 02 f1 41 8f c8
       -20 67 57 62 68 3 24 -2 -9 70 -117 2 -15 65 -113 -56
000030 4f f5 fb 0d 5b 81 da d9 a5 b1 f3 a3 d2 10 f4 d5
       79 -11 -5 13 91 -127 -38 -39 -91 -79 -13 -93 -46 16 -12 -43
000040 fe d5 1c d6 d7 0a fd 11 00 e3 de a2 53 e3 a9 18
       -2 -43 28 -42 -41 10 -3 17 0 -29 -34 -94 83 -29 -87 24
000050 04 2a a9 ad 85 b9 bf d0 f2 d4 b8 4c ba 01 ff 0d
       4 42 -87 -83 -123 -71 -65 -48 -14 -44 -72 76 -70 1 -1 13
000060 82 f7 37 9b 2b 15 b6 f2 cf 1c 0d 14 09 81 f0 f6
       -126 -9 55 -101 43 21 -74 -14 -49 28 13 20 9 -127 -16 -10
000070 c2 e6 f1 bd ef ae 25 e8 18 1d df d5 f7 2a b8 d6
       -62 -26 -15 -67 -17 -82 37 -24 24 29 -33 -43 -9 42 -72 -42
000080 fe 19 18 f5 e7 fc 3b 44 a8 dc 09 98 e3 19 1f 2b
       -2 25 24 -11 -25 -4 59 68 -88 -36 9 -104 -29 25 31 43
000090 09 8f 81 f1 e0 eb 73 d5 ce cc 24 f6 02 05 bf 1a
       9 -113 -127 -15 -32 -21 115 -43 -50 -52 36 -10 2 5 -65 26
0000a0 8c 4d 35 44 3e 23 c7 d2 21 02 6c a6 aa 03 0b f5
       -116 77 53 68 62 35 -57 -46 33 2 108 -90 -86 3 11 -11
0000b0 bd e0 14 ca fd 40 a6 f5 b2 d0 05 f7 46 c5 25 f8
       -67 -32 20 -54 -3 64 -90 -11 -78 -48 5 -9 70 -59 37 -8
0000c0 fa 2b 1a e6 1d fc 06 d6 f2 ad 2f fd 44 e0 7f 1e
       -6 43 26 -26 29 -4 6 -42 -14 -83 47 -3 68 -32 127 30
0000d0 d9 34 47 19 1d c6 1a d7 2e 1d f8 20 16 0c f1 fb
       -39 52 71 25 29 -58 26 -41 46 29 -8 32 22 12 -15 -5
0000e0 12 9a 08 f0 e2 13 1a f1 d8 3e da d7 b4 0b 33 26
       18 -102 8 -16 -30 19 26 -15 -40 62 -38 -41 -76 11 51 38
0000f0 08 eb 1e 08 3f e2 0b 16 f2 ba f2 db b2 00 b6 10
       8 -21 30 8 63 -30 11 22 -14 -70 -14 -37 -78 0 -74 16

model/conv2d_6/Conv2D i1 [64, 1, 1, 24]
000000 c3 26 ed f7 31 2a 26 f1 d5 e6 cb d2 10 53 0b 11
       -61 38 -19 -9 49 42 38 -15 -43 -26 -53 -46 16 83 11 17
000010 ea b4 29 0a fc 19 7f c1 0d 3b 81 f2 e5 40 bd 18
       -22 -76 41 10 -4 25 127 -63 13 59 -127 -14 -27 64 -67 24
000020 01 bc 44 1d fe ee 22 f8 04 23 3b 0b 3c e9 a0 fe
       1 -68 68 29 -2 -18 34 -8 4 35 59 11 60 -23 -96 -2
000030 1b 2b 11 36 19 01 0a 46 bd ef 02 e8 0a 03 25 d8
       27 43 17 54 25 1 10 70 -67 -17 2 -24 10 3 37 -40
000040 d9 29 e4 10 e2 c3 81 63 10 18 f3 f1 f7 02 fb 23
       -39 41 -28 16 -30 -61 -127 99 16 24 -13 -15 -9 2 -5 35
000050 f4 e0 b9 3a e2 07 7f 88 d0 ed 12 fc 02 0f 53 30
       -12 -32 -71 58 -30 7 127 -120 -48 -19 18 -4 2 15 83 48
000060 08 c0 2c 31 00 db f3 ef 40 5a 39 ee c6 dd 56 22
       8 -64 44 49 0 -37 -13 -17 64 90 57 -18 -58 -35 86 34
000070 25 4f a5 ec ca ed 81 2f 21 24 3f 8e 58 1c f8 44
       37 79 -91 -20 -54 -19 -127 47 33 36 63 -114 88 28 -8 68
000080 25 4a 25 d9 15 12 da 81 ef cf 07 de 21 09 05 31
       37 74 37 -39 21 18 -38 -127 -17 -49 7 -34 33 9 5 49
000090 d3 d7 0a c3 3d 50 f8 1d 48 35 75 13 3d 81 02 e7
       -45 -41 10 -61 61 80 -8 29 72 53 117 19 61 -127 2 -25
0000a0 e4 f0 37 17 2b d7 e3 0c 14 d5 db cd e2 d3 e0 ca
       -28 -16 55 23 43 -41 -29 12 20 -43 -37 -51 -30 -45 -32 -54
0000b0 10 17 a2 ba bf fd d9 06 90 81 11 1f 0b 10 2f 34
       16 23 -94 -70 -65 -3 -39 6 -112 -127 17 31 11 16 47 52
0000c0 4c 0a 45 e0 ca 04 7f d3 23 f5 09 fc 36 09 2a f3
       76 10 69 -32 -54 4 127 -45 35 -11 9 -4 54 9 42 -13
0000d0 20 05 d6 f8 c9 00 15 ee 10 fa 12 2e ed 03 0a 0e
       32 5 -42 -8 -55 0 21 -18 16 -6 18 46 -19 3 10 14
0000e0 2b f3 ef e6 fe 13 fe e0 d8 bb 17 06 04 3a 7f f8
       43 -13 -17 -26 -2 19 -2 -32 -40 -69 23 6 4 58 127 -8
0000f0 fd 04 d7 c3 df 09 e4 e1 1f 1e 17 cf cf 19 e6 f2
       -3 4 -41 -61 -33 9 -28 -31 31 30 23 -49 -49 25 -26 -14

model/conv2d_7/Conv2D i1 [24, 1, 1, 64]
000000 35 28 e2 d3 cb eb ff 13 f8 34 c6 eb 2a 01 e2 7f
       53 40 -30 -45 -53 -21 -1 19 -8 52 -58 -21 42 1 -30 127
000010 4a ff 1d 0c fb f0 34 0d 25 be 03 69 c1 df 1d fb
       74 -1 29 12 -5 -16 52 13 37 -66 3 105 -63 -33 29 -5
000020 06 28 1f 1d eb 0c 0d 1c 53 f2 1c cd f4 d5 df f8
       6 40 31 29 -21 12 13 28 83 -14 28 -51 -12 -43 -33 -8
000030 3d 06 fc a3 fa f8 ee ee 1b 07 29 b2 ec 12 25 c0
       61 6 -4 -93 -6 -8 -18 -18 27 7 41 -78 -20 18 37 -64
000040 1f fc 9e 4b 0e be fa 09 0a 30 ac da ec f5 4b 19
       31 -4 -98 75 14 -66 -6 9 10 48 -84 -38 -20 -11 75 25
000050 81 c9 cf 10 e6 a8 28 0d da 2c fc 43 93 0d 09 fe
       -127 -55 -49 16 -26 -88 40 13 -38 44 -4 67 -109 13 9 -2
000060 0e dc 29 5d e3 f1 f0 5f 02 13 02 f1 11 e1 e1 f2
       14 -36 41 93 -29 -15 -16 95 2 19 2 -15 17 -31 -31 -14
000070 35 eb f2 53 2c 12 27 22 2e f5 f2 07 fc f8 e3 e1
       53 -21 -14 83 44 18 39 34 46 -11 -14 7 -4 -8 -29 -31
000080 b0 0b 64 d5 fa ff 0e 56 ba a9 d2 25 2f 21 3d 02
       -80 11 100 -43 -6 -1 14 86 -70 -87 -46 37 47 33 61 2
000090 09 16 2c 15 31 d7 27 24 fb 04 ce 18 b3 23 c1 f1
       9 22 44 21 49 -41 39 36 -5 4 -50 24 -77 35 -63 -15
0000a0 f8 58 d7 21 19 06 e8 f2 f8 29 c5 39 07 f8 e5 40
       -8 88 -41 33 25 6 -24 -14 -8 41 -59 57 7 -8 -27 64
0000b0 d9 25 f8 81 1a 1c a5 2b fc e8 e6 13 45 12 d4 17
       -39 37 -8 -127 26 28 -91 43 -4 -24 -26 19 69 18 -44 23
0000c0 f7 02 1a 16 ef d2 86 2b e3 3e 24 e3 a3 f5 b7 34
       -9 2 26 22 -17 -46 -122 43 -29 62 36 -29 -93 -11 -73 52
0000d0 19 fa c5 ed e5 07 7b 24 9f 70 d5 26 e1 0b bf 7e
       25 -6 -59 -19 -27 7 123 36 -97 112 -43 38 -31 11 -65 126
0000e0 03 e9 22 d4 fc 0a f4 4a 01 a1 c8 1f dd 17 c1 cf
       3 -23 34 -44 -4 10 -12 74 1 -95 -56 31 -35 23 -63 -49
0000f0 00 58 e6 ed 0b fc b8 0a 07 21 3c d1 fc 81 10 0e
       0 88 -26 -19 11 -4 -72 10 7 33 60 -47 -4 -127 16 14

model/conv2d_8/Conv2D i1 [96, 1, 1, 24]
000000 f7 be 59 6c 40 20 c1 1c d6 81 05 00 64 ce 0d 2e
       -9 -66 89 108 64 32 -63 28 -42 -127 5 0 100 -50 13 46
000010 cc 23 3b 30 67 54 d8 db c6 81 fa 1e 17 27 f7 bc
       -52 35 59 48 103 84 -40 -37 -58 -127 -6 30 23 39 -9 -68
000020 b3 ee 03 e3 be 01 e4 11 e0 d0 ce c3 e3 fc b7 ff
       -77 -18 3 -29 -66 1 -28 17 -32 -48 -50 -61 -29 -4 -73 -1
000030 c7 49 11 15 14 34 be d1 d7 4c df 16 18 2d 06 14
       -57 73 17 21 20 52 -66 -47 -41 76 -33 22 24 45 6 20
000040 24 7f e7 0e 24 f4 53 9d 50 f5 bc 42 fe 2b c9 22
       36 127 -25 14 36 -12 83 -99 80 -11 -68 66 -2 43 -55 34
000050 37 56 9d 13 97 eb f4 a2 28 e1 d4 7f fb 1e 93 ee
       55 86 -99 19 -105 -21 -12 -94 40 -31 -44 127 -5 30 -109 -18
000060 30 02 ba de 10 dd d0 32 5f f1 fc 14 8d 15 3b d8
       48 2 -70 -34 16 -35 -48 50 95 -15 -4 20 -115 21 59 -40
000070 fd 81 aa fe 65 3d 83 e3 8a 16 d9 fe 52 7a c2 94
       -3 -127 -86 -2 101 61 -125 -29 -118 22 -39 -2 82 122 -62 -108
000080 3f 7f 9e c2 a2 ff 14 c3 1c b9 cb 13 90 b7 c8 b4
       63 127 -98 -62 -94 -1 20 -61 28 -71 -53 19 -112 -73 -56 -76
000090 dd 68 2d bd 02 df ac 2e 8c 5d 59 01 df 90 b6 cf
       -35 104 45 -67 2 -33 -84 46 -116 93 89 1 -33 -112 -74 -49
0000a0 e7 c0 21 81 0a fa f5 62 fb fa 05 54 fd ab ce 03
       -25 -64 33 -127 10 -6 -11 98 -5 -6 5 84 -3 -85 -50 3
0000b0 bf cd a2 04 7f cd e5 25 a8 f5 3c e9 16 f0 ee 91
       -65 -51 -94 4 127 -51 -27 37 -88 -11 60 -23 22 -16 -18 -111
0000c0 1c ee 0c ee 22 39 eb 08 14 18 13 df 19 08 f5 03
       28 -18 12 -18 34 57 -21 8 20 24 19 -33 25 8 -11 3
0000d0 53 12 ed f3 fc f8 7f df 04 33 8f f9 e0 da e1 5b
       83 18 -19 -13 -4 -8 127 -33 4 51 -113 -7 -32 -38 -31 91
0000e0 18 c6 9e 21 94 e0 d5 e1 38 d6 47 35 c3 ea 81 dd
       24 -58 -98 33 -108 -32 -43 -31 56 -42 71 53 -61 -22 -127 -35
0000f0 09 28 db ec e0 19 e8 48 f5 1b 81 03 57 bb 0e 31
       9 40 -37 -20 -32 25 -24 72 -11 27 -127 3 87 -69 14 49

model/conv2d_9/Conv2D i1 [24, 1, 1, 96]
000000 ea fb f9 c7 b2 47 e2 cf e2 0c e5 e7 4c f4 1d 0a
       -22 -5 -7 -57 -78 71 -30 -49 -30 12 -27 -25 76 -12 29 10
000010 e3 f3 40 41 41 b1 f5 f6 16 42 fe f7 2e f1 29 0c
       -29 -13 64 65 65 -79 -11 -10 22 66 -2 -9 46 -15 41 12
000020 15 df e7 39 f5 4f ee 02 1f 23 3a e1 fb 27 dd e4
       21 -33 -25 57 -11 79 -18 2 31 35 58 -31 -5 39 -35 -28
000030 31 0b c9 0b 7f c5 35 48 39 31 25 20 df 35 c5 0d
       49 11 -55 11 127 -59 53 72 57 49 37 32 -33 53 -59 13
000040 07 5c d0 fc 52 02 f9 e6 f7 3b fa 01 d8 fc c8 f8
       7 92 -48 -4 82 2 -7 -26 -9 59 -6 1 -40 -4 -56 -8
000050 07 12 27 0a d7 35 1a 01 17 a4 3f cf f3 01 07 db
       7 18 39 10 -41 53 26 1 23 -92 63 -49 -13 1 7 -37
000060 2d 43 4c 13 dc e1 f8 d4 10 01 02 31 da e8 11 98
       45 67 76 19 -36 -31 -8 -44 16 1 2 49 -38 -24 17 -104
000070 13 6d e1 5d 05 f1 f4 e6 2e b4 ed ef f9 e8 04 0b
       19 109 -31 93 5 -15 -12 -26 46 -76 -19 -17 -7 -24 4 11
000080 de 0f f2 f6 23 4c 1f 2c c6 f9 2c c4 0b 21 ea ed
       -34 15 -14 -10 35 76 31 44 -58 -7 44 -60 11 33 -22 -19
000090 72 fb 0c 11 eb 21 15 df ea b0 4b b6 f9 32 d5 e0
       114 -5 12 17 -21 33 21 -33 -22 -80 75 -74 -7 50 -43 -32
0000a0 71 21 f5 09 f2 32 fd 03 47 05 25 43 dd 1b 04 c3
       113 33 -11 9 -14 50 -3 3 71 5 37 67 -35 27 4 -61
0000b0 20 d0 ab cd 2c ec 1d 0d 6c 1d 23 be 23 7f 12 05
       32 -48 -85 -51 44 -20 29 13 108 29 35 -66 35 127 18 5
0000c0 f3 35 e1 c8 d6 23 2f 05 29 2c fa 36 2d 9a f5 d1
       -13 53 -31 -56 -42 35 47 5 41 44 -6 54 45 -102 -11 -47
0000d0 0e f4 9b 19 ef 81 99 95 0f ff 31 a3 01 35 29 29
       14 -12 -101 25 -17 -127 -103 -107 15 -1 49 -93 1 53 41 41
0000e0 d6 b2 e1 50 ed 05 25 49 dc 97 f4 eb 16 da 31 03
       -42 -78 -31 80 -19 5 37 73 -36 -105 -12 -21 22 -38 49 3
0000f0 60 0b cd 06 ca 23 ef 34 68 0e 12 f5 fe fa fe d5
       96 11 -51 6 -54 35 -17 52 104 14 18 -11 -2 -6 -2 -43

model/conv2d_10/Conv2D i1 [96, 1, 1, 24]
000000 d7 c9 f9 45 cf d8 f7 41 c9 18 17 06 d3 db ce 03
       -41 -55 -7 69 -49 -40 -9 65 -55 24 23 6 -45 -37 -50 3
000010 de db ca 59 ab 36 3d 7f 72 26 7d 58 63 cf ea 7f
       -34 -37 -54 89 -85 54 61 127 114 38 125 88 99 -49 -22 127
000020 04 dc 24 e6 cb d9 3e 42 cc 2c d6 33 02 1a c3 de
       4 -36 36 -26 -53 -39 62 66 -52 44 -42 51 2 26 -61 -34
000030 23 ce f0 08 05 00 07 03 00 fd 7f 22 e7 15 1e 4a
       35 -50 -16 8 5 0 7 3 0 -3 127 34 -25 21 30 74
000040 dc 28 fc bb 26 1d 20 f7 d3 63 f4 3d ef 31 4b 8d
       -36 40 -4 -69 38 29 32 -9 -45 99 -12 61 -17 49 75 -115
000050 11 f2 d5 0e b5 f2 06 de fa 02 09 e6 81 46 18 26
       17 -14 -43 14 -75 -14 6 -34 -6 2 9 -26 -127 70 24 38
000060 d0 b1 c9 47 f0 ce a0 c5 2c b3 bb 30 b6 0c 1c 1f
       -48 -79 -55 71 -16 -50 -96 -59 44 -77 -69 48 -74 12 28 31
000070 7f 1b 54 54 ac e1 13 21 e1 81 d5 0b fe 2e f2 bd
       127 27 84 84 -84 -31 19 33 -31 -127 -43 11 -2 46 -14 -67
000080 ce 3f 1f 43 b7 f5 fb e6 49 fd 13 b7 20 e8 46 fd
       -50 63 31 67 -73 -11 -5 -26 73 -3 19 -73 32 -24 70 -3
000090 7f f3 a8 d4 b4 f5 d4 4f e1 bc 72 59 b7 22 ef 0f
       127 -13 -88 -44 -76 -11 -44 79 -31 -68 114 89 -73 34 -17 15
0000a0 17 d6 2f e0 3a 4d cd 8c ac 1f d1 11 d7 2a 10 81
       23 -42 47 -32 58 77 -51 -116 -84 31 -47 17 -41 42 16 -127
0000b0 33 4d bb b4 fb 25 03 52 37 2f 2c 57 44 08 fd ae
       51 77 -69 -76 -5 37 3 82 55 47 44 87 68 8 -3 -82
0000c0 6f b5 d6 0f 32 29 eb 67 14 4a 0e 1b ea 81 32 4d
       111 -75 -42 15 50 41 -21 103 20 74 14 27 -22 -127 50 77
0000d0 ba 17 b3 f9 08 ec e4 04 b7 07 d5 1f 3c 3a b9 1c
       -70 23 -77 -7 8 -20 -28 4 -73 7 -43 31 60 58 -71 28
0000e0 e9 fb 16 f9 2c 22 03 a7 8f 4f 16 fc 81 e4 ff 10
       -23 -5 22 -7 44 34 3 -89 -113 79 22 -4 -127 -28 -1 16
0000f0 02 df 09 e1 81 fb 9f 30 d1 0b c6 ea c4 ea 1c 0e
       2 -33 9 -31 -127 -5 -97 48 -47 11 -58 -22 -60 -22 28 14

model/conv2d_11/Conv2D i1 [24, 1, 1, 96]
000000 53 ea ce 2c e1 03 49 1f c5 e9 e0 db 08 d8 ec 28
       83 -22 -50 44 -31 3 73 31 -59 -23 -32 -37 8 -40 -20 40
000010 00 4a 48 e0 5b f7 22 fe cc d9 f2 c7 02 b6 1d d6
       0 74 72 -32 91 -9 34 -2 -52 -39 -14 -57 2 -74 29 -42
000020 cb 06 8e 28 ca f4 f4 c5 d6 e3 d9 e8 22 10 2e c9
       -53 6 -114 40 -54 -12 -12 -59 -42 -29 -39 -24 34 16 46 -55
000030 d6 20 0f b8 0c 28 15 fb de df e0 2e 41 21 e6 18
       -42 32 15 -72 12 40 21 -5 -34 -33 -32 46 65 33 -26 24
000040 ea 17 d5 05 f7 e7 19 5d 07 01 e6 f5 05 f9 02 01
       -22 23 -43 5 -9 -25 25 93 7 1 -26 -11 5 -7 2 1
000050 b6 e0 eb bc f2 ed c9 06 7f f5 c8 10 01 d6 c1 16
       -74 -32 -21 -68 -14 -19 -55 6 127 -11 -56 16 1 -42 -63 22
000060 1b 68 30 c2 44 c2 08 e0 f3 d3 dc 31 63 f0 a4 a6
       27 104 48 -62 68 -62 8 -32 -13 -45 -36 49 99 -16 -92 -90
000070 d8 2b e5 04 aa 2f 17 11 f0 c4 f6 ee 0b d0 da a7
       -40 43 -27 4 -86 47 23 17 -16 -60 -10 -18 11 -48 -38 -89
000080 b9 4b e0 ed 24 3d 17 d9 38 11 e1 12 4d ef 44 d1
       -71 75 -32 -19 36 61 23 -39 56 17 -31 18 77 -17 68 -47
000090 99 3c e9 1b d7 06 ec f3 e1 0a fb 35 7d 13 c6 44
       -103 60 -23 27 -41 6 -20 -13 -31 10 -5 53 125 19 -58 68
0000a0 56 ba ee 4f dc 3f 2b 0f ec ee f6 e8 a5 e8 d9 e8
       86 -70 -18 79 -36 63 43 15 -20 -18 -10 -24 -91 -24 -39 -24
0000b0 1d 30 7f 5a 55 d4 c3 f4 e9 24 d8 36 5f c9 0b eb
       29 48 127 90 85 -44 -61 -12 -23 36 -40 54 95 -55 11 -21
0000c0 49 28 21 f4 15 12 a1 d4 04 c5 c3 03 61 f4 ca eb
       73 40 33 -12 21 18 -95 -44 4 -59 -61 3 97 -12 -54 -21
0000d0 fd 1b d4 e3 ef 05 cf fa a3 32 91 19 5c dd ed 48
       -3 27 -44 -29 -17 5 -49 -6 -93 50 -111 25 92 -35 -19 72
0000e0 48 11 fe 1f 4c 5b 33 e6 25 49 00 1d 3b 28 fa 7f
       72 17 -2 31 76 91 51 -26 37 73 0 29 59 40 -6 127
0000f0 ee dc 08 07 e3 29 22 e2 c9 e1 92 1a 17 3c eb 24
       -18 -36 8 7 -29 41 34 -30 -55 -31 -110 26 23 60 -21 36

model/conv2d_12/Conv2D i1 [96, 1, 1, 24]
000000 5c 34 12 44 7f fd 0b bd 3a a8 ee f1 b3 e6 11 28
       92 52 18 68 127 -3 11 -67 58 -88 -18 -15 -77 -26 17 40
000010 da de dd 13 f0 e4 af f1 ea 57 12 44 6e 0f cd 0b
       -38 -34 -35 19 -16 -28 -81 -15 -22 87 18 68 110 15 -51 11
000020 22 55 fc 31 ed 45 33 34 54 56 36 fd 14 1b 81 07
       34 85 -4 49 -19 69 51 52 84 86 54 -3 20 27 -127 7
000030 da 56 0d e5 b2 01 27 03 e3 de 07 63 8f 17 2b 5b
       -38 86 13 -27 -78 1 39 3 -29 -34 7 99 -113 23 43 91
000040 03 1b 2f c7 81 04 90 e5 05 1a ba e0 2d a3 08 fb
       3 27 47 -57 -127 4 -112 -27 5 26 -70 -32 45 -93 8 -5
000050 03 db 1e 7f f2 85 06 2b 1e e1 fe dd c6 f3 26 dc
       3 -37 30 127 -14 -123 6 43 30 -31 -2 -35 -58 -13 38 -36
000060 d5 57 70 57 27 20 df d7 fa 7f cb d8 47 c0 4b 01
       -43 87 112 87 39 32 -33 -41 -6 127 -53 -40 71 -64 75 1
000070 20 f7 d0 55 14 e3 62 0f 1b e2 ef d7 21 3f ce 26
       32 -9 -48 85 20 -29 98 15 27 -30 -17 -41 33 63 -50 38
000080 ec f2 09 05 30 0e 96 41 d0 07 c9 9e 2b 08 7f 05
       -20 -14 9 5 48 14 -106 65 -48 7 -55 -98 43 8 127 5
000090 9c fe 08 14 10 fe 7f 10 11 27 0c 53 3b 0c c9 5d
       -100 -2 8 20 16 -2 127 16 17 39 12 83 59 12 -55 93
0000a0 17 05 08 09 1a 2d 45 0c bc fa 09 12 14 08 fd 81
       23 5 8 9 26 45 69 12 -68 -6 9 18 20 8 -3 -127
0000b0 da f0 ec b5 d5 0c ed 2d 20 b3 d1 0a e7 d6 f2 bd
       -38 -16 -20 -75 -43 12 -19 45 32 -77 -47 10 -25 -42 -14 -67
0000c0 d6 b9 cf 81 6c 05 f2 24 ae f3 20 5c 1d f3 ed 15
       -42 -71 -49 -127 108 5 -14 36 -82 -13 32 92 29 -13 -19 21
0000d0 3e 2d 14 14 db 1d 34 ef 39 07 ec 16 0e 17 1a af
       62 45 20 20 -37 29 52 -17 57 7 -20 22 14 23 26 -81
0000e0 e7 43 01 1a da 72 eb 2e 4f 9e 43 fc 51 00 81 95
       -25 67 1 26 -38 114 -21 46 79 -98 67 -4 81 0 -127 -107
0000f0 c2 09 f8 7f f7 f6 0c 3d ef 07 0e ed d7 20 c6 18
       -62 9 -8 127 -9 -10 12 61 -17 7 14 -19 -41 32 -58 24

model/conv2d_13/Conv2D i1 [24, 1, 1, 96]
000000 1e e7 1b 09 f0 18 12 f6 14 d4 bd ea 28 35 2a 16
       30 -25 27 9 -16 24 18 -10 20 -44 -67 -22 40 53 42 22
000010 d9 49 c0 0c 23 f8 22 c3 ed 01 0c c6 ea 31 24 3e
       -39 73 -64 12 35 -8 34 -61 -19 1 12 -58 -22 49 36 62
000020 e6 0f f2 eb 20 e8 d0 fe ee 2c 28 f0 0b 04 20 df
       -26 15 -14 -21 32 -24 -48 -2 -18 44 40 -16 11 4 32 -33
000030 0f fb e5 f1 34 18 3a 22 bb d2 32 29 81 ae 31 00
       15 -5 -27 -15 52 24 58 34 -69 -46 50 41 -127 -82 49 0
000040 26 e7 cd f6 1c e9 fb 11 ed c9 32 a1 f2 f8 eb fe
       38 -25 -51 -10 28 -23 -5 17 -19 -55 50 -95 -14 -8 -21 -2
000050 5a 0f a5 13 f9 4f 0d ed 23 2d 19 0a ee 1c 12 fc
       90 15 -91 19 -7 79 13 -19 35 45 25 10 -18 28 18 -4
000060 00 9b 9f 3d 1d c3 e1 cb 25 22 b5 ee 5a 00 f0 e6
       0 -101 -97 61 29 -61 -31 -53 37 34 -75 -18 90 0 -16 -26
000070 bd b2 0a 1e 2d 25 13 2e 0a 1c 7d c4 7f 0c f8 f5
       -67 -78 10 30 45 37 19 46 10 28 125 -60 127 12 -8 -11
000080 0b 2a a8 db 02 b0 2e 95 04 33 aa d0 df d2 01 3d
       11 42 -88 -37 2 -80 46 -107 4 51 -86 -48 -33 -46 1 61
000090 89 12 0e 09 fc 02 04 dc 18 9e b9 1e ac 2b a8 fe
       -119 18 14 9 -4 2 4 -36 24 -98 -71 30 -84 43 -88 -2
0000a0 2b b8 f6 22 d9 34 33 f6 06 39 de 48 4b eb a0 5e
       43 -72 -10 34 -39 52 51 -10 6 57 -34 72 75 -21 -96 94
0000b0 09 02 28 e1 4f 50 48 f6 d4 ce ec cc f8 2a ff e6
       9 2 40 -31 79 80 72 -10 -44 -50 -20 -52 -8 42 -1 -26
0000c0 d6 1e bc 3d 9e 04 05 03 39 a7 eb fa 26 e3 07 4f
       -42 30 -68 61 -98 4 5 3 57 -89 -21 -6 38 -29 7 79
0000d0 90 1b e9 df d1 ca db 0b 24 53 1d 12 eb 5e dd ee
       -112 27 -23 -33 -47 -54 -37 11 36 83 29 18 -21 94 -35 -18
0000e0 35 b1 81 04 e9 0a fe c1 08 1f 10 0b df 1b fa 78
       53 -79 -127 4 -23 10 -2 -63 8 31 16 11 -33 27 -6 120
0000f0 fa dc 1e f7 ee 04 00 fc ec e0 2f 29 21 39 f0 13
       -6 -36 30 -9 -18 4 0 -4 -20 -32 47 41 33 57 -16 19

model/conv2d_14/Conv2D i1 [128, 1, 1, 88]
000000 d5 0e 16 1b 27 c5 03 e4 c6 de 0b f0 39 eb f7 40
       -43 14 22 27 39 -59 3 -28 -58 -34 11 -16 57 -21 -9 64
000010 09 f3 a6 1e 50 23 0c 22 d7 b6 a2 28 a2 d6 12 54
       9 -13 -90 30 80 35 12 34 -41 -74 -94 40 -94 -42 18 84
000020 e7 ff 21 b9 e0 ed ff 07 e6 e9 c8 21 3a ea 15 f9
       -25 -1 33 -71 -32 -19 -1 7 -26 -23 -56 33 58 -22 21 -7
000030 a7 53 13 0a 00 db f1 c3 ec 29 1f b5 25 33 02 5d
       -89 83 19 10 0 -37 -15 -61 -20 41 31 -75 37 51 2 93
000040 fc e9 0b f2 17 99 23 01 f2 4f 43 0e 02 a8 9d cb
       -4 -23 11 -14 23 -103 35 1 -14 79 67 14 2 -88 -99 -53
000050 fa dc ba 1b fc 81 0e d5 ca c4 36 46 32 c0 f6 65
       -6 -36 -70 27 -4 -127 14 -43 -54 -60 54 70 50 -64 -10 101
000060 ae 02 19 50 d1 0a 09 49 ee dd 1b 15 ea e6 81 22
       -82 2 25 80 -47 10 9 73 -18 -35 27 21 -22 -26 -127 34
000070 16 ee d6 c4 e7 13 d2 64 fb e7 27 ea b8 cb 1c 12
       22 -18 -42 -60 -25 19 -46 100 -5 -25 39 -22 -72 -53 28 18
000080 2f 2e ca 2e ce c4 1b cd aa 33 f3 02 c2 36 ef e7
       47 46 -54 46 -50 -60 27 -51 -86 51 -13 2 -62 54 -17 -25
000090 25 f2 ae 33 a6 e2 e0 e4 01 fb fb fb ce fc f5 15
       37 -14 -82 51 -90 -30 -32 -28 1 -5 -5 -5 -50 -4 -11 21
0000a0 15 1e be e6 f5 de 30 ec fd da 34 9f 1f 0e dc 38
       21 30 -66 -26 -11 -34 48 -20 -3 -38 52 -97 31 14 -36 56
0000b0 e7 0d 43 36 4e db 8e 1b aa 5c d3 3a d7 8d 7f 26
       -25 13 67 54 78 -37 -114 27 -86 92 -45 58 -41 -115 127 38
0000c0 27 e7 c8 72 2d f2 e9 af 00 df 46 24 3b 04 3a 30
       39 -25 -56 114 45 -14 -23 -81 0 -33 70 36 59 4 58 48
0000d0 dd eb 47 fa 38 25 00 ed 54 cc 1c fd 21 e3 34 f0
       -35 -21 71 -6 56 37 0 -19 84 -52 28 -3 33 -29 52 -16
0000e0 2b 40 db 08 f1 0c e0 e7 f9 15 77 fd 14 f2 f5 c1
       43 64 -37 8 -15 12 -32 -25 -7 21 119 -3 20 -14 -11 -63
0000f0 be e7 da 2e e6 15 0d c0 fc fc de 13 f6 20 f4 10
       -66 -25 -38 46 -26 21 13 -64 -4 -4 -34 19 -10 32 -12 16

model/conv2d_15/Conv2D i1 [64, 1, 1, 128]
000000 32 e3 ee de 15 c7 25 f4 0a 53 f9 12 47 fa f8 02
       50 -29 -18 -34 21 -57 37 -12 10 83 -7 18 71 -6 -8 2
000010 09 bd ed 0f d5 07 fe 15 39 0a fe bc ef b9 26 ff
       9 -67 -19 15 -43 7 -2 21 57 10 -2 -68 -17 -71 38 -1
000020 98 ef 27 d4 23 12 b6 95 f1 0b 29 36 13 20 b5 de
       -104 -17 39 -44 35 18 -74 -107 -15 11 41 54 19 32 -75 -34
000030 eb e6 12 25 06 ea f8 23 d8 fb 18 16 1b 24 ff b7
       -21 -26 18 37 6 -22 -8 35 -40 -5 24 22 27 36 -1 -73
000040 0d 1f 63 06 3c 7f bb e2 29 e8 0e 0b 22 1e 2d 1f
       13 31 99 6 60 127 -69 -30 41 -24 14 11 34 30 45 31
000050 19 da 25 12 eb 1b de eb 06 fa fc fd 2a c4 f0 04
       25 -38 37 18 -21 27 -34 -21 6 -6 -4 -3 42 -60 -16 4
000060 b8 46 08 cc 2a 03 f1 09 05 03 15 c7 14 13 15 23
       -72 70 8 -52 42 3 -15 9 5 3 21 -57 20 19 21 35
000070 2d 11 e7 b8 e9 ef 0e f2 f4 d1 c5 e4 8a d9 21 e3
       45 17 -25 -72 -23 -17 14 -14 -12 -47 -59 -28 -118 -39 33 -29
000080 3e b8 ed c8 16 a8 fe 11 12 1f 03 20 13 d1 f4 c7
       62 -72 -19 -56 22 -88 -2 17 18 31 3 32 19 -47 -12 -57
000090 05 0e 49 1d 94 20 c4 36 09 0f f1 fa e4 46 5c e6
       5 14 73 29 -108 32 -60 54 9 15 -15 -6 -28 70 92 -26
0000a0 ae 01 c3 07 9e 01 3c f7 f5 f7 d6 59 0f 1e 38 f0
       -82 1 -61 7 -98 1 60 -9 -11 -9 -42 89 15 30 56 -16
0000b0 09 eb 4b b9 4c f7 ec ed 53 09 06 e9 1f e2 44 f8
       9 -21 75 -71 76 -9 -20 -19 83 9 6 -23 31 -30 68 -8
0000c0 ce 35 3c 37 7f 25 8e 23 00 ff 2f 71 c3 fc 0f 31
       -50 53 60 55 127 37 -114 35 0 -1 47 113 -61 -4 15 49
0000d0 3a ca d3 30 d2 26 d3 1b 1d 04 36 c9 ed 13 07 48
       58 -54 -45 48 -46 38 -45 27 29 4 54 -55 -19 19 7 72
0000e0 fe ef fb 1e 1f ff 27 4b 27 dd b0 4a 03 bd 4a 17
       -2 -17 -5 30 31 -1 39 75 39 -35 -80 74 3 -67 74 23
0000f0 b0 c9 e8 0a bf 60 8d 0a df c0 dc cd 85 f7 ff 18
       -80 -55 -24 10 -65 96 -115 10 -33 -64 -36 -51 -123 -9 -1 24

model/conv2d_16/Conv2D i1 [256, 1, 1, 64]
000000 29 26 f2 00 1d 10 1b 07 45 72 31 fe de c1 14 b7
       41 38 -14 0 29 16 27 7 69 114 49 -2 -34 -63 20 -73
000010 53 fc bd 03 f8 7f 18 0b ee df 57 97 0a 02 d8 37
       83 -4 -67 3 -8 127 24 11 -18 -33 87 -105 10 2 -40 55
000020 8c 7d 4f e7 bd ec 43 f9 ff b4 bb 27 c8 bb 5b 3f
       -116 125 79 -25 -67 -20 67 -7 -1 -76 -69 39 -56 -69 91 63
000030 d1 cd d6 26 b9 c3 4b 07 7d 11 c1 04 83 94 4b a4
       -47 -51 -42 38 -71 -61 75 7 125 17 -63 4 -125 -108 75 -92
000040 14 13 f1 7f 4b d7 1d 14 f3 28 74 16 f2 52 48 47
       20 19 -15 127 75 -41 29 20 -13 40 116 22 -14 82 72 71
000050 5c 0f ff 30 f3 db 24 df f4 0d 40 d5 35 4a 35 2c
       92 15 -1 48 -13 -37 36 -33 -12 13 64 -43 53 74 53 44
000060 fb 45 ff e2 c8 c4 e6 3d bd fd 30 01 d5 2a 8d 1e
       -5 69 -1 -30 -56 -60 -26 61 -67 -3 48 1 -43 42 -115 30
000070 15 8c ff aa 9f d3 ab 20 36 b6 21 df f1 07 d5 15
       21 -116 -1 -86 -97 -45 -85 32 54 -74 33 -33 -15 7 -43 21
000080 12 0b 13 01 d2 2b 12 95 f8 13 ea 16 1c 17 02 3e
       18 11 19 1 -46 43 18 -107 -8 19 -22 22 28 23 2 62
000090 2a e1 14 1c 09 1c e6 37 17 db 2e d2 1d fb 12 d8
       42 -31 20 28 9 28 -26 55 23 -37 46 -46 29 -5 18 -40
0000a0 fb 1e 0d fa 1f eb 17 f9 b9 e1 e6 12 f3 59 37 81
       -5 30 13 -6 31 -21 23 -7 -71 -31 -26 18 -13 89 55 -127
0000b0 00 ce b1 20 e9 44 ea 06 fd 01 b6 a8 cd 2b 58 29
       0 -50 -79 32 -23 68 -22 6 -3 1 -74 -88 -51 43 88 41
0000c0 f8 f2 08 f0 41 cb ad eb e5 e3 28 2c 81 3e f5 31
       -8 -14 8 -16 65 -53 -83 -21 -27 -29 40 44 -127 62 -11 49
0000d0 01 de 0b 1f c8 07 ca ee e6 07 e8 d8 af f2 6a 19
       1 -34 11 31 -56 7 -54 -18 -26 7 -24 -40 -81 -14 106 25
0000e0 ed f5 ad f9 fa 17 e5 29 2e 1d 17 d1 14 22 fb 14
       -19 -11 -83 -7 -6 23 -27 41 46 29 23 -47 20 34 -5 20
0000f0 e2 17 31 09 16 0a f5 d8 05 cc 2f 1d 29 ea fa 28
       -30 23 49 9 22 10 -11 -40 5 -52 47 29 41 -22 -6 40

model/conv2d_17/Conv2D i1 [125, 1, 1, 256]
000000 ff c7 d4 1b f7 c7 45 7d 19 06 dd 0e 06 bc 00 ef
       -1 -57 -44 27 -9 -57 69 125 25 6 -35 14 6 -68 0 -17
000010 0c 0d c1 aa 1e 1f 1f d7 f1 00 07 fb ec fc da 5b
       12 13 -63 -86 30 31 31 -41 -15 0 7 -5 -20 -4 -38 91
000020 1c e7 ee 07 19 e9 07 dd e9 26 18 fb 15 f1 18 17
       28 -25 -18 7 25 -23 7 -35 -23 38 24 -5 21 -15 24 23
000030 d2 d5 f9 e7 d7 42 c5 35 d7 28 0b fb fe ff 02 c1
       -46 -43 -7 -25 -41 66 -59 53 -41 40 11 -5 -2 -1 2 -63
000040 d9 10 00 d5 01 35 e3 00 02 f6 2c ee 1b 15 0c cb
       -39 16 0 -43 1 53 -29 0 2 -10 44 -18 27 21 12 -53
000050 ff 09 0b f2 f9 f9 aa 1a e2 db ef 15 39 ca 21 d3
       -1 9 11 -14 -7 -7 -86 26 -30 -37 -17 21 57 -54 33 -45
000060 3e c8 d7 28 d6 1b df af 24 09 dc 14 1c 41 df 16
       62 -56 -41 40 -42 27 -33 -81 36 9 -36 20 28 65 -33 22
000070 f1 3d c5 28 d9 eb 0e 20 f2 e2 00 21 16 f6 d0 f9
       -15 61 -59 40 -39 -21 14 32 -14 -30 0 33 22 -10 -48 -7
000080 25 eb a6 fd e0 bd 24 35 f8 1f c1 04 11 13 ff fe
       37 -21 -90 -3 -32 -67 36 53 -8 31 -63 4 17 19 -1 -2
000090 fc 18 f8 0d 17 15 ec 16 0f ed f2 e4 e9 62 ee 21
       -4 24 -8 13 23 21 -20 22 15 -19 -14 -28 -23 98 -18 33
0000a0 04 fb ff fe 15 f2 ef fc 00 d3 aa 32 c1 05 81 31
       4 -5 -1 -2 21 -14 -17 -4 0 -45 -86 50 -63 5 -127 49
0000b0 39 23 f3 c6 e6 ef e4 24 30 ff d2 da 00 41 ed ca
       57 35 -13 -58 -26 -17 -28 36 48 -1 -46 -38 0 65 -19 -54
0000c0 f5 e8 1e 18 1d ec f3 f2 11 05 ed 17 24 1c ea 04
       -11 -24 30 24 29 -20 -13 -14 17 5 -19 23 36 28 -22 4
0000d0 12 f7 f0 ce 5d 2e 02 e2 14 d0 c9 eb 28 f8 d4 d7
       18 -9 -16 -50 93 46 2 -30 20 -48 -55 -21 40 -8 -44 -41
0000e0 2a 92 f8 e4 05 f3 fa c9 ea 09 01 f1 d0 f9 f9 e6
       42 -110 -8 -28 5 -13 -6 -55 -22 9 1 -15 -48 -7 -7 -26
0000f0 12 24 0b 16 fa d0 f6 15 08 e8 f1 04 08 08 ee ed
       18 36 11 22 -6 -48 -10 21 8 -24 -15 4 8 8 -18 -19

model/batch_normalization_2/FusedBatchNormV3;model/depthwise_conv2d/depthwise;model/conv2d_3/Conv2D i1 [1, 3, 3, 8]
000000 ef 3f d7 f1 dd 15 02 03 06 08 a0 e0 ff 44 e3 de
       -17 63 -41 -15 -35 21 2 3 6 8 -96 -32 -1 68 -29 -34
000010 12 a3 cb b5 05 2d e4 dd bf 7f 43 c1 af 09 c2 de
       18 -93 -53 -75 5 45 -28 -35 -65 127 67 -63 -81 9 -62 -34
000020 c3 11 7f 49 04 42 30 81 38 81 56 6a 7f 34 7f a0
       -61 17 127 73 4 66 48 -127 56 -127 86 106 127 52 127 -96
000030 d4 4a e4 c3 d8 2e b4 d4 81 f5 b5 6c 08 7f 0b 90
       -44 74 -28 -61 -40 46 -76 -44 -127 -11 -75 108 8 127 11 -112
000040 de a8 ca 7f 5c 5a 73 b5
       -34 -88 -54 127 92 90 115 -75

model/batch_normalization_6/FusedBatchNormV3;model/depthwise_conv2d_1/depthwise i1 [1, 3, 3, 48]
000000 05 fe f9 e1 04 f1 f9 00 0f ff fe 01 0a 05 19 fa
       5 -2 -7 -31 4 -15 -7 0 15 -1 -2 1 10 5 25 -6
000010 2c 0d 02 fe 0f 00 ff d1 0c f5 0a c1 06 15 04 0b
       44 13 2 -2 15 0 -1 -47 12 -11 10 -63 6 21 4 11
000020 0b ee 00 02 00 fd ff fa 09 10 00 07 fe 01 0c 1c
       11 -18 0 2 0 -3 -1 -6 9 16 0 7 -2 1 12 28
000030 da fb 05 1a fe a6 fb 78 d7 01 81 fc 47 12 c0 ca
       -38 -5 5 26 -2 -90 -5 120 -41 1 -127 -4 71 18 -64 -54
000040 42 a8 95 19 b4 05 f6 81 04 e5 7f 7f f8 5c f3 0b
       66 -88 -107 25 -76 5 -10 -127 4 -27 127 127 -8 92 -13 11
000050 e9 26 02 54 7c 05 01 c4 11 d3 ff f8 e9 29 06 5b
       -23 38 2 84 124 5 1 -60 17 -45 -1 -8 -23 41 6 91
000060 ff f2 01 28 fc 03 0a 00 ee f8 e8 00 26 e8 07 16
       -1 -14 1 40 -4 3 10 0 -18 -8 -24 0 38 -24 7 22
000070 09 01 f2 ff b7 00 07 d3 0d ac ea 14 0c fa fb ea
       9 1 -14 -1 -73 0 7 -45 13 -84 -22 20 12 -6 -5 -22
000080 fb 05 f3 fc b9 ed fb f2 0f f0 00 fb f2 d7 08 df
       -5 5 -13 -4 -71 -19 -5 -14 15 -16 0 -5 -14 -41 8 -33
000090 fc f5 14 f4 a5 04 f6 fc 7f fa 01 0e 00 f6 1c ec
       -4 -11 20 -12 -91 4 -10 -4 127 -6 1 14 0 -10 28 -20
0000a0 09 fe 04 03 e2 ff 11 09 f7 ef 3a 28 0d 01 f4 f5
       9 -2 4 3 -30 -1 17 9 -9 -17 58 40 13 1 -12 -11
0000b0 0d 9b ff fe f9 fb f2 f7 14 ea f7 ff f4 20 f6 c5
       13 -101 -1 -2 -7 -5 -14 -9 20 -22 -9 -1 -12 32 -10 -59
0000c0 81 31 72 7f f3 7f 81 81 92 8e 2a 87 cc 7f 03 7f
       -127 49 114 127 -13 127 -127 -127 -110 -114 42 -121 -52 127 3 127
0000d0 81 7f d5 fa 7f ff 7f 4d 62 08 d1 aa 7f 01 89 6b
       -127 127 -43 -6 127 -1 127 77 98 8 -47 -86 127 1 -119 107
0000e0 71 81 01 32 ff ef 88 81 61 95 81 0d 81 55 66 62
       113 -127 1 50 -1 -17 -120 -127 97 -107 -127 13 -127 85 102 98
0000f0 f7 7f 81 42 62 02 6d 01 e5 e1 02 00 01 a9 ea d9
       -9 127 -127 66 98 2 109 1 -27 -31 2 0 1 -87 -22 -39

model/batch_normalization_9/FusedBatchNormV3;model/depthwise_conv2d_2/depthwise;model/conv2d_15/Conv2D i1 [1, 3, 3, 64]
000000 bd ce e9 2b 2d fc 35 25 f1 2c d0 22 19 29 ce e6
       -67 -50 -23 43 45 -4 53 37 -15 44 -48 34 25 41 -50 -26
000010 eb 22 e2 1f 0e 2c 34 1f e4 e8 c0 d6 d4 18 ee 3c
       -21 34 -30 31 14 44 52 31 -28 -24 -64 -42 -44 24 -18 60
000020 b3 29 a5 1f c9 16 1c dd 34 fa 32 ef eb 24 e2 a3
       -77 41 -91 31 -55 22 28 -35 52 -6 50 -17 -21 36 -30 -93
000030 32 e2 10 d7 28 ea 43 e5 2d 60 d6 06 e9 f1 25 0a
       50 -30 16 -41 40 -22 67 -27 45 96 -42 6 -23 -15 37 10
000040 d9 81 ab 44 0c f9 7f 4e ed 56 ac 4e 4c 45 b3 ca
       -39 -127 -85 68 12 -7 127 78 -19 86 -84 78 76 69 -77 -54
000050 b3 45 19 56 33 5d 2d 65 bc b0 ee c1 af f2 38 77
       -77 69 25 86 51 93 45 101 -68 -80 -18 -63 -81 -14 56 119
000060 fc 66 02 48 b0 38 2d be 47 2d af d8 b6 44 ba 81
       -4 102 2 72 -80 56 45 -66 71 45 -81 -40 -74 68 -70 -127
000070 7f bc 41 b8 51 c5 7f c6 46 d1 aa 27 c2 b7 4b 20
       127 -68 65 -72 81 -59 127 -58 70 -47 -86 39 -62 -73 75 32
000080 01 9e b9 27 ad 05 67 35 f3 45 c6 36 3a 27 dd ce
       1 -98 -71 39 -83 5 103 53 -13 69 -58 54 58 39 -35 -50
000090 b9 2a 21 38 31 58 3f 58 ca ba 33 d6 cf b6 cf 64
       -71 42 33 56 49 88 63 88 -54 -70 51 -42 -49 -74 -49 100
0000a0 52 58 2a 39 e2 2b 3c d2 28 36 13 ed a2 2a cd 9c
       82 88 42 57 -30 43 60 -46 40 54 19 -19 -94 42 -51 -100
0000b0 73 cc 37 d2 38 e4 49 ea d1 db ca 2d dd aa 3e 1c
       115 -52 55 -46 56 -28 73 -22 -47 -37 -54 45 -35 -86 62 28
0000c0 0f 0a c5 57 5c c3 14 34 22 31 c4 2d 33 53 bc b8
       15 10 -59 87 92 -61 20 52 34 49 -60 45 51 83 -68 -72
0000d0 c4 39 07 32 32 33 48 02 bd d8 81 cf c1 2e fa 3e
       -60 57 7 50 50 51 72 2 -67 -40 -127 -49 -63 46 -6 62
0000e0 87 2d 81 44 b6 3c d4 ca 49 24 7f dc 03 48 bc e9
       -121 45 -127 68 -74 60 -44 -54 73 36 127 -36 3 72 -68 -23
0000f0 06 c6 2f bf 36 d0 41 c6 7f e0 ca 1f bc 79 09 35
       6 -58 47 -65 54 -48 65 -58 127 -32 -54 31 -68 121 9 53

model/batch_normalization_12/FusedBatchNormV3;model/depthwise_conv2d_3/depthwise;model/depthwise_conv2d_5/depthwise i1 [1, 3, 3, 96]
000000 b8 a5 f0 0c e6 20 2a 3f 13 06 be 3b 1c 48 19 37
       -72 -91 -16 12 -26 32 42 63 19 6 -66 59 28 72 25 55
000010 ad 4a ea d7 fb 19 30 d3 bf 48 33 00 77 87 f0 21
       -83 74 -22 -41 -5 25 48 -45 -65 72 51 0 119 -121 -16 33
000020 05 2b 3a e6 da 22 0f 7f 3d a7 ff 55 29 7e 14 0d
       5 43 58 -26 -38 34 15 127 61 -89 -1 85 41 126 20 13
000030 c4 93 7f 7f 26 08 65 dd fc e2 d3 81 28 2b c8 c7
       -60 -109 127 127 38 8 101 -35 -4 -30 -45 -127 40 43 -56 -57
000040 cc 13 40 be e1 0f bb 0f 18 fa f4 e9 6a 29 df 83
       -52 19 64 -66 -31 15 -69 15 24 -6 -12 -23 106 41 -33 -125
000050 4a f3 d7 09 fc 99 44 d7 2e 08 22 d4 88 f6 ba 28
       74 -13 -41 9 -4 -103 68 -41 46 8 34 -44 -120 -10 -70 40
000060 33 ff cb 12 11 40 5a 3c d7 1e e0 13 ee 47 28 33
       51 -1 -53 18 17 64 90 60 -41 30 -32 19 -18 71 40 51
000070 e9 f4 f5 e6 81 35 7f dd 95 69 45 32 3c 89 ef e8
       -23 -12 -11 -26 -127 53 127 -35 -107 105 69 50 60 -119 -17 -24
000080 f6 7f 81 d7 f3 25 33 61 7f b0 a0 5d 0e 7c 3e eb
       -10 127 -127 -41 -13 37 51 97 127 -80 -96 93 14 124 62 -21
000090 96 2e f8 49 d2 09 1b 81 7f b5 0c 19 7f af 86 64
       -106 46 -8 73 -46 9 27 -127 127 -75 12 25 127 -81 -122 100
0000a0 06 27 66 8c d4 ee 81 07 bf 35 81 e7 1b 57 9f ae
       6 39 102 -116 -44 -18 -127 7 -65 53 -127 -25 27 87 -97 -82
0000b0 fb 06 de c2 01 dd 58 05 26 41 7f 81 ca f5 f4 b9
       -5 6 -34 -62 1 -35 88 5 38 65 127 -127 -54 -11 -12 -71
0000c0 fa 5c 23 14 fa 28 2e 81 f6 9b 54 4c fd 48 21 3b
       -6 92 35 20 -6 40 46 -127 -10 -101 84 76 -3 72 33 59
0000d0 39 84 d7 ec 6f 28 58 81 81 46 81 ff e4 81 17 1b
       57 -124 -41 -20 111 40 88 -127 -127 70 -127 -1 -28 -127 23 27
0000e0 07 1b 25 07 68 39 40 3a 48 81 db 77 44 81 6a 11
       7 27 37 7 104 57 64 58 72 -127 -37 119 68 -127 106 17
0000f0 81 2b 91 82 2e f3 eb a9 0f d0 17 9d 59 ff 81 b4
       -127 43 -111 -126 46 -13 -21 -87 15 -48 23 -99 89 -1 -127 -76

model/batch_normalization_15/FusedBatchNormV3;model/depthwise_conv2d_4/depthwise;model/depthwise_conv2d_5/depthwise i1 [1, 3, 3, 96]
000000 58 13 b9 f6 aa f1 15 ee 22 8a e6 13 e6 38 1a 8d
       88 19 -71 -10 -86 -15 21 -18 34 -118 -26 19 -26 56 26 -115
000010 fe 61 9b 13 81 ea 49 9b 0f 1f 1b 45 d4 49 6d 78
       -2 97 -101 19 -127 -22 73 -101 15 31 27 69 -44 73 109 120
000020 08 fe 2e 37 a9 06 43 4b 8d de 05 57 37 4b 86 bb
       8 -2 46 55 -87 6 67 75 -115 -34 5 87 55 75 -122 -69
000030 29 7f b1 0d 3a 48 a3 37 25 11 f1 bc 8e 11 e7 09
       41 127 -79 13 58 72 -93 55 37 17 -15 -68 -114 17 -25 9
000040 28 4e f7 0a 70 0e d9 ab f3 c1 05 fa 48 4d 2b 10
       40 78 -9 10 112 14 -39 -85 -13 -63 5 -6 72 77 43 16
000050 8b e5 1b d7 00 76 67 81 28 f4 8a 7f f2 85 0c 81
       -117 -27 27 -41 0 118 103 -127 40 -12 -118 127 -14 -123 12 -127
000060 50 7f ce 19 fa e0 e6 0d 40 c9 f2 f1 dd 1c 10 a1
       80 127 -50 25 -6 -32 -26 13 64 -55 -14 -15 -35 28 16 -95
000070 d7 ff 29 0f f4 02 04 46 25 3d 05 0b c7 54 6e 6f
       -41 -1 41 15 -12 2 4 70 37 61 5 11 -57 84 110 111
000080 1d 7f fe 70 83 81 18 28 dd b5 e1 74 53 41 c2 f4
       29 127 -2 112 -125 -127 24 40 -35 -75 -31 116 83 65 -62 -12
000090 79 f8 e6 35 f6 0a b5 ed 32 13 db aa 9f 81 a5 28
       121 -8 -26 53 -10 10 -75 -19 50 19 -37 -86 -97 -127 -91 40
0000a0 e9 11 f5 2e 7f 35 d9 ae d5 cb 27 dc 7f 7e 79 fb
       -23 17 -11 46 127 53 -39 -82 -43 -53 39 -36 127 126 121 -5
0000b0 9e e0 0b aa 49 69 7f ee f9 c6 b2 32 16 81 00 e6
       -98 -32 11 -86 73 105 127 -18 -7 -58 -78 50 22 -127 0 -26
0000c0 7f d6 ae 0e 38 de e4 54 66 ab 52 ef 22 48 25 81
       127 -42 -82 14 56 -34 -28 84 102 -85 82 -17 34 72 37 -127
0000d0 7f 7f d0 10 35 ba 5a 34 48 49 28 b5 9d 68 7f 7f
       127 127 -48 16 53 -70 90 52 72 73 40 -75 -99 104 127 127
0000e0 03 f7 37 5f a6 e1 30 5b 6f cd e3 7f 1e 6a 81 b1
       3 -9 55 95 -90 -31 48 91 111 -51 -29 127 30 106 -127 -79
0000f0 5f eb 5c ce a3 46 ad c9 2a fb fd 81 81 fd eb 12
       95 -21 92 -50 -93 70 -83 -55 42 -5 -3 -127 -127 -3 -21 18

model/batch_normalization_18/FusedBatchNormV3;model/depthwise_conv2d_5/depthwise i1 [1, 3, 3, 96]
000000 07 e2 1c f2 b1 20 af 31 b7 9f 26 10 16 36 56 2c
       7 -30 28 -14 -79 32 -81 49 -73 -97 38 16 22 54 86 44
000010 f4 57 2c b5 ac 0a 29 4c 2f 06 12 00 2c 2c f1 a4
       -12 87 44 -75 -84 10 41 76 47 6 18 0 44 44 -15 -92
000020 0e 39 f8 7f 0b 74 15 f4 21 8f 6d 3d 96 8e 8d 0b
       14 57 -8 127 11 116 21 -12 33 -113 109 61 -106 -114 -115 11
000030 47 2b 81 39 94 d0 7e 69 eb ec 12 17 38 32 1d 56
       71 43 -127 57 -108 -48 126 105 -21 -20 18 23 56 50 29 86
000040 5b 6a 84 f7 c0 c3 77 73 cc 39 f6 0c ac 5d 47 3b
       91 106 -124 -9 -64 -61 119 115 -52 57 -10 12 -84 93 71 59
000050 7f ef 6e 52 39 52 40 90 b4 3e 05 4a 81 19 4a 0c
       127 -17 110 82 57 82 64 -112 -76 62 5 74 -127 25 74 12
000060 e1 81 da e4 9e 10 e4 f3 22 81 04 ba 7f b6 5e e0
       -31 -127 -38 -28 -98 16 -28 -13 34 -127 4 -70 127 -74 94 -32
000070 0a 11 dd 07 5a 0c 7f 1a ac e7 fb fe f7 3e 34 f4
       10 17 -35 7 90 12 127 26 -84 -25 -5 -2 -9 62 52 -12
000080 31 06 13 d4 03 10 f2 ff 53 da 08 47 88 de 08 1f
       49 6 19 -44 3 16 -14 -1 83 -38 8 71 -120 -34 8 31
000090 23 f9 b5 f2 e8 ed 1c ff 1f d3 e4 f8 bd 7f 1f 51
       35 -7 -75 -14 -24 -19 28 -1 31 -45 -28 -8 -67 127 31 81
0000a0 05 e5 d8 1e 10 36 f7 05 ab 4a 81 19 35 e6 cb f4
       5 -27 -40 30 16 54 -9 5 -85 74 -127 25 53 -26 -53 -12
0000b0 0c 06 d8 20 2d ba 5a 57 f4 da e7 e7 a3 ea 5f 21
       12 6 -40 32 45 -70 90 87 -12 -38 -25 -25 -93 -22 95 33
0000c0 2e a9 48 07 97 48 a4 d0 a6 82 45 de 22 33 7f 2d
       46 -87 72 7 -105 72 -92 -48 -90 -126 69 -34 34 51 127 45
0000d0 06 76 1e 61 5b 08 89 7f d0 08 19 0c 38 46 b5 3e
       6 118 30 97 91 8 -119 127 -48 8 25 12 56 70 -75 62
0000e0 40 4b dc c5 3c 6c 22 e2 5d 81 7f 7f 81 81 81 35
       64 75 -36 -59 60 108 34 -30 93 -127 127 127 -127 -127 -127 53
0000f0 32 ce 88 43 81 c6 06 0d ed eb 15 d1 20 7f 39 7f
       50 -50 -120 67 -127 -58 6 13 -19 -21 21 -47 32 127 57 127

model/batch_normalization_21/FusedBatchNormV3;model/depthwise_conv2d_6/depthwise i1 [1, 3, 3, 128]
000000 e4 6c c2 b0 01 46 7f 12 5b 3b 06 50 dd 04 5b f4
       -28 108 -62 -80 1 70 127 18 91 59 6 80 -35 4 91 -12
000010 0f 30 2b 39 2e 54 56 e4 f1 58 2d 03 41 fa 2a 09
       15 48 43 57 46 84 86 -28 -15 88 45 3 65 -6 42 9
000020 50 4d d4 50 9d 48 d6 54 68 22 1d 6b 9c 15 0d e5
       80 77 -44 80 -99 72 -42 84 104 34 29 107 -100 21 13 -27
000030 26 96 d5 b3 30 38 2f 4a d5 35 2a 11 15 31 dd c7
       38 -106 -43 -77 48 56 47 74 -43 53 42 17 21 49 -35 -57
000040 20 0b c5 ba 03 4f 60 64 e8 b9 b2 44 3d 35 ec 4a
       32 11 -59 -70 3 79 96 100 -24 -71 -78 68 61 53 -20 74
000050 69 e4 ce e1 9f 51 cb ff 11 c6 d6 02 02 e3 0c a5
       105 -28 -50 -31 -97 81 -53 -1 17 -58 -42 2 2 -29 12 -91
000060 57 3a 4c 34 c5 fd 35 24 1c ff ff 0a 47 3e 01 ad
       87 58 76 52 -59 -3 53 36 28 -1 -1 10 71 62 1 -83
000070 40 2f 81 91 87 2c b7 c6 e7 d3 03 35 bd eb 81 d4
       64 47 -127 -111 -121 44 -73 -58 -25 -45 3 53 -67 -21 -127 -44
000080 9a 7c 88 88 3c 55 47 45 7a 57 35 55 b6 0d 75 df
       -102 124 -120 -120 60 85 71 69 122 87 53 85 -74 13 117 -33
000090 40 44 58 7a 47 79 7f dd cf 7e 50 46 49 e1 4c f7
       64 68 88 122 71 121 127 -35 -49 126 80 70 73 -31 76 -9
0000a0 69 7e d1 7e 8d 53 fa 7c 79 33 ba 7f 90 1f cb d1
       105 126 -47 126 -115 83 -6 124 121 51 -70 127 -112 31 -53 -47
0000b0 4a 99 b1 a7 7f 60 4f 30 b9 4b 48 50 38 1d eb b4
       74 -103 -79 -89 127 96 79 48 -71 75 72 80 56 29 -21 -76
0000c0 2f b6 ad 81 1b 72 71 07 e0 22 81 5a 6b 60 b9 7c
       47 -74 -83 -127 27 114 113 7 -32 34 -127 90 107 96 -71 124
0000d0 7f 1d b3 a8 89 64 a5 0a f5 97 c4 cd fd 69 45 93
       127 29 -77 -88 -119 100 -91 10 -11 -105 -60 -51 -3 105 69 -109
0000e0 6a 52 6f 4a bd 02 f8 5a cb 35 bf f7 61 6b 0b a3
       106 82 111 74 -67 2 -8 90 -53 53 -65 -9 97 107 11 -93
0000f0 46 4b cf fd 81 36 ad ad cd 9f 31 7f a4 cb 84 ef
       70 75 -49 -3 -127 54 -83 -83 -51 -97 49 127 -92 -53 -124 -17
