weights/yolo-b.tflite (tflite, 38128 bytes, 12 tensors)

model/conv2d/Conv2D i1 [8, 3, 3, 1]
00000000: e3c0 b224 fe07 be98 810c 1deb fc03 f60d
00000010: 397f 1d22 12fa e5f2 4734 7fcb 8c9a e8f4
00000020: 024c 7f64 28e1 f07f c1c1 62bd e257 6a7f
00000030: fee5 0e8f c3fa c77f ba0a 06f0 25b1 2a82
00000040: c717 1624 12eb d381
-29 -64 -78 36 -2 7 -66 -104
-127 12 29 -21 -4 3 -10 13
57 127 29 34 18 -6 -27 -14
71 52 127 -53 -116 -102 -24 -12
2 76 127 100 40 -31 -16 127
-63 -63 98 -67 -30 87 106 127
-2 -27 14 -113 -61 -6 -57 127
-70 10 6 -16 37 -79 42 -126
-57 23 22 36 18 -21 -45 -127

model/conv2d_1/Conv2D i1 [4, 1, 1, 8]
00000000: 818f 207e 08f1 03bc f681 47f4 131e 1a4e
00000010: fb11 03fb 7fd5 76bc aac4 1481 f3c7 f2d6
-127 -113 32 126 8 -15 3 -68
-10 -127 71 -12 19 30 26 78
-5 17 3 -5 127 -43 118 -68
-86 -60 20 -127 -13 -57 -14 -42

model/conv2d_2/Conv2D i1 [8, 3, 3, 4]
00000000: 3b41 ed29 657f d745 284b ea22 f1ef 060b
00000010: eee3 040b eef1 0309 c8dd 09ec 94a1 15cd
00000020: bccf 08d9 f5ec ffe9 fcfa 0108 0b21 f70c
00000030: b3e0 f9c6 04fc ff11 5537 f932 81d1 ffb9
00000040: 03e0 0b04 7239 ff41 d0a8 f481 53f2 16a9
00000050: f7ee 30b1 d2e5 eaa3 d657 21d8 a859 31d9
00000060: 21e7 ff30 0377 fe2c 325f 0b42 0bac 19e7
00000070: cbcf 1718 c0e2 0c34 f1e6 03d4 c010 002a
00000080: a807 fb57 cc19 f2e5 e470 df49 f753 e57f
00000090: 1be6 ff01 1107 3217 f921 3f14 35ed 1003
000000a0: fd2f 771f f62d 7f1f 0ddb 3001 ca17 76f6
000000b0: a4fb 69ef aa1c 0b4a a0e0 0f02 93cc 05c2
000000c0: af48 0440 f710 fd11 ffc9 05cd 2928 0228
000000d0: 7a2e ef35 7ff2 fd13 d6ee 1525 12fe 14ee
000000e0: 3520 04fe a0b9 232e ff05 1d02 775d f608
000000f0: 8194 1cf2 dbd6 2110 696f e811 1a38 0a02
59 65 -19 41 101 127 -41 69
40 75 -22 34 -15 -17 6 11
-18 -29 4 11 -18 -15 3 9
-56 -35 9 -20 -108 -95 21 -51
-68 -49 8 -39 -11 -20 -1 -23
-4 -6 1 8 11 33 -9 12
-77 -32 -7 -58 4 -4 -1 17
85 55 -7 50 -127 -47 -1 -71
3 -32 11 4 114 57 -1 65
-48 -88 -12 -127 83 -14 22 -87
-9 -18 48 -79 -46 -27 -22 -93
-42 87 33 -40 -88 89 49 -39
33 -25 -1 48 3 119 -2 44
50 95 11 66 11 -84 25 -25
-53 -49 23 24 -64 -30 12 52
-15 -26 3 -44 -64 16 0 42
-88 7 -5 87 -52 25 -14 -27
-28 112 -33 73 -9 83 -27 127
27 -26 -1 1 17 7 50 23
-7 33 63 20 53 -19 16 3
-3 47 119 31 -10 45 127 31
13 -37 48 1 -54 23 118 -10
-92 -5 105 -17 -86 28 11 74
-96 -32 15 2 -109 -52 5 -62
-81 72 4 64 -9 16 -3 17
-1 -55 5 -51 41 40 2 40
122 46 -17 53 127 -14 -3 19
-42 -18 21 37 18 -2 20 -18
53 32 4 -2 -96 -71 35 46
-1 5 29 2 119 93 -10 8
-127 -108 28 -14 -37 -42 33 16
105 111 -24 17 26 56 10 2

model/conv2d_3/Conv2D i1 [48, 1, 1, 8]
00000000: be13 1d7f f20f 041b dff3 1368 c3f0 7ff8
00000010: c32a d159 130f f67f b6f2 fb36 3591 8178
00000020: 12d4 98aa 7f3d 815c 0ff6 b8fe 8118 ea0d
00000030: 81d7 f1cd f38e 12db 8f0a e244 e781 2424
00000040: 81d4 f32a d229 38e0 06c0 1006 81ff 00ca
00000050: ce1a e7d3 fb7f 101e d51e 905d 03ba 797f
00000060: 4c6b 747f f523 f05a 02be ef0c 81f8 feeb
00000070: 81e5 b306 47db 42bb f5e9 ec16 31fa 1481
00000080: 3821 2f81 eae8 efee 7f01 2f3b 1404 fb03
00000090: 810e 02cf f6f0 f210 442c 7fb2 a32a 1d2e
000000a0: 08b5 073a 93d6 c381 4104 2704 ee81 13b5
000000b0: ff7f 35f3 f745 06ed 4cf3 d730 3cab 0381
000000c0: 0a81 2a5a 08f0 0ed6 0c47 bbd1 06e8 f57f
000000d0: 81d8 e44c 9915 61f4 f881 ff07 2ff1 00e4
000000e0: ec0c c256 81e6 0cc6 0416 0afa 01b2 81be
000000f0: 13f8 eb46 5a9c f781 8a2c d581 eab6 fb52
-66 19 29 127 -14 15 4 27
-33 -13 19 104 -61 -16 127 -8
-61 42 -47 89 19 15 -10 127
-74 -14 -5 54 53 -111 -127 120
18 -44 -104 -86 127 61 -127 92
15 -10 -72 -2 -127 24 -22 13
-127 -41 -15 -51 -13 -114 18 -37
-113 10 -30 68 -25 -127 36 36
-127 -44 -13 42 -46 41 56 -32
6 -64 16 6 -127 -1 0 -54
-50 26 -25 -45 -5 127 16 30
-43 30 -112 93 3 -70 121 127
76 107 116 127 -11 35 -16 90
2 -66 -17 12 -127 -8 -2 -21
-127 -27 -77 6 71 -37 66 -69
-11 -23 -20 22 49 -6 20 -127
56 33 47 -127 -22 -24 -17 -18
127 1 47 59 20 4 -5 3
-127 14 2 -49 -10 -16 -14 16
68 44 127 -78 -93 42 29 46
8 -75 7 58 -109 -42 -61 -127
65 4 39 4 -18 -127 19 -75
-1 127 53 -13 -9 69 6 -19
76 -13 -41 48 60 -85 3 -127
10 -127 42 90 8 -16 14 -42
12 71 -69 -47 6 -24 -11 127
-127 -40 -28 76 -103 21 97 -12
-8 -127 -1 7 47 -15 0 -28
-20 12 -62 86 -127 -26 12 -58
4 22 10 -6 1 -78 -127 -66
19 -8 -21 70 90 -100 -9 -127
-118 44 -43 -127 -22 -74 -5 82

model/conv2d_4/Conv2D i1 [16, 1, 1, 48]
00000000: f41a 16e0 3cf5 c004 e2bc 1bde feb9 4506
00000010: 04bc 81d9 bfeb 4dfb f802 f73e dbef 02f0
00000020: 6b39 2004 5919 c614 f6f9 2e08 bcca eae5
00000030: 1014 21f9 01f9 d8da 0932 07ce ee7f ef0c
00000040: 07bf f011 09cd 04fd 110e cf11 f417 061a
00000050: f7d3 fc2b d903 2cfc 003f 211a e1e5 111f
00000060: 210d 1f42 e824 7bcb 4c34 cb43 81d0 d334
00000070: 19e7 1add 1a27 31a0 43c8 1408 0901 01ef
00000080: 0a8e cbd1 132f dcfd 3c53 d518 d803 fefd
00000090: 18f4 fddd e3ee 0b23 f9f9 13f7 ebd2 e103
000000a0: 25d7 dddd 46fc fede ded9 e937 2cfc 10ee
000000b0: 8c25 ef7f f8fd ed24 fd2c f032 0ca4 1fdb
000000c0: 7fe6 130e fcdf d6ce 23c8 2727 0ef7 21fc
000000d0: f201 ed01 2432 e805 0103 1411 1110 1044
000000e0: 0dae d208 ed1a 0af0 13ea e217 15e8 96e9
000000f0: fad3 86da 42cf d8dc 40ca ce08 ed06 b425
-12 26 22 -32 60 -11 -64 4
-30 -68 27 -34 -2 -71 69 6
4 -68 -127 -39 -65 -21 77 -5
-8 2 -9 62 -37 -17 2 -16
107 57 32 4 89 25 -58 20
-10 -7 46 8 -68 -54 -22 -27
16 20 33 -7 1 -7 -40 -38
9 50 7 -50 -18 127 -17 12
7 -65 -16 17 9 -51 4 -3
17 14 -49 17 -12 23 6 26
-9 -45 -4 43 -39 3 44 -4
0 63 33 26 -31 -27 17 31
33 13 31 66 -24 36 123 -53
76 52 -53 67 -127 -48 -45 52
25 -25 26 -35 26 39 49 -96
67 -56 20 8 9 1 1 -17
10 -114 -53 -47 19 47 -36 -3
60 83 -43 24 -40 3 -2 -3
24 -12 -3 -35 -29 -18 11 35
-7 -7 19 -9 -21 -46 -31 3
37 -41 -35 -35 70 -4 -2 -34
-34 -39 -23 55 44 -4 16 -18
-116 37 -17 127 -8 -3 -19 36
-3 44 -16 50 12 -92 31 -37
127 -26 19 14 -4 -33 -42 -50
35 -56 39 39 14 -9 33 -4
-14 1 -19 1 36 50 -24 5
1 3 20 17 17 16 16 68
13 -82 -46 8 -19 26 10 -16
19 -22 -30 23 21 -24 -106 -23
-6 -45 -122 -38 66 -49 -40 -36
64 -54 -50 8 -19 6 -76 37

model/conv2d_5/Conv2D i1 [64, 1, 1, 16]
00000000: 43dd ffba 1e96 0330 7f23 8f67 18f3 20a5
00000010: f801 2421 0404 25e4 d9f0 2aa7 8109 1bed
00000020: dbeb 03e6 68af 81ca 28d5 d851 54ae 3abe
00000030: d3ed 7e81 acef 08f4 766e cddb 2d34 e02f
00000040: 2d2b 4924 813e a33d 081b f279 29c4 bb20
00000050: 567d 5bee eb39 00e9 28ea 2418 44d7 7f21
00000060: 3acf 0fc3 36fb d52a 817d cd1e 4801 4a28
00000070: 6095 022b ae0e c548 fbff 8199 d210 ce73
00000080: 1cf8 f9b9 09b4 25f7 81d8 4d04 eb0e 5020
00000090: c644 07de 81aa 9d23 ce26 09c8 c2f6 140d
000000a0: f316 fe2f ec06 1123 d300 2f81 9ae6 0dde
000000b0: 5bfb 21f1 0d3e c7cc c5ea f6fb dcdd 7fd5
000000c0: f336 3eeb fe01 0f7f 3f04 d4e3 e542 03dd
000000d0: 0a44 0108 2600 81f8 0740 dfe5 0b18 f1e7
000000e0: aa43 00d7 2701 f036 accc 1581 155a a417
000000f0: e6bb d9b4 c918 17f1 13ea f1e1 8125 100e
67 -35 -1 -70 30 -106 3 48
127 35 -113 103 24 -13 32 -91
-8 1 36 33 4 4 37 -28
-39 -16 42 -89 -127 9 27 -19
-37 -21 3 -26 104 -81 -127 -54
40 -43 -40 81 84 -82 58 -66
-45 -19 126 -127 -84 -17 8 -12
118 110 -51 -37 45 52 -32 47
45 43 73 36 -127 62 -93 61
8 27 -14 121 41 -60 -69 32
86 125 91 -18 -21 57 0 -23
40 -22 36 24 68 -41 127 33
58 -49 15 -61 54 -5 -43 42
-127 125 -51 30 72 1 74 40
96 -107 2 43 -82 14 -59 72
-5 -1 -127 -103 -46 16 -50 115
28 -8 -7 -71 9 -76 37 -9
-127 -40 77 4 -21 14 80 32
-58 68 7 -34 -127 -86 -99 35
-50 38 9 -56 -62 -10 20 13
-13 22 -2 47 -20 6 17 35
-45 0 47 -127 -102 -26 13 -34
91 -5 33 -15 13 62 -57 -52
-59 -22 -10 -5 -36 -35 127 -43
-13 54 62 -21 -2 1 15 127
63 4 -44 -29 -27 66 3 -35
10 68 1 8 38 0 -127 -8
7 64 -33 -27 11 24 -15 -25
-86 67 0 -41 39 1 -16 54
-84 -52 21 -127 21 90 -92 23
-26 -69 -39 -76 -55 24 23 -15
19 -22 -15 -31 -127 37 16 14

model/conv2d_6/Conv2D i1 [24, 1, 1, 64]
00000000: 0d09 b13a e7f1 c114 0ba4 143e 3506 46eb
00000010: 0b95 f600 dd2e 2f38 29fa 3a20 2681 f5ea
00000020: a5fa 0506 fbed e538 ca00 17ff 043b 1916
00000030: 2d26 3605 d7de b90d e2f3 d6d5 68eb c5fb
00000040: 1006 fe35 cf05 1505 4906 1515 08e5 e6df
00000050: e1f6 14e2 ee17 daf6 1b1a d801 f20a e4f9
00000060: 17f0 e010 05f0 f8d4 211b d2ec d7f8 df15
00000070: 00f9 e6ee f1fc fa81 de1b 25e7 e3f4 e820
00000080: 0d0e c2e6 0b0c f032 05e3 0bd6 0ffa e1f9
00000090: 25fe 0002 0b06 e7f2 d50e e815 0130 f516
000000a0: 16f4 ce16 ff0b f005 ebfe 2214 e014 04f4
000000b0: 01e9 0ed4 21ed 1a81 0bdf 0612 0eeb 081f
000000c0: 111b 2a19 dbfd caf5 280e 351d f1fc 4b13
000000d0: 6522 25d3 211d 171e 0b2e e64f e517 cd09
000000e0: 3afa 16e6 ec0a 16f2 1c07 b128 0b10 0c13
000000f0: 182a 132c 2ddf 027f e465 f60e fd7a fbe3
13 9 -79 58 -25 -15 -63 20
11 -92 20 62 53 6 70 -21
11 -107 -10 0 -35 46 47 56
41 -6 58 32 38 -127 -11 -22
-91 -6 5 6 -5 -19 -27 56
-54 0 23 -1 4 59 25 22
45 38 54 5 -41 -34 -71 13
-30 -13 -42 -43 104 -21 -59 -5
16 6 -2 53 -49 5 21 5
73 6 21 21 8 -27 -26 -33
-31 -10 20 -30 -18 23 -38 -10
27 26 -40 1 -14 10 -28 -7
23 -16 -32 16 5 -16 -8 -44
33 27 -46 -20 -41 -8 -33 21
0 -7 -26 -18 -15 -4 -6 -127
-34 27 37 -25 -29 -12 -24 32
13 14 -62 -26 11 12 -16 50
5 -29 11 -42 15 -6 -31 -7
37 -2 0 2 11 6 -25 -14
-43 14 -24 21 1 48 -11 22
22 -12 -50 22 -1 11 -16 5
-21 -2 34 20 -32 20 4 -12
1 -23 14 -44 33 -19 26 -127
11 -33 6 18 14 -21 8 31
17 27 42 25 -37 -3 -54 -11
40 14 53 29 -15 -4 75 19
101 34 37 -45 33 29 23 30
11 46 -26 79 -27 23 -51 9
58 -6 22 -26 -20 10 22 -14
28 7 -79 40 11 16 12 19
24 42 19 44 45 -33 2 127
-28 101 -10 14 -3 122 -5 -29

model/conv2d_7/Conv2D i1 [128, 1, 1, 24]
00000000: d2b5 810d 4a3f ad13 210d 0c25 90b1 15d3
00000010: 6304 23be 05db 82ee d1fe e137 e63c a928
00000020: e6d0 c61b cdee 1c04 4d81 b7be 0029 1d0f
00000030: 45e2 e8d5 0aed 7134 45c7 237f 5617 d853
00000040: 9916 6ecf 1ffd 23be 2810 0ec4 1806 0cad
00000050: 0ff4 7fe3 0b65 eb03 af16 c34e 31f9 232b
00000060: af39 7ece 72c6 3b88 ba06 e082 6d81 111c
00000070: 342a 7595 03f3 db19 23b1 4d8d 07d6 1ee7
00000080: 1001 10fe cd4a 17b7 37cc 81e4 025a fc03
00000090: bf60 1b33 45d4 d91b ee21 f581 c5fb e3dc
000000a0: f6fe ba23 0ef0 1917 df3a 71f0 13b8 bc1a
000000b0: 66c1 c63a 0409 d8bb 4ccd a38f 8118 27c5
000000c0: e82c 9b26 ae53 ae79 0a90 fff3 d9e6 903d
000000d0: 7fea 12d3 ec60 0189 ca01 c89c 7a44 2765
000000e0: 1810 04f8 23dc 8fce 2281 536e fd0a 6208
000000f0: ce1e 3428 eec1 1f41 147f fffc fc18 cdab
-46 -75 -127 13 74 63 -83 19
33 13 12 37 -112 -79 21 -45
99 4 35 -66 5 -37 -126 -18
-47 -2 -31 55 -26 60 -87 40
-26 -48 -58 27 -51 -18 28 4
77 -127 -73 -66 0 41 29 15
69 -30 -24 -43 10 -19 113 52
69 -57 35 127 86 23 -40 83
-103 22 110 -49 31 -3 35 -66
40 16 14 -60 24 6 12 -83
15 -12 127 -29 11 101 -21 3
-81 22 -61 78 49 -7 35 43
-81 57 126 -50 114 -58 59 -120
-70 6 -32 -126 109 -127 17 28
52 42 117 -107 3 -13 -37 25
35 -79 77 -115 7 -42 30 -25
16 1 16 -2 -51 74 23 -73
55 -52 -127 -28 2 90 -4 3
-65 96 27 51 69 -44 -39 27
-18 33 -11 -127 -59 -5 -29 -36
-10 -2 -70 35 14 -16 25 23
-33 58 113 -16 19 -72 -68 26
102 -63 -58 58 4 9 -40 -69
76 -51 -93 -113 -127 24 39 -59
-24 44 -101 38 -82 83 -82 121
10 -112 -1 -13 -39 -26 -112 61
127 -22 18 -45 -20 96 1 -119
-54 1 -56 -100 122 68 39 101
24 16 4 -8 35 -36 -113 -50
34 -127 83 110 -3 10 98 8
-50 30 52 40 -18 -63 31 65
20 127 -1 -4 -4 24 -51 -85

model/conv2d_8/Conv2D i1 [30, 1, 1, 128]
00000000: 0d22 efcc 22ef f9f1 0cea 0018 dafb 19ed
00000010: f30a fd0f e8fe 02f6 fa32 0c1b 0fef 0ff4
00000020: ed11 17f5 eafe 0718 171f 06ff f60a 1e13
00000030: 320c e90a 0c03 ee12 0e0e f2e6 f9fd 16f8
00000040: 030d f5f6 e90f f07f f805 2cfa ce0a 1d08
00000050: fa02 f102 fe04 fe15 ee17 07f0 f108 f406
00000060: 01ea 0116 ff0c fffa 0cef fbe7 0ef8 26e9
00000070: f8f7 1cf7 03db 11f6 1c03 0de3 f800 fe16
00000080: dfc4 2708 dcfd 25f3 1afa eaf7 01c2 1851
00000090: 39cb 8f7f c0f2 33e4 15bb bbbf f9c9 3925
000000a0: 1d2c 28ee 13f7 1e42 ea25 0724 8638 fe0a
000000b0: ae07 c2f0 40e4 b4e4 5232 162f 6c5e d423
000000c0: a6ed 41e0 6012 bc07 01dd e5c2 f2de e026
000000d0: 3b45 b503 e1f6 6e3e f8c0 ebb0 d601 f51d
000000e0: 205c a0fb 3282 d5f5 0521 1512 2f89 acb3
000000f0: 0bf2 f683 d822 f70b 0208 f126 0447 d9ce
13 34 -17 -52 34 -17 -7 -15
12 -22 0 24 -38 -5 25 -19
-13 10 -3 15 -24 -2 2 -10
-6 50 12 27 15 -17 15 -12
-19 17 23 -11 -22 -2 7 24
23 31 6 -1 -10 10 30 19
50 12 -23 10 12 3 -18 18
14 14 -14 -26 -7 -3 22 -8
3 13 -11 -10 -23 15 -16 127
-8 5 44 -6 -50 10 29 8
-6 2 -15 2 -2 4 -2 21
-18 23 7 -16 -15 8 -12 6
1 -22 1 22 -1 12 -1 -6
12 -17 -5 -25 14 -8 38 -23
-8 -9 28 -9 3 -37 17 -10
28 3 13 -29 -8 0 -2 22
-33 -60 39 8 -36 -3 37 -13
26 -6 -22 -9 1 -62 24 81
57 -53 -113 127 -64 -14 51 -28
21 -69 -69 -65 -7 -55 57 37
29 44 40 -18 19 -9 30 66
-22 37 7 36 -122 56 -2 10
-82 7 -62 -16 64 -28 -76 -28
82 50 22 47 108 94 -44 35
-90 -19 65 -32 96 18 -68 7
1 -35 -27 -62 -14 -34 -32 38
59 69 -75 3 -31 -10 110 62
-8 -64 -21 -80 -42 1 -11 29
32 92 -96 -5 50 -126 -43 -11
5 33 21 18 47 -119 -84 -77
11 -14 -10 -125 -40 34 -9 11
2 8 -15 38 4 71 -39 -50

model/batch_normalization_1/FusedBatchNormV3;model/depthwise_conv2d/depthwise;model/conv2d_2/Conv2D i1 [1, 3, 3, 8]
00000000: 34bf 33ad 1f18 f308 39df 18a0 00c5 dab5
00000010: 50d5 11e7 fa81 1c81 00fc 0cec 814f 143e
00000020: 24e6 e981 1c2e 1914 03d8 f983 28c8 10ea
00000030: 24de 2917 1660 3346 62a6 06d1 0705 2d2f
00000040: 7f81 7f94 02eb 8111
52 -65 51 -83 31 24 -13 8
57 -33 24 -96 0 -59 -38 -75
80 -43 17 -25 -6 -127 28 -127
0 -4 12 -20 -127 79 20 62
36 -26 -23 -127 28 46 25 20
3 -40 -7 -125 40 -56 16 -22
36 -34 41 23 22 96 51 70
98 -90 6 -47 7 5 45 47
127 -127 127 -108 2 -21 -127 17

model/batch_normalization_5/FusedBatchNormV3;model/depthwise_conv2d_1/depthwise i1 [1, 3, 3, 48]
00000000: 12de 1270 516b 7fb9 03d1 417f 8146 2e35
00000010: d419 2309 3997 8113 1aa0 c5ac 1ad4 250a
00000020: 5666 d17f c117 7166 5a25 7f15 0cf9 0928
00000030: 128d 4f7f 8b7d 055b 1ae9 5d69 dcce 696d
00000040: 0506 2e5d 7fac 9cb7 1310 8abe 2335 0651
00000050: 575f f97b 9bc3 7f7f 7357 7630 4256 811e
00000060: d375 7f39 125d 867f 21ec 1807 1ebd 7f72
00000070: 7fbf 3d7f 7adc 12ab 0c14 7c0e 3081 be52
00000080: 0e07 7f53 81b2 5258 7f7f 1449 2478 862d
00000090: 4dd4 ea33 e239 2d52 4fe8 7b3e 963a 2eee
000000a0: cb25 56f3 df81 b84b 3781 f1f2 2aad 44f4
000000b0: 5976 ce78 b11e 5b1d aa15 6950 2c25 63cf
000000c0: 7cf0 183b df75 0f74 6feb 7233 c1f9 5be3
000000d0: 2e07 5a4a 04c5 b0f6 5d25 bfcb 5970 2d14
000000e0: 7f7f 037b 9ff9 5f43 ac1f 576b 7f79 4783
000000f0: 73fb 0d36 0773 e171 7fec fb0c eff5 4ce6
18 -34 18 112 81 107 127 -71
3 -47 65 127 -127 70 46 53
-44 25 35 9 57 -105 -127 19
26 -96 -59 -84 26 -44 37 10
86 102 -47 127 -63 23 113 102
90 37 127 21 12 -7 9 40
18 -115 79 127 -117 125 5 91
26 -23 93 105 -36 -50 105 109
5 6 46 93 127 -84 -100 -73
19 16 -118 -66 35 53 6 81
87 95 -7 123 -101 -61 127 127
115 87 118 48 66 86 -127 30
-45 117 127 57 18 93 -122 127
33 -20 24 7 30 -67 127 114
127 -65 61 127 122 -36 18 -85
12 20 124 14 48 -127 -66 82
14 7 127 83 -127 -78 82 88
127 127 20 73 36 120 -122 45
77 -44 -22 51 -30 57 45 82
79 -24 123 62 -106 58 46 -18
-53 37 86 -13 -33 -127 -72 75
55 -127 -15 -14 42 -83 68 -12
89 118 -50 120 -79 30 91 29
-86 21 105 80 44 37 99 -49
124 -16 24 59 -33 117 15 116
111 -21 114 51 -63 -7 91 -29
46 7 90 74 4 -59 -80 -10
93 37 -65 -53 89 112 45 20
127 127 3 123 -97 -7 95 67
-84 31 87 107 127 121 71 -125
115 -5 13 54 7 115 -31 113
127 -20 -5 12 -17 -11 76 -26

model/batch_normalization_8/FusedBatchNormV3;model/depthwise_conv2d_2/depthwise i1 [1, 3, 3, 64]
00000000: 8123 8177 49f9 f444 85f5 3802 1d3e 7ff3
00000010: d57f dcf9 1aca 7f14 7f42 d3c2 6c40 bb70
00000020: c938 2071 60dc 42bc 7f81 1db3 64b9 2b6a
00000030: 6cae 6542 4ed0 11b4 8bf7 12e7 8924 7f6a
00000040: 46b3 a658 5a2c 9e1e c10b 4a4a 466b 660b
00000050: cf2b f373 504d 6546 6542 3a97 780e 875c
00000060: 9a2f 214b 77f1 5de3 67c9 3104 5c09 2c7f
00000070: e7a1 60a7 7f5a 4209 8656 cb91 8143 414e
00000080: e6a0 f291 7f1b a101 b508 4d53 7f7f 725a
00000090: aaec a37f 817f ba7f 3757 ac81 7f9a 8155
000000a0: 81cb 2041 7f7f 7ffb 7139 377f 7f6e 502c
000000b0: 8181 7f19 7f76 7ff1 c47f eb96 7465 3708
000000c0: 865f c550 0718 c965 8116 210a e95f 6cff
000000d0: cf71 ecfd 1bef 580b 4f52 d6f9 5873 d87f
000000e0: d91a 1c6a 5df2 faae 439e 5fd1 39d4 ef4b
000000f0: 64cf 4720 18bc 349f 810f bc5f 8324 1b7f
-127 35 -127 119 73 -7 -12 68
-123 -11 56 2 29 62 127 -13
-43 127 -36 -7 26 -54 127 20
127 66 -45 -62 108 64 -69 112
-55 56 32 113 96 -36 66 -68
127 -127 29 -77 100 -71 43 106
108 -82 101 66 78 -48 17 -76
-117 -9 18 -25 -119 36 127 106
70 -77 -90 88 90 44 -98 30
-63 11 74 74 70 107 102 11
-49 43 -13 115 80 77 101 70
101 66 58 -105 120 14 -121 92
-102 47 33 75 119 -15 93 -29
103 -55 49 4 92 9 44 127
-25 -95 96 -89 127 90 66 9
-122 86 -53 -111 -127 67 65 78
-26 -96 -14 -111 127 27 -95 1
-75 8 77 83 127 127 114 90
-86 -20 -93 127 -127 127 -70 127
55 87 -84 -127 127 -102 -127 85
-127 -53 32 65 127 127 127 -5
113 57 55 127 127 110 80 44
-127 -127 127 25 127 118 127 -15
-60 127 -21 -106 116 101 55 8
-122 95 -59 80 7 24 -55 101
-127 22 33 10 -23 95 108 -1
-49 113 -20 -3 27 -17 88 11
79 82 -42 -7 88 115 -40 127
-39 26 28 106 93 -14 -6 -82
67 -98 95 -47 57 -44 -17 75
100 -49 71 32 24 -68 52 -97
-127 15 -68 95 -125 36 27 127
