weights/yolo-l.tflite (tflite, 176656 bytes, 24 tensors)

model/conv2d/Conv2D i1 [8, 3, 3, 1]
00000000: 0648 4419 2e7f 14ef 52ad 81c1 216d 5667
00000010: 6630 e871 18bf 7ffb f144 08c2 8fc4 050f
00000020: 0b48 7f4e e04d f0c5 7fdc e63a ede5 09da
00000030: fa26 8122 31ad efe0 b5d7 ec81 d801 b80c
00000040: 0d1c 03ca fdef 81df
6 72 68 25 46 127 20 -17
82 -83 -127 -63 33 109 86 103
102 48 -24 113 24 -65 127 -5
-15 68 8 -62 -113 -60 5 15
11 72 127 78 -32 77 -16 -59
127 -36 -26 58 -19 -27 9 -38
-6 38 -127 34 49 -83 -17 -32
-75 -41 -20 -127 -40 1 -72 12
13 28 3 -54 -3 -17 -127 -33

model/conv2d_1/Conv2D i1 [8, 1, 1, 8]
00000000: f2b9 247f e706 20ca eb05 8103 ec2a 0124
00000010: 093d ee81 0d08 eb43 7f4e 01e9 1dd0 71bc
00000020: b3c6 affa fd5e 7f3e 2608 16fc 81f5 d312
00000030: 65fd e207 128e 81a1 d201 cbfa 7ff7 56e7
-14 -71 36 127 -25 6 32 -54
-21 5 -127 3 -20 42 1 36
9 61 -18 -127 13 8 -21 67
127 78 1 -23 29 -48 113 -68
-77 -58 -81 -6 -3 94 127 62
38 8 22 -4 -127 -11 -45 18
101 -3 -30 7 18 -114 -127 -95
-46 1 -53 -6 127 -9 86 -25

model/conv2d_2/Conv2D i1 [4, 1, 1, 8]
00000000: fb08 fb08 ec81 f52b f47f f2a0 75ec 7b2d
00000010: 7fff 74f9 10ef 1504 0081 0247 3803 3aea
-5 8 -5 8 -20 -127 -11 43
-12 127 -14 -96 117 -20 123 45
127 -1 116 -7 16 -17 21 4
0 -127 2 71 56 3 58 -22

model/conv2d_3/Conv2D i1 [8, 1, 1, 4]
00000000: 7f17 070b f566 1a81 81e6 f0e0 faeb 7ff2
00000010: 2299 e57f 0917 810b fb78 057f 1081 f28f
127 23 7 11 -11 102 26 -127
-127 -26 -16 -32 -6 -21 127 -14
34 -103 -27 127 9 23 -127 11
-5 120 5 127 16 -127 -14 -113

model/conv2d_4/Conv2D i1 [48, 1, 1, 8]
00000000: 05cf 0bf0 d5e5 81fe fff3 0381 2841 f7f7
00000010: 1b02 810b fe0c 0003 d1b4 81f5 b6fe a3b6
00000020: 1418 333b 7f06 f421 037a f53b ce81 f2ed
00000030: f2cb c2ff ff1f ed81 2df1 810a f714 ebf5
00000040: f806 e7fa f281 04fe 05fe d802 0c0e 0a81
00000050: 0605 d50b 0f0e 0c81 e721 e5fa f208 8129
00000060: 811e 5005 f4f2 1519 32d9 350f d425 047f
00000070: fd6f ea07 8108 4fa9 f9e6 1306 5cf6 a97f
00000080: 0626 035e 0e81 f8ed 0324 f6f3 8103 0401
00000090: d44d 7f2c 2209 2c38 41f6 810a 2118 10bc
000000a0: f312 f3bf 0304 8150 d9a0 8100 bc07 d0dc
000000b0: f616 e3ea defe 814b 0d4a 187f 17a0 1308
000000c0: 81ef 0afd f5f6 0cf5 e3ea c9fb 0017 81fa
000000d0: fc1c f4ff e902 8151 8108 ffe7 f703 00f8
000000e0: f908 f6a5 1407 fd81 ef07 e200 f4fe 811f
000000f0: 810c 2bfd e206 1a00 f224 b487 16f6 e781
5 -49 11 -16 -43 -27 -127 -2
-1 -13 3 -127 40 65 -9 -9
27 2 -127 11 -2 12 0 3
-47 -76 -127 -11 -74 -2 -93 -74
20 24 51 59 127 6 -12 33
3 122 -11 59 -50 -127 -14 -19
-14 -53 -62 -1 -1 31 -19 -127
45 -15 -127 10 -9 20 -21 -11
-8 6 -25 -6 -14 -127 4 -2
5 -2 -40 2 12 14 10 -127
6 5 -43 11 15 14 12 -127
-25 33 -27 -6 -14 8 -127 41
-127 30 80 5 -12 -14 21 25
50 -39 53 15 -44 37 4 127
-3 111 -22 7 -127 8 79 -87
-7 -26 19 6 92 -10 -87 127
6 38 3 94 14 -127 -8 -19
3 36 -10 -13 -127 3 4 1
-44 77 127 44 34 9 44 56
65 -10 -127 10 33 24 16 -68
-13 18 -13 -65 3 4 -127 80
-39 -96 -127 0 -68 7 -48 -36
-10 22 -29 -22 -34 -2 -127 75
13 74 24 127 23 -96 19 8
-127 -17 10 -3 -11 -10 12 -11
-29 -22 -55 -5 0 23 -127 -6
-4 28 -12 -1 -23 2 -127 81
-127 8 -1 -25 -9 3 0 -8
-7 8 -10 -91 20 7 -3 -127
-17 7 -30 0 -12 -2 -127 31
-127 12 43 -3 -30 6 26 0
-14 36 -76 -121 22 -10 -25 -127

model/conv2d_5/Conv2D i1 [8, 1, 1, 48]
00000000: f4e1 11fb 0fe1 c423 fff5 fbfe 1204 f0ee
00000010: 51ca 03fb f2fd f6cb 15c7 ed13 dffb 0de9
00000020: 0a81 01ee 1114 eefd fa9a e912 daf8 d5fc
00000030: c4e5 435c 10d3 d226 f328 2506 c117 5b6f
00000040: 1012 5c49 df6f 53d6 cbbb 5fed edbd 74d6
00000050: 91f4 9837 3b6f 357b 555a f481 0e6d cde4
00000060: 133e e71a f261 0c02 28f4 f300 2e1a f300
00000070: d418 fd21 cf13 ed63 170d eb29 e21f db0c
00000080: 3ad6 34db 4bdb e114 04ee 03f6 3510 81e4
00000090: 22b6 0cbb cdb0 1f10 6afc f809 05c5 2011
000000a0: 7a0d ecad 7fcb 16a7 183b 41f1 7821 fe0a
000000b0: 0be7 0a0c 2a12 0ac8 dcaf 24b2 e6d3 a745
000000c0: 26ef 40d8 d7f8 3423 b962 6653 b5b0 fb12
000000d0: 1bdd 37b1 a6b2 4301 c128 029b cecc 7f0c
000000e0: ef4f 0c54 1369 5383 21db 2232 fb98 e8e3
000000f0: 280b fcca 711b 09f8 022d 2c49 f64e bab2
-12 -31 17 -5 15 -31 -60 35
-1 -11 -5 -2 18 4 -16 -18
81 -54 3 -5 -14 -3 -10 -53
21 -57 -19 19 -33 -5 13 -23
10 -127 1 -18 17 20 -18 -3
-6 -102 -23 18 -38 -8 -43 -4
-60 -27 67 92 16 -45 -46 38
-13 40 37 6 -63 23 91 111
16 18 92 73 -33 111 83 -42
-53 -69 95 -19 -19 -67 116 -42
-111 -12 -104 55 59 111 53 123
85 90 -12 -127 14 109 -51 -28
19 62 -25 26 -14 97 12 2
40 -12 -13 0 46 26 -13 0
-44 24 -3 33 -49 19 -19 99
23 13 -21 41 -30 31 -37 12
58 -42 52 -37 75 -37 -31 20
4 -18 3 -10 53 16 -127 -28
34 -74 12 -69 -51 -80 31 16
106 -4 -8 9 5 -59 32 17
122 13 -20 -83 127 -53 22 -89
24 59 65 -15 120 33 -2 10
11 -25 10 12 42 18 10 -56
-36 -81 36 -78 -26 -45 -89 69
38 -17 64 -40 -41 -8 52 35
-71 98 102 83 -75 -80 -5 18
27 -35 55 -79 -90 -78 67 1
-63 40 2 -101 -50 -52 127 12
-17 79 12 84 19 105 83 -125
33 -37 34 50 -5 -104 -24 -29
40 11 -4 -54 113 27 9 -8
2 45 44 73 -10 78 -70 -78

model/conv2d_6/Conv2D i1 [24, 3, 3, 8]
00000000: 0505 05f9 0506 0f10 f9ee ec14 e2cf b9d5
00000010: 0306 06ea 0a15 3918 0a0e 0bec 0f16 2a20
00000020: eee1 de2f c9bc 81b4 f80b 14e4 131e 4125
00000030: 0f10 10f4 0d17 2620 f2ef f41a dbc9 a3c5
00000040: 0209 1dfa 151a 2b19 cee4 f199 e9ee 1d1e
00000050: 2c12 1044 0303 e5e8 020b f70d f1f7 efff
00000060: a7ef f781 f3dd 1c49 441a 0f70 0f11 dbce
00000070: fe0a eb0f f1ff f3f2 c9f5 02b4 fee9 072f
00000080: 3c0f 0e4f 0914 e3c9 f6fe eff5 f306 f2ed
00000090: 1612 0832 151f 09ff 0d08 0320 040b fbf9
000000a0: d3fd dbc2 d6de 040f 2d17 1034 1828 fee8
000000b0: 1812 0621 0815 ede7 97f9 ce81 d2a5 ee23
000000c0: 1e0a 001a 0b25 01f0 1d0e 1222 0813 eaf4
000000d0: b302 f3b5 e9b7 e92a 01ef c2e9 f616 33fc
000000e0: fa04 a1e8 e20a 56fb f70e c7fc eaf7 3dfe
000000f0: 14f4 f5fd 02f1 2601 1ff6 fa34 ffdb 43ed
5 5 5 -7 5 6 15 16
-7 -18 -20 20 -30 -49 -71 -43
3 6 6 -22 10 21 57 24
10 14 11 -20 15 22 42 32
-18 -31 -34 47 -55 -68 -127 -76
-8 11 20 -28 19 30 65 37
15 16 16 -12 13 23 38 32
-14 -17 -12 26 -37 -55 -93 -59
2 9 29 -6 21 26 43 25
-50 -28 -15 -103 -23 -18 29 30
44 18 16 68 3 3 -27 -24
2 11 -9 13 -15 -9 -17 -1
-89 -17 -9 -127 -13 -35 28 73
68 26 15 112 15 17 -37 -50
-2 10 -21 15 -15 -1 -13 -14
-55 -11 2 -76 -2 -23 7 47
60 15 14 79 9 20 -29 -55
-10 -2 -17 -11 -13 6 -14 -19
22 18 8 50 21 31 9 -1
13 8 3 32 4 11 -5 -7
-45 -3 -37 -62 -42 -34 4 15
45 23 16 52 24 40 -2 -24
24 18 6 33 8 21 -19 -25
-105 -7 -50 -127 -46 -91 -18 35
30 10 0 26 11 37 1 -16
29 14 18 34 8 19 -22 -12
-77 2 -13 -75 -23 -73 -23 42
1 -17 -62 -23 -10 22 51 -4
-6 4 -95 -24 -30 10 86 -5
-9 14 -57 -4 -22 -9 61 -2
20 -12 -11 -3 2 -15 38 1
31 -10 -6 52 -1 -37 67 -19

model/conv2d_7/Conv2D i1 [24, 1, 1, 24]
00000000: 1f57 311f 81da f6e2 01ec 330f 460a 0f1a
00000010: 903b dfc7 0260 f71a 1e13 110a 155d 56eb
00000020: 080e 186f 5505 d5bc 8104 acef 120f 62e1
00000030: d5d0 bb1c 50ff 0579 e605 cf03 37a2 29d5
00000040: 8152 cfee beef 0b49 3221 f407 d209 e646
00000050: debf 3cc5 1bf7 fefe 93d6 277f 1f22 36b7
00000060: fd0d 1012 0081 0b14 e605 ef18 a908 c4e7
00000070: 19fa fd1b ec09 2792 dd11 2464 b5ec d7f8
00000080: 0001 d17f cf1d e32d 20e6 232f cf08 ba15
00000090: d5bf ede9 e6f5 2b39 8183 ce68 7703 71da
000000a0: f352 1745 e5d6 8d1c 08f7 e41e 47a8 7f46
000000b0: 590a 1322 1ad7 0519 0312 01e8 f908 f548
000000c0: 19f4 d81e cbe7 c6e4 8135 2dd6 54e4 f81a
000000d0: 22de 18e8 2202 cb24 17fe 0a30 d3f8 3d7f
000000e0: 0005 fac2 e414 f636 fae5 e132 2307 2f14
000000f0: 0ced e5fd 7fed cf34 c0d8 00fb e4fd 2415
31 87 49 31 -127 -38 -10 -30
1 -20 51 15 70 10 15 26
-112 59 -33 -57 2 96 -9 26
30 19 17 10 21 93 86 -21
8 14 24 111 85 5 -43 -68
-127 4 -84 -17 18 15 98 -31
-43 -48 -69 28 80 -1 5 121
-26 5 -49 3 55 -94 41 -43
-127 82 -49 -18 -66 -17 11 73
50 33 -12 7 -46 9 -26 70
-34 -65 60 -59 27 -9 -2 -2
-109 -42 39 127 31 34 54 -73
-3 13 16 18 0 -127 11 20
-26 5 -17 24 -87 8 -60 -25
25 -6 -3 27 -20 9 39 -110
-35 17 36 100 -75 -20 -41 -8
0 1 -47 127 -49 29 -29 45
32 -26 35 47 -49 8 -70 21
-43 -65 -19 -23 -26 -11 43 57
-127 -125 -50 104 119 3 113 -38
-13 82 23 69 -27 -42 -115 28
8 -9 -28 30 71 -88 127 70
89 10 19 34 26 -41 5 25
3 18 1 -24 -7 8 -11 72
25 -12 -40 30 -53 -25 -58 -28
-127 53 45 -42 84 -28 -8 26
34 -34 24 -24 34 2 -53 36
23 -2 10 48 -45 -8 61 127
0 5 -6 -62 -28 20 -10 54
-6 -27 -31 50 35 7 47 20
12 -19 -27 -3 127 -19 -49 52
-64 -40 0 -5 -28 -3 36 21

model/conv2d_8/Conv2D i1 [64, 1, 1, 24]
00000000: b781 ddb2 f1b0 b62a 992e 7606 e2f9 3701
00000010: fbfe 38ce eec6 2516 4db1 c366 3fe4 f5b7
00000020: 121f c49a e4d1 1d1d 3ac4 1f39 557f d5d1
00000030: e8ee bdc4 fc18 c20b 1513 2715 df1c 2e04
00000040: 81a5 f7f7 f3d7 f896 d3fc 2617 fccb a22a
00000050: 1f1f 04af 036d f0e3 04f7 2e7f 11e7 0036
00000060: a70e 2b1e 90ab cc76 81fd 23ed 040a fe65
00000070: ff3e 2c31 236c f422 ff28 c3de df7f df49
00000080: e42b adf6 18cb ed15 e1d6 c1cd fed1 08e1
00000090: 4c23 e320 c81c 9bd3 8109 22cb af1c 6523
000000a0: 11fa 8ef3 e8a2 b2b8 0cf7 0c1a 12e8 0781
000000b0: 46f6 1d01 181b 2713 c5f9 ef2e fc36 1257
000000c0: d50c 011c 56f7 59d9 c50b d8c3 0df8 b0ef
000000d0: c7dc 811e ecbb 4ad0 3ced f6f4 7cf3 320e
000000e0: 4cec ff05 2cff 0bd2 f6f2 7fe0 a20c 1213
000000f0: d917 0646 f5fc 13ee 0599 4ad6 4d21 ed01
-73 -127 -35 -78 -15 -80 -74 42
-103 46 118 6 -30 -7 55 1
-5 -2 56 -50 -18 -58 37 22
77 -79 -61 102 63 -28 -11 -73
18 31 -60 -102 -28 -47 29 29
58 -60 31 57 85 127 -43 -47
-24 -18 -67 -60 -4 24 -62 11
21 19 39 21 -33 28 46 4
-127 -91 -9 -9 -13 -41 -8 -106
-45 -4 38 23 -4 -53 -94 42
31 31 4 -81 3 109 -16 -29
4 -9 46 127 17 -25 0 54
-89 14 43 30 -112 -85 -52 118
-127 -3 35 -19 4 10 -2 101
-1 62 44 49 35 108 -12 34
-1 40 -61 -34 -33 127 -33 73
-28 43 -83 -10 24 -53 -19 21
-31 -42 -63 -51 -2 -47 8 -31
76 35 -29 32 -56 28 -101 -45
-127 9 34 -53 -81 28 101 35
17 -6 -114 -13 -24 -94 -78 -72
12 -9 12 26 18 -24 7 -127
70 -10 29 1 24 27 39 19
-59 -7 -17 46 -4 54 18 87
-43 12 1 28 86 -9 89 -39
-59 11 -40 -61 13 -8 -80 -17
-57 -36 -127 30 -20 -69 74 -48
60 -19 -10 -12 124 -13 50 14
76 -20 -1 5 44 -1 11 -46
-10 -14 127 -32 -94 12 18 19
-39 23 6 70 -11 -4 19 -18
5 -103 74 -42 77 33 -19 1

model/conv2d_9/Conv2D i1 [24, 1, 1, 64]
00000000: b004 fb46 6d03 33dd 051e 2145 c801 199f
00000010: e61d da94 f744 e02d b2de e91b c0ff c51d
00000020: df53 8143 f12b ec42 0cdc 0473 58e8 0d46
00000030: ffa3 a917 d770 01ec 5b30 1fce 39cf b202
00000040: 3833 e3dc 1f0d e61e e034 0ac4 e6c5 30ff
00000050: 1642 fa81 144c b2ce dcff d4e9 4ef0 3038
00000060: 0908 07fa 34ff c2d2 cfc1 14dd dd05 08c3
00000070: da07 e1fe 14fb de3c 25f5 bf0b fe1b 191a
00000080: 0d16 10c2 37df f3dc d7e5 e0c0 ec18 1914
00000090: 6ded c481 cf41 e618 2116 041d de34 2219
000000a0: 0f2b 080f ed1c 900a 00f5 3003 b7e3 c82a
000000b0: 16be 0340 0baf d22c f5ec 15cf 1f41 0dfb
000000c0: 1e7a 0a1e f4f3 2169 ec2a 38f8 ffe5 b014
000000d0: e1e1 54fc dea9 e81f 0a01 d037 ede4 2014
000000e0: 19f9 1af8 eaf3 7a01 1c28 cd11 06b8 44ca
000000f0: 3a65 01e5 f281 f02b f6fb 081a 3cdc 2d0b
-80 4 -5 70 109 3 51 -35
5 30 33 69 -56 1 25 -97
-26 29 -38 -108 -9 68 -32 45
-78 -34 -23 27 -64 -1 -59 29
-33 83 -127 67 -15 43 -20 66
12 -36 4 115 88 -24 13 70
-1 -93 -87 23 -41 112 1 -20
91 48 31 -50 57 -49 -78 2
56 51 -29 -36 31 13 -26 30
-32 52 10 -60 -26 -59 48 -1
22 66 -6 -127 20 76 -78 -50
-36 -1 -44 -23 78 -16 48 56
9 8 7 -6 52 -1 -62 -46
-49 -63 20 -35 -35 5 8 -61
-38 7 -31 -2 20 -5 -34 60
37 -11 -65 11 -2 27 25 26
13 22 16 -62 55 -33 -13 -36
-41 -27 -32 -64 -20 24 25 20
109 -19 -60 -127 -49 65 -26 24
33 22 4 29 -34 52 34 25
15 43 8 15 -19 28 -112 10
0 -11 48 3 -73 -29 -56 42
22 -66 3 64 11 -81 -46 44
-11 -20 21 -49 31 65 13 -5
30 122 10 30 -12 -13 33 105
-20 42 56 -8 -1 -27 -80 20
-31 -31 84 -4 -34 -87 -24 31
10 1 -48 55 -19 -28 32 20
25 -7 26 -8 -22 -13 122 1
28 40 -51 17 6 -72 68 -54
58 101 1 -27 -14 -127 -16 43
-10 -5 8 26 60 -36 45 11

model/conv2d_10/Conv2D i1 [96, 1, 1, 24]
00000000: 607f da27 33ed f50e d49b 8a2b e9a5 cd34
00000010: 3fee db0d b221 9cf7 f915 9903 147f ede2
00000020: 17e4 e2ee f3e5 de31 cf12 df3d 0103 ebca
00000030: 0e8a dba5 8202 3dd1 f341 0b22 e2e9 b5ed
00000040: fc89 dd31 8116 caee 37de e70c fe7f dce2
00000050: c881 31f5 f45b 37dd e47a 9c52 1705 4214
00000060: 030a 674c 5681 0c4f 3205 b196 be58 0e0b
00000070: 0e11 d77c dbd2 35bb 1dd3 15e7 fce8 c50f
00000080: 43f5 08ed 0de1 d681 09f6 14fe 50c4 02d9
00000090: 1cee b64a d230 d33c 1930 bdcf 627f 489e
000000a0: 3f3b b8bb c3ad 58fb b9e0 d5d2 ed7f 2d29
000000b0: 42f1 1490 20ec 1bef e111 0c0f d342 15be
000000c0: e8b2 8115 0709 1edf 140b 101c a900 1202
000000d0: 23d5 4b67 1cef f613 2e1a e943 e2cf a91a
000000e0: e92e 24e5 0925 09e5 20d8 390c 040d 047f
000000f0: 3a70 fb0e caa2 d682 c11e 0ffd e5f0 e981
96 127 -38 39 51 -19 -11 14
-44 -101 -118 43 -23 -91 -51 52
63 -18 -37 13 -78 33 -100 -9
-7 21 -103 3 20 127 -19 -30
23 -28 -30 -18 -13 -27 -34 49
-49 18 -33 61 1 3 -21 -54
14 -118 -37 -91 -126 2 61 -47
-13 65 11 34 -30 -23 -75 -19
-4 -119 -35 49 -127 22 -54 -18
55 -34 -25 12 -2 127 -36 -30
-56 -127 49 -11 -12 91 55 -35
-28 122 -100 82 23 5 66 20
3 10 103 76 86 -127 12 79
50 5 -79 -106 -66 88 14 11
14 17 -41 124 -37 -46 53 -69
29 -45 21 -25 -4 -24 -59 15
67 -11 8 -19 13 -31 -42 -127
9 -10 20 -2 80 -60 2 -39
28 -18 -74 74 -46 48 -45 60
25 48 -67 -49 98 127 72 -98
63 59 -72 -69 -61 -83 88 -5
-71 -32 -43 -46 -19 127 45 41
66 -15 20 -112 32 -20 27 -17
-31 17 12 15 -45 66 21 -66
-24 -78 -127 21 7 9 30 -33
20 11 16 28 -87 0 18 2
35 -43 75 103 28 -17 -10 19
46 26 -23 67 -30 -49 -87 26
-23 46 36 -27 9 37 9 -27
32 -40 57 12 4 13 4 127
58 112 -5 14 -54 -94 -42 -126
-63 30 15 -3 -27 -16 -23 -127

model/conv2d_11/Conv2D i1 [24, 1, 1, 96]
00000000: d7fb d7e3 f7e2 0544 d951 f1eb 461f d0d9
00000010: c115 0bdc e9fd e3bb 10c4 ebd2 21e8 131d
00000020: 4c19 d327 92f3 2ec7 f595 167f 1bd9 e515
00000030: 233e d94f 2801 db05 01af c619 ed32 c4c7
00000040: e8e9 55cb c3d2 0ef1 0403 f3e0 761f fdf8
00000050: 33d3 28f0 e110 f541 db20 1897 d6cb b339
00000060: 2fdb 362b ce47 1313 f423 c733 2fdd 0e03
00000070: eae7 aa67 eafb 4001 cc25 2619 b908 22e1
00000080: 14cd 20b4 fcf5 212b a3f2 333b 1c24 0515
00000090: 321c c0ee d329 d9e2 f170 2808 6a3f 2f0a
000000a0: 0c1d 0f81 2d23 0eb5 1dfb f8ec 0609 f8eb
000000b0: 00db f4c0 e1c2 2da3 dc3c dc1b e830 df14
000000c0: 1b07 0417 1ab6 3515 90b1 7f1a dcd6 104b
000000d0: bbb3 07d1 ea1f 5928 c42f d107 25c2 18be
000000e0: ace9 aafb 9057 3eff 2b13 3a4b 064c 5816
000000f0: b00c be18 03e2 ac08 2e09 35f7 f3e0 d510
-41 -5 -41 -29 -9 -30 5 68
-39 81 -15 -21 70 31 -48 -39
-63 21 11 -36 -23 -3 -29 -69
16 -60 -21 -46 33 -24 19 29
76 25 -45 39 -110 -13 46 -57
-11 -107 22 127 27 -39 -27 21
35 62 -39 79 40 1 -37 5
1 -81 -58 25 -19 50 -60 -57
-24 -23 85 -53 -61 -46 14 -15
4 3 -13 -32 118 31 -3 -8
51 -45 40 -16 -31 16 -11 65
-37 32 24 -105 -42 -53 -77 57
47 -37 54 43 -50 71 19 19
-12 35 -57 51 47 -35 14 3
-22 -25 -86 103 -22 -5 64 1
-52 37 38 25 -71 8 34 -31
20 -51 32 -76 -4 -11 33 43
-93 -14 51 59 28 36 5 21
50 28 -64 -18 -45 41 -39 -30
-15 112 40 8 106 63 47 10
12 29 15 -127 45 35 14 -75
29 -5 -8 -20 6 9 -8 -21
0 -37 -12 -64 -31 -62 45 -93
-36 60 -36 27 -24 48 -33 20
27 7 4 23 26 -74 53 21
-112 -79 127 26 -36 -42 16 75
-69 -77 7 -47 -22 31 89 40
-60 47 -47 7 37 -62 24 -66
-84 -23 -86 -5 -112 87 62 -1
43 19 58 75 6 76 88 22
-80 12 -66 24 3 -30 -84 8
46 9 53 -9 -13 -32 -43 16

model/conv2d_12/Conv2D i1 [136, 1, 1, 24]
00000000: ee81 14f1 f266 eeed 420a ee16 f4da 2bcf
00000010: f6b4 1d08 e7df e9cc 1e36 3ed9 633e 51d5
00000020: c8e1 36f4 a262 f8cb f9fd 4d13 1281 7df3
00000030: f87f a400 05cb ef58 1ecb dad0 1aa6 21b8
00000040: 1ced d5e6 012d 0cef cacf c114 0101 cf1c
00000050: e80a 816c ee2b 22e5 6b0a 2b4a 1412 dbf5
00000060: e142 d17f ca6f 650e 1b32 32eb 5b16 e62a
00000070: 1085 6a51 bb91 032e e5c9 d7db 0c7f 35a2
00000080: 0404 0ec3 34dc d99b 0834 b610 d00e 0220
00000090: e3f0 dfee bff0 cd2a 0b15 e3ff b8fa 3ad9
000000a0: b981 e90a e925 b0ec 12de c21e 365d cbca
000000b0: 2f58 ec3b 56c1 acd1 81f0 208e 35e5 fa7b
000000c0: c626 7fc7 16ac e5ee 60e5 e345 1ea4 f41c
000000d0: 1bb9 c383 fde7 09d0 1bfc 30fc 6e0b 81e4
000000e0: 13fa d0e5 b6ef 1db3 3b3c 2a48 0a09 e6ea
000000f0: 21b0 e80b 5afe f44a 1bb9 fecc 81f5 cf36
-18 -127 20 -15 -14 102 -18 -19
66 10 -18 22 -12 -38 43 -49
-10 -76 29 8 -25 -33 -23 -52
30 54 62 -39 99 62 81 -43
-56 -31 54 -12 -94 98 -8 -53
-7 -3 77 19 18 -127 125 -13
-8 127 -92 0 5 -53 -17 88
30 -53 -38 -48 26 -90 33 -72
28 -19 -43 -26 1 45 12 -17
-54 -49 -63 20 1 1 -49 28
-24 10 -127 108 -18 43 34 -27
107 10 43 74 20 18 -37 -11
-31 66 -47 127 -54 111 101 14
27 50 50 -21 91 22 -26 42
16 -123 106 81 -69 -111 3 46
-27 -55 -41 -37 12 127 53 -94
4 4 14 -61 52 -36 -39 -101
8 52 -74 16 -48 14 2 32
-29 -16 -33 -18 -65 -16 -51 42
11 21 -29 -1 -72 -6 58 -39
-71 -127 -23 10 -23 37 -80 -20
18 -34 -62 30 54 93 -53 -54
47 88 -20 59 86 -63 -84 -47
-127 -16 32 -114 53 -27 -6 123
-58 38 127 -57 22 -84 -27 -18
96 -27 -29 69 30 -92 -12 28
27 -71 -61 -125 -3 -25 9 -48
27 -4 48 -4 110 11 -127 -28
19 -6 -48 -27 -74 -17 29 -77
59 60 42 72 10 9 -26 -22
33 -80 -24 11 90 -2 -12 74
27 -71 -2 -52 -127 -11 -49 54

model/conv2d_13/Conv2D i1 [24, 1, 1, 136]
00000000: e216 fdcf 05f6 e63d 1d31 fb05 0755 27bb
00000010: c4de df42 0631 653a ebc5 152c 31d5 1d0b
00000020: 03c6 30d6 1cd9 f33e 55ba 46b9 074a 51b2
00000030: bde8 f21b fae3 eb48 e609 ccf5 661c f516
00000040: 4a3a 1def ebea 03a2 0bb8 d130 ca62 f742
00000050: 4436 5b04 c13d ca8e d418 e051 0de4 fff4
00000060: b4cb c827 03f0 b602 fef6 27b5 10b7 e6fb
00000070: 1f24 b530 ffe5 9ad0 69fe 3e0b 2e17 02df
00000080: e281 0a9c d2f6 fdb1 1132 afff efef 04e1
00000090: cb14 fdfd f0eb 05eb 2315 f4f9 b30f dadd
000000a0: e611 1ecc f521 fc0d fce3 12fc dce2 0c46
000000b0: 062e 0ad8 04ed e9c9 d4e4 12f1 39d0 151c
000000c0: e5ff 18d1 f639 c706 0136 dd15 e139 d7f6
000000d0: 099d 24ee 8112 1a00 f2df 1908 56fb 1fb3
000000e0: 0c22 ebeb def6 f1a1 f7ff 0618 37fb dee8
000000f0: 01e3 07ef dc0d c809 0aff ecd8 1bf2 dbbf
-30 22 -3 -49 5 -10 -26 61
29 49 -5 5 7 85 39 -69
-60 -34 -33 66 6 49 101 58
-21 -59 21 44 49 -43 29 11
3 -58 48 -42 28 -39 -13 62
85 -70 70 -71 7 74 81 -78
-67 -24 -14 27 -6 -29 -21 72
-26 9 -52 -11 102 28 -11 22
74 58 29 -17 -21 -22 3 -94
11 -72 -47 48 -54 98 -9 66
68 54 91 4 -63 61 -54 -114
-44 24 -32 81 13 -28 -1 -12
-76 -53 -56 39 3 -16 -74 2
-2 -10 39 -75 16 -73 -26 -5
31 36 -75 48 -1 -27 -102 -48
105 -2 62 11 46 23 2 -33
-30 -127 10 -100 -46 -10 -3 -79
17 50 -81 -1 -17 -17 4 -31
-53 20 -3 -3 -16 -21 5 -21
35 21 -12 -7 -77 15 -38 -35
-26 17 30 -52 -11 33 -4 13
-4 -29 18 -4 -36 -30 12 70
6 46 10 -40 4 -19 -23 -55
-44 -28 18 -15 57 -48 21 28
-27 -1 24 -47 -10 57 -57 6
1 54 -35 21 -31 57 -41 -10
9 -99 36 -18 -127 18 26 0
-14 -33 25 8 86 -5 31 -77
12 34 -21 -21 -34 -10 -15 -95
-9 -1 6 24 55 -5 -34 -24
1 -29 7 -17 -36 13 -56 9
10 -1 -20 -40 27 -14 -37 -65

model/conv2d_14/Conv2D i1 [224, 1, 1, 48]
00000000: 1c81 0522 f5d9 27db af1f 54d5 3bbf 18a7
00000010: dbb1 4f0c 2525 1ee7 40f3 24fe 4de8 383f
00000020: c505 3e47 0b21 d242 23d2 f4f9 0bfe aff6
00000030: bdd2 7c17 3129 b70c 591b 9dd7 9ac7 a6d7
00000040: dda2 f110 1dd5 7501 1f09 2381 93ea 7622
00000050: 0eb8 ef10 bd24 13dd feef 04f1 67f3 f4e8
00000060: f9cc 65f1 e2fc dfe3 0810 dc0b 10fc fef3
00000070: d481 0c09 c01b d613 e8e2 d60a e3f3 e905
00000080: 0c06 e215 ebee 20d8 08fc 04f5 f6de fbea
00000090: d34a 95a6 a2ea 5a1c e536 24eb 5d4f 32e7
000000a0: 2972 53fa 0140 1034 eee7 090f 7f12 a617
000000b0: 240a 1e0a 250d 0643 111c 4b1d e0e5 4e05
000000c0: 5506 78ff 5ef7 2bcb 23e6 ddd6 4117 9835
000000d0: 7fb0 eaa9 0702 1225 ec1c e421 11ef ce15
000000e0: c50c 0dfb 09fc dde8 f201 e2ee fc04 c819
000000f0: d51c 043d ccba 090b 19df 3fe4 d852 5eaa
28 -127 5 34 -11 -39 39 -37
-81 31 84 -43 59 -65 24 -89
-37 -79 79 12 37 37 30 -25
64 -13 36 -2 77 -24 56 63
-59 5 62 71 11 33 -46 66
35 -46 -12 -7 11 -2 -81 -10
-67 -46 124 23 49 41 -73 12
89 27 -99 -41 -102 -57 -90 -41
-35 -94 -15 16 29 -43 117 1
31 9 35 -127 -109 -22 118 34
14 -72 -17 16 -67 36 19 -35
-2 -17 4 -15 103 -13 -12 -24
-7 -52 101 -15 -30 -4 -33 -29
8 16 -36 11 16 -4 -2 -13
-44 -127 12 9 -64 27 -42 19
-24 -30 -42 10 -29 -13 -23 5
12 6 -30 21 -21 -18 32 -40
8 -4 4 -11 -10 -34 -5 -22
-45 74 -107 -90 -94 -22 90 28
-27 54 36 -21 93 79 50 -25
41 114 83 -6 1 64 16 52
-18 -25 9 15 127 18 -90 23
36 10 30 10 37 13 6 67
17 28 75 29 -32 -27 78 5
85 6 120 -1 94 -9 43 -53
35 -26 -35 -42 65 23 -104 53
127 -80 -22 -87 7 2 18 37
-20 28 -28 33 17 -17 -50 21
-59 12 13 -5 9 -4 -35 -24
-14 1 -30 -18 -4 4 -56 25
-43 28 4 61 -52 -70 9 11
25 -33 63 -28 -40 82 94 -86

model/conv2d_15/Conv2D i1 [96, 1, 1, 224]
00000000: dfbf 080b 0507 dbf9 03bb 2b19 0c12 0400
00000010: a6e7 f902 1f1e 1eef f9f0 ff29 0629 c20a
00000020: 2617 0ff5 0010 0fe8 1ae2 f816 e41a ffba
00000030: 2d56 e11c 02e6 e8eb f90a fffd 0816 e503
00000040: 0f12 0d02 1113 fe00 f407 a0db 17fd caef
00000050: f4e5 48ef fc31 c903 ec08 de07 2b06 06fe
00000060: f91d 1f0e f1fd e6d1 fbf3 ddfe fc0e 1206
00000070: 261c e8d6 de11 271a fae6 f2fa fc1f fc00
00000080: ff2a e1e8 08dd 1a1f f9d8 1ecb 0208 f8ed
00000090: 020a 0ce8 de02 190a d6fd 020a 04df d71f
000000a0: 1f04 f781 02fe f2f2 db14 ef22 e312 26cf
000000b0: e833 c7e0 020a 1902 ec08 27fe 0712 0729
000000c0: e502 0afa f5ec def0 01d8 1b25 11d9 14f5
000000d0: 0cfb efd8 182c 51f6 eccb 14db 09fa 01fd
000000e0: cebe 440d 0a18 1aca 24ce 29fc f901 0924
000000f0: 2cfc 3de0 53f4 c9cc a0d4 fa3e 023a 7903
-33 -65 8 11 5 7 -37 -7
3 -69 43 25 12 18 4 0
-90 -25 -7 2 31 30 30 -17
-7 -16 -1 41 6 41 -62 10
38 23 15 -11 0 16 15 -24
26 -30 -8 22 -28 26 -1 -70
45 86 -31 28 2 -26 -24 -21
-7 10 -1 -3 8 22 -27 3
15 18 13 2 17 19 -2 0
-12 7 -96 -37 23 -3 -54 -17
-12 -27 72 -17 -4 49 -55 3
-20 8 -34 7 43 6 6 -2
-7 29 31 14 -15 -3 -26 -47
-5 -13 -35 -2 -4 14 18 6
38 28 -24 -42 -34 17 39 26
-6 -26 -14 -6 -4 31 -4 0
-1 42 -31 -24 8 -35 26 31
-7 -40 30 -53 2 8 -8 -19
2 10 12 -24 -34 2 25 10
-42 -3 2 10 4 -33 -41 31
31 4 -9 -127 2 -2 -14 -14
-37 20 -17 34 -29 18 38 -49
-24 51 -57 -32 2 10 25 2
-20 8 39 -2 7 18 7 41
-27 2 10 -6 -11 -20 -34 -16
1 -40 27 37 17 -39 20 -11
12 -5 -17 -40 24 44 81 -10
-20 -53 20 -37 9 -6 1 -3
-50 -66 68 13 10 24 26 -54
36 -50 41 -4 -7 1 9 36
44 -4 61 -32 83 -12 -55 -52
-96 -44 -6 62 2 58 121 3

model/conv2d_16/Conv2D i1 [224, 1, 1, 96]
00000000: d50b d0b6 14cf 03dd cff1 0b16 1fd5 a91f
00000010: 061a 00ca 7f16 38c9 1d1c 0435 05d2 b42c
00000020: 3bbc 18f7 ec06 25fd 09cd 6812 d999 d833
00000030: d200 5814 0af5 4eda f10d d8f3 06ca f50b
00000040: 2119 ec00 01a6 20e5 de2e 44f6 df04 174e
00000050: 06df c540 05d0 1111 c7b6 0a29 02c7 0e46
00000060: bb08 fa0b d2f8 fb23 32a9 eb30 5ad3 48db
00000070: e9c5 39f2 b520 083b a8ab 1cca ced9 ec03
00000080: ff25 3e0d 030f f61b 54ec f837 042d 0317
00000090: f72c be18 20c6 ede4 cbd8 2f08 03d1 7fea
000000a0: e52c 0c7e bf42 fee2 3310 94df 4622 20ed
000000b0: 3311 69c0 eb38 ae1b f424 f64e 540c c5c9
000000c0: c41b 0aec c5f8 8d01 dec1 e237 d234 b3c9
000000d0: 3fee c1f6 f71f d0d8 19c4 e03c 13f5 18d2
000000e0: d029 1453 89c1 efb9 bc1f f1d1 d3d8 431c
000000f0: 190e f4b5 28fc 1814 9a34 c607 30fc 9112
-43 11 -48 -74 20 -49 3 -35
-49 -15 11 22 31 -43 -87 31
6 26 0 -54 127 22 56 -55
29 28 4 53 5 -46 -76 44
59 -68 24 -9 -20 6 37 -3
9 -51 104 18 -39 -103 -40 51
-46 0 88 20 10 -11 78 -38
-15 13 -40 -13 6 -54 -11 11
33 25 -20 0 1 -90 32 -27
-34 46 68 -10 -33 4 23 78
6 -33 -59 64 5 -48 17 17
-57 -74 10 41 2 -57 14 70
-69 8 -6 11 -46 -8 -5 35
50 -87 -21 48 90 -45 72 -37
-23 -59 57 -14 -75 32 8 59
-88 -85 28 -54 -50 -39 -20 3
-1 37 62 13 3 15 -10 27
84 -20 -8 55 4 45 3 23
-9 44 -66 24 32 -58 -19 -28
-53 -40 47 8 3 -47 127 -22
-27 44 12 126 -65 66 -2 -30
51 16 -108 -33 70 34 32 -19
51 17 105 -64 -21 56 -82 27
-12 36 -10 78 84 12 -59 -55
-60 27 10 -20 -59 -8 -115 1
-34 -63 -30 55 -46 52 -77 -55
63 -18 -63 -10 -9 31 -48 -40
25 -60 -32 60 19 -11 24 -46
-48 41 20 83 -119 -63 -17 -71
-68 31 -15 -47 -45 -40 67 28
25 14 -12 -75 40 -4 24 20
-102 52 -58 7 48 -4 -111 18

model/conv2d_17/Conv2D i1 [75, 1, 1, 224]
00000000: 1b27 2433 25e7 27d9 ba52 f7f2 15b3 ff99
00000010: dfd7 e7e1 f5e3 3533 0eef 2ae7 f9f7 0ed0
00000020: ee03 0717 2bf6 ff00 3e03 4924 f403 451b
00000030: 09fb f816 11f6 ae2b c53a 4bec fee0 1bbf
00000040: e827 1838 050e d2fe f4d4 4313 d918 2cfa
00000050: 41ec 084e f216 fb00 faba 20f5 320a 2df0
00000060: 23fd 00f2 dedc c428 0930 daed 2025 f0ef
00000070: 1bd0 ee3f 11fa d5fe 02f8 f2d8 fcf5 fa01
00000080: c351 1e08 edeb 07da bfe1 2ef2 2a20 2814
00000090: e0b4 ffef 14fa 36da 0a16 febb 0409 05f9
000000a0: 2942 d12e 8ee9 4423 cbe3 e50d f4e9 ef13
000000b0: eb19 ecf2 ecf6 e3ea 14be 043e 40fb f2f1
000000c0: 2bfe 0e03 dded d5e8 ef0b c725 ccbc 2fab
000000d0: fbf9 f101 24fd 011b 24ec 053f 7ff7 4d14
000000e0: 12e6 e6f0 17e5 0942 df1c f2f9 21cf f502
000000f0: 25fe 15f2 2f30 e5e1 0c81 e835 d3fa 06c7
27 39 36 51 37 -25 39 -39
-70 82 -9 -14 21 -77 -1 -103
-33 -41 -25 -31 -11 -29 53 51
14 -17 42 -25 -7 -9 14 -48
-18 3 7 23 43 -10 -1 0
62 3 73 36 -12 3 69 27
9 -5 -8 22 17 -10 -82 43
-59 58 75 -20 -2 -32 27 -65
-24 39 24 56 5 14 -46 -2
-12 -44 67 19 -39 24 44 -6
65 -20 8 78 -14 22 -5 0
-6 -70 32 -11 50 10 45 -16
35 -3 0 -14 -34 -36 -60 40
9 48 -38 -19 32 37 -16 -17
27 -48 -18 63 17 -6 -43 -2
2 -8 -14 -40 -4 -11 -6 1
-61 81 30 8 -19 -21 7 -38
-65 -31 46 -14 42 32 40 20
-32 -76 -1 -17 20 -6 54 -38
10 22 -2 -69 4 9 5 -7
41 66 -47 46 -114 -23 68 35
-53 -29 -27 13 -12 -23 -17 19
-21 25 -20 -14 -20 -10 -29 -22
20 -66 4 62 64 -5 -14 -15
43 -2 14 3 -35 -19 -43 -24
-17 11 -57 37 -52 -68 47 -85
-5 -7 -15 1 36 -3 1 27
36 -20 5 63 127 -9 77 20
18 -26 -26 -16 23 -27 9 66
-33 28 -14 -7 33 -49 -11 2
37 -2 21 -14 47 48 -27 -31
12 -127 -24 53 -45 -6 6 -57

model/batch_normalization_2/FusedBatchNormV3;model/depthwise_conv2d/depthwise;model/conv2d_5/Conv2D i1 [1, 3, 3, 8]
00000000: e514 ec5a cefe 2011 830c f2f1 041c 00fb
00000010: ade1 f896 30ed e081 385c 2fc2 85f4 752c
00000020: 7f4d 7f67 037f 064a 66c9 5f7f 7f89 8189
00000030: ea5e e338 acf9 4536 f17f 9052 075a 0860
00000040: f504 ab2b 5da6 b0fe
-27 20 -20 90 -50 -2 32 17
-125 12 -14 -15 4 28 0 -5
-83 -31 -8 -106 48 -19 -32 -127
56 92 47 -62 -123 -12 117 44
127 77 127 103 3 127 6 74
102 -55 95 127 127 -119 -127 -119
-22 94 -29 56 -84 -7 69 54
-15 127 -112 82 7 90 8 96
-11 4 -85 43 93 -90 -80 -2

model/batch_normalization_6/FusedBatchNormV3;model/depthwise_conv2d_1/depthwise i1 [1, 3, 3, 48]
00000000: 0be4 d7da 7f0c f015 eff6 3601 008c 11cd
00000010: f3b1 87fa f4da 1bb1 0d41 4ffb 402e 05fd
00000020: 00e0 d116 f412 bd11 f3e3 3ccf dfe3 fd39
00000030: 66d2 23b3 68ee 2481 c20c 879a d93c 06ac
00000040: dc83 b3e8 24e1 cf81 9a15 7f46 4d0b c03b
00000050: d6af 4def 0d36 7fba 17d4 659b 9139 e17f
00000060: 56d1 bec3 2606 4406 eeec 1149 b0d3 01c8
00000070: dc93 27ca 254a 819a 47fa 4600 1cb6 c0e6
00000080: 29ce f81b 1bf8 d71a 81c9 37d0 ded8 ea2e
00000090: 3f3c 0e00 7d42 f7fb ce51 c4f7 0b81 4c47
000000a0: d1fb 24f2 42c5 f901 1f7f e3f7 6758 fc4a
000000b0: 21bc 8fd4 ebf9 461b c7c6 4fd7 3a97 2760
000000c0: 7f7f b908 6c7f 7310 8181 7fed e875 707f
000000d0: 8103 10f0 7fe0 0714 ad7b d87f 7f10 5a34
000000e0: 8181 7f7f 3081 bf81 1581 7f81 6b59 aa74
000000f0: 3c53 7ffe 2555 7fef c720 e630 81ad 3e5b
11 -28 -41 -38 127 12 -16 21
-17 -10 54 1 0 -116 17 -51
-13 -79 -121 -6 -12 -38 27 -79
13 65 79 -5 64 46 5 -3
0 -32 -47 22 -12 18 -67 17
-13 -29 60 -49 -33 -29 -3 57
102 -46 35 -77 104 -18 36 -127
-62 12 -121 -102 -39 60 6 -84
-36 -125 -77 -24 36 -31 -49 -127
-102 21 127 70 77 11 -64 59
-42 -81 77 -17 13 54 127 -70
23 -44 101 -101 -111 57 -31 127
86 -47 -66 -61 38 6 68 6
-18 -20 17 73 -80 -45 1 -56
-36 -109 39 -54 37 74 -127 -102
71 -6 70 0 28 -74 -64 -26
41 -50 -8 27 27 -8 -41 26
-127 -55 55 -48 -34 -40 -22 46
63 60 14 0 125 66 -9 -5
-50 81 -60 -9 11 -127 76 71
-47 -5 36 -14 66 -59 -7 1
31 127 -29 -9 103 88 -4 74
33 -68 -113 -44 -21 -7 70 27
-57 -58 79 -41 58 -105 39 96
127 127 -71 8 108 127 115 16
-127 -127 127 -19 -24 117 112 127
-127 3 16 -16 127 -32 7 20
-83 123 -40 127 127 16 90 52
-127 -127 127 127 48 -127 -65 -127
21 -127 127 -127 107 89 -86 116
60 83 127 -2 37 85 127 -17
-57 32 -26 48 -127 -83 62 91

model/batch_normalization_11/FusedBatchNormV3;model/depthwise_conv2d_2/depthwise i1 [1, 3, 3, 64]
00000000: 7852 1fd6 23ea 3d05 7f12 fee7 81fb fd2a
00000010: 3b14 60d6 6caf be81 ce01 1ac8 37ef f5f1
00000020: bc11 4fe8 0e4f c508 ae10 5f11 1be1 4725
00000030: afb3 79d2 285e 7f81 0f0b 3cbc 1581 3a81
00000040: f27f fd14 e6ce 7ff1 d100 0f6f 7ec7 0ef0
00000050: 423d 34b3 47b5 b77a bf7f 7f0b 4fba fb31
00000060: fdc5 7fda 4110 9603 cc04 1900 e2c0 6744
00000070: 9a9b 52d2 5213 f41c 4509 3cf5 4ded 5c1f
00000080: 816a 81ed f43a 5408 fbf7 e53a f1d8 81ef
00000090: 5407 7fc1 7681 98e8 813e 5b81 7fea 13fc
000000a0: 9716 d7e5 2971 9b15 ac1c 4cec 0484 7f7f
000000b0: 8181 6b81 6d47 f958 a4fe 66a6 3bef 815b
000000c0: cbf6 071d 43dd cce5 242d 05f9 1e09 f134
000000d0: 3dea 4fed 38c2 f1e2 0711 fedb e933 e7d4
000000e0: cef3 42eb 272d b7fb f0f1 0dea 17d9 2a13
000000f0: 1de5 24e5 fe10 0abd fc12 acf2 19db fa28
120 82 31 -42 35 -22 61 5
127 18 -2 -25 -127 -5 -3 42
59 20 96 -42 108 -81 -66 -127
-50 1 26 -56 55 -17 -11 -15
-68 17 79 -24 14 79 -59 8
-82 16 95 17 27 -31 71 37
-81 -77 121 -46 40 94 127 -127
15 11 60 -68 21 -127 58 -127
-14 127 -3 20 -26 -50 127 -15
-47 0 15 111 126 -57 14 -16
66 61 52 -77 71 -75 -73 122
-65 127 127 11 79 -70 -5 49
-3 -59 127 -38 65 16 -106 3
-52 4 25 0 -30 -64 103 68
-102 -101 82 -46 82 19 -12 28
69 9 60 -11 77 -19 92 31
-127 106 -127 -19 -12 58 84 8
-5 -9 -27 58 -15 -40 -127 -17
84 7 127 -63 118 -127 -104 -24
-127 62 91 -127 127 -22 19 -4
-105 22 -41 -27 41 113 -101 21
-84 28 76 -20 4 -124 127 127
-127 -127 107 -127 109 71 -7 88
-92 -2 102 -90 59 -17 -127 91
-53 -10 7 29 67 -35 -52 -27
36 45 5 -7 30 9 -15 52
61 -22 79 -19 56 -62 -15 -30
7 17 -2 -37 -23 51 -25 -44
-50 -13 66 -21 39 45 -73 -5
-16 -15 13 -22 23 -39 42 19
29 -27 36 -27 -2 16 10 -67
-4 18 -84 -14 25 -37 -6 40

model/batch_normalization_14/FusedBatchNormV3;model/depthwise_conv2d_3/depthwise;model/conv2d_15/Conv2D i1 [1, 3, 3, 96]
00000000: 9b36 d550 56d5 4710 1381 4e00 4855 d58c
00000010: 3cdc 7fa5 8111 7144 1114 c76c 0337 7981
00000020: 7f0e 54bc 7f0a a168 28ce 7f3a 1249 12f7
00000030: e8c8 dd3d f672 09e1 fa64 de20 ad2d 7a1c
00000040: b04e cff0 78ab bb11 63c4 df1e 3800 dae0
00000050: 2581 e9ed 0eea 2eb1 a44c ffb6 fedf d33c
00000060: 812e b73c 49a6 3018 02e2 5e56 0666 dfaa
00000070: 7ff3 288a 2bfb 3b1d d622 fc3d e65e fec8
00000080: 22ec 42a3 5f02 1257 59ab 0254 f10e f8f4
00000090: d1f5 2548 fb67 1af5 2e6f 0d00 9bc1 7f43
000000a0: da44 c6d5 dfbd d908 58ab 0d5f 19e6 b27f
000000b0: 1801 7fdf f1fc 3db7 3268 2dc6 fc0f bc3b
000000c0: ae49 8145 d0df 7fb6 0412 7f37 a97f e981
000000d0: 42b6 f29e 7508 7f23 b925 7f5e dd7f 81a3
000000e0: cdc7 f2a8 7c08 087f 649b 9759 1481 37f5
000000f0: 8147 fd17 047f 23ae 167f 0c31 ac94 657f
-101 54 -43 80 86 -43 71 16
19 -127 78 0 72 85 -43 -116
60 -36 127 -91 -127 17 113 68
17 20 -57 108 3 55 121 -127
127 14 84 -68 127 10 -95 104
40 -50 127 58 18 73 18 -9
-24 -56 -35 61 -10 114 9 -31
-6 100 -34 32 -83 45 122 28
-80 78 -49 -16 120 -85 -69 17
99 -60 -33 30 56 0 -38 -32
37 -127 -23 -19 14 -22 46 -79
-92 76 -1 -74 -2 -33 -45 60
-127 46 -73 60 73 -90 48 24
2 -30 94 86 6 102 -33 -86
127 -13 40 -118 43 -5 59 29
-42 34 -4 61 -26 94 -2 -56
34 -20 66 -93 95 2 18 87
89 -85 2 84 -15 14 -8 -12
-47 -11 37 72 -5 103 26 -11
46 111 13 0 -101 -63 127 67
-38 68 -58 -43 -33 -67 -39 8
88 -85 13 95 25 -26 -78 127
24 1 127 -33 -15 -4 61 -73
50 104 45 -58 -4 15 -68 59
-82 73 -127 69 -48 -33 127 -74
4 18 127 55 -87 127 -23 -127
66 -74 -14 -98 117 8 127 35
-71 37 127 94 -35 127 -127 -93
-51 -57 -14 -88 124 8 8 127
100 -101 -105 89 20 -127 55 -11
-127 71 -3 23 4 127 35 -82
22 127 12 49 -84 -108 101 127

model/batch_normalization_17/FusedBatchNormV3;model/depthwise_conv2d_4/depthwise i1 [1, 3, 3, 136]
00000000: af34 d87f b32c d6d9 b2e1 ca9e 599b 6940
00000010: 2798 a4fc bc4a 345e 3248 fbe0 cd86 f1eb
00000020: 0df8 3385 ed34 4bac 74fe 6e56 6b0a 4581
00000030: ea37 368d ff70 983c 8bc1 3be3 e0bf 7f8d
00000040: 8664 00d1 8181 d548 dedc 3e1f d83e f44d
00000050: 7fe1 a53e 502a 7306 3f3f 237f 7f15 1188
00000060: 1b15 a366 cd2d 2570 ef7c 7f3e 65a2 f744
00000070: eec5 0eeb 8e1e 814a f8af c0fa 8b44 2d1f
00000080: e4d7 7526 a633 083f 0def 031e b4c1 81d0
00000090: 3402 fedf 3723 0812 2c06 170a 2725 eb44
000000a0: 1ef8 0210 2bbe 7fd9 07dc 16c9 0eec 00a3
000000b0: 0afe 0d29 0729 e51b 1b1e 1bd8 91ce d2e1
000000c0: 0627 2bc6 d6ec 0802 dd0b f115 0015 8ce3
000000d0: 114b 0119 e8eb db12 14e2 0611 f036 f5bd
000000e0: fe34 f105 fa0b 16ee 1bc2 1d46 adee d9f0
000000f0: 4f3e 281a c9c5 7ac7 f719 f3fc f3dd d940
-81 52 -40 127 -77 44 -42 -39
-78 -31 -54 -98 89 -101 105 64
39 -104 -92 -4 -68 74 52 94
50 72 -5 -32 -51 -122 -15 -21
13 -8 51 -123 -19 52 75 -84
116 -2 110 86 107 10 69 -127
-22 55 54 -115 -1 112 -104 60
-117 -63 59 -29 -32 -65 127 -115
-122 100 0 -47 -127 -127 -43 72
-34 -36 62 31 -40 62 -12 77
127 -31 -91 62 80 42 115 6
63 63 35 127 127 21 17 -120
27 21 -93 102 -51 45 37 112
-17 124 127 62 101 -94 -9 68
-18 -59 14 -21 -114 30 -127 74
-8 -81 -64 -6 -117 68 45 31
-28 -41 117 38 -90 51 8 63
13 -17 3 30 -76 -63 -127 -48
52 2 -2 -33 55 35 8 18
44 6 23 10 39 37 -21 68
30 -8 2 16 43 -66 127 -39
7 -36 22 -55 14 -20 0 -93
10 -2 13 41 7 41 -27 27
27 30 27 -40 -111 -50 -46 -31
6 39 43 -58 -42 -20 8 2
-35 11 -15 21 0 21 -116 -29
17 75 1 25 -24 -21 -37 18
20 -30 6 17 -16 54 -11 -67
-2 52 -15 5 -6 11 22 -18
27 -62 29 70 -83 -18 -39 -16
79 62 40 26 -55 -59 122 -57
-9 25 -13 -4 -13 -35 -39 64

model/batch_normalization_20/FusedBatchNormV3;model/depthwise_conv2d_5/depthwise;model/conv2d_16/Conv2D i1 [1, 3, 3, 224]
00000000: 7f21 be35 bcae 56b2 7946 4543 c25d 812c
00000010: 5381 525c 32b2 5276 5845 7939 4836 3bba
00000020: 588c 3865 379f 7f64 e53e 9945 61a7 5544
00000030: 4b3f 1cbb 0e60 4bb0 6134 6497 525c 7f56
00000040: c92f 24a9 013e 4359 c21d 31fc f2d1 a53e
00000050: a423 ad7c 68e8 c254 6735 ca97 22bb cfa9
00000060: 4820 a072 1b59 9950 e30c b22d 4d58 5c2a
00000070: 45e1 7038 561c a5c5 56ad 58d9 c142 a28d
00000080: 3142 3b4d 6867 448d 8197 776d 5d37 6f03
00000090: 9d49 a0fc 4f24 67c3 842d 6453 fb1b 4ba9
000000a0: 5854 adc6 ed91 a259 ae53 534a 1eba 4eae
000000b0: 6007 5a5a 12f6 1eff cf28 e0a6 1d66 f4c9
000000c0: 6f22 3ec4 8843 1a28 4fc7 5f55 25de fb5d
000000d0: ce0b 4838 a6ad 246e 9c72 249b 8123 d001
000000e0: 6b42 aa7f 903a 7203 1f68 4149 9f4f b856
000000f0: 45e9 6f7f 4893 643e 7962 7750 4257 4eef
127 33 -66 53 -68 -82 86 -78
121 70 69 67 -62 93 -127 44
83 -127 82 92 50 -78 82 118
88 69 121 57 72 54 59 -70
88 -116 56 101 55 -97 127 100
-27 62 -103 69 97 -89 85 68
75 63 28 -69 14 96 75 -80
97 52 100 -105 82 92 127 86
-55 47 36 -87 1 62 67 89
-62 29 49 -4 -14 -47 -91 62
-92 35 -83 124 104 -24 -62 84
103 53 -54 -105 34 -69 -49 -87
72 32 -96 114 27 89 -103 80
-29 12 -78 45 77 88 92 42
69 -31 112 56 86 28 -91 -59
86 -83 88 -39 -63 66 -94 -115
49 66 59 77 104 103 68 -115
-127 -105 119 109 93 55 111 3
-99 73 -96 -4 79 36 103 -61
-124 45 100 83 -5 27 75 -87
88 84 -83 -58 -19 -111 -94 89
-82 83 83 74 30 -70 78 -82
96 7 90 90 18 -10 30 -1
-49 40 -32 -90 29 102 -12 -55
111 34 62 -60 -120 67 26 40
79 -57 95 85 37 -34 -5 93
-50 11 72 56 -90 -83 36 110
-100 114 36 -101 -127 35 -48 1
107 66 -86 127 -112 58 114 3
31 104 65 73 -97 79 -72 86
69 -23 111 127 72 -109 100 62
121 98 119 80 66 87 78 -17
